checkpoints/cora/gcn_20.pth (torch, 93849 bytes, 4 tensors)

gcn_layer1.linear.weight f4 [16, 1433]
0.052537724 0.06868314 0.04401587 0.04865528 -0.15761842 -0.04065021 -0.07043529 0.03556773
-0.030409118 0.05004508 0.013797399 0.0450614 -0.033442568 0.018877883 -0.016432717 0.01908218
0.062241632 0.02721 -0.03858474 -0.05147897 -0.0035343636 0.07048982 -0.04433286 -0.09736693
-0.003976303 0.0059020016 -0.03357099 -0.018768756 -0.059097514 -0.010319651 0.050392922 0.0020990872
-0.026859272 0.008707564 -0.0057440815 -0.10621108 0.0020361892 0.096277595 0.12962686 0.105291724
-0.14785796 -0.07573829 -0.0085315695 -0.042577494 0.08290822 0.12666652 0.013169507 0.097568385
-0.09723981 -0.0012711699 0.032732084 0.14910653 0.06798731 -0.00088293187 -0.10865307 -0.10915343
0.034287613 -0.0026883103 0.1187162 -0.00070637395 -0.0005634009 -0.008421632 -0.10056134 0.1105556
-0.061507795 0.12923951 0.06575908 -0.028494382 -0.009809131 0.035129275 0.052119173 0.0041757487
-0.033877477 -0.079058245 0.007296088 -0.13982789 0.10454836 0.089578085 -0.124593675 -0.0020147215
-0.051986597 0.039499074 -0.09149291 0.0052711354 -0.06789014 -0.14855815 0.017520774 0.06228767
-0.017097335 0.0828656 -0.051457353 -0.0006411663 -0.011356038 -0.09440399 -0.07498303 0.120617114
0.11046534 0.068254806 0.126147 -0.027116278 0.009058074 -0.027401432 0.13321863 -0.040164586
0.004401 -0.05428089 0.013851219 -0.09108531 0.10252484 -0.04811197 -0.00861616 0.06428056
-0.010439542 0.0030175005 -0.0720668 0.018546015 0.029014526 0.021395529 -0.13676906 0.033849552
-0.082060345 -0.12570871 0.029348202 -0.12221042 -0.022072608 0.030458707 -0.060382668 0.042020787
-0.106304385 0.10941452 -0.14415506 0.065391965 -0.011924803 0.09027049 0.05375625 0.098727114
-0.074644305 0.0019395319 -0.00042161508 0.08077626 -0.14454256 -0.010584443 -0.063309774 -0.07769619
0.009609787 0.00053384376 -0.060445376 0.0022514067 -0.010224003 0.109984666 -0.09220145 -0.003956869
-0.045508463 0.046974704 -0.044108134 0.04105169 0.011190115 0.10011406 -0.011467846 -0.030172268
-0.09942115 0.04686648 -0.03572683 -0.08927162 -0.03874468 0.038471043 0.009877718 -0.09476337
0.12166873 -0.024314748 -0.036727924 -0.0025814606 0.05634261 0.088471964 -0.04181464 -0.01924786
-0.10065882 0.03040106 0.024024995 -0.08369388 0.0034167645 -0.019909443 -0.032399297 0.03783245
0.0015186795 0.005304321 -0.0021088985 0.035459768 0.021690125 -0.089052714 -0.08479517 -0.05728679
-0.14025643 -0.008215645 0.10686726 0.033885077 0.014664288 0.00037310412 0.024353394 0.019452408
0.010068782 -0.037685953 -0.06215782 0.055911094 0.044329148 0.123698324 -0.055146694 -0.014796932
0.03502324 -0.00027882203 0.0018276435 0.121957004 0.12707399 -0.09929292 0.05151248 -0.0031582683
-0.021259228 -0.106624864 -0.08899032 0.03553937 0.0112344045 -0.02237248 -0.062312752 -0.016723678
-0.11340172 -0.114333 -0.1118739 -0.0565281 0.081980415 0.06819618 0.0038426854 -0.072312705
0.058443878 -0.052158803 -0.14208734 -0.008168376 -0.08865745 0.1092585 -0.0066062473 -0.05723688
-0.030522771 0.0050404994 -0.107185714 0.011067329 0.006169033 0.025284115 0.014645283 -0.06733811
-0.093055576 0.104920596 0.10658841 0.08349081 0.05888163 0.021567069 0.04249021 -0.0092382645
00000000: cc31 573d bfa9 8c3d fc49 343d c24a 473d
00000010: b966 21be d680 26bd 6140 90bd 78af 113d
00000020: 8b1c f9bc 12fc 4c3d 7c0e 623c 4d92 383d
00000030: 13fb 08bd caa5 9a3c e89d 86bc 3b52 9c3c
00000040: 15f1 7e3d 82e7 de3c 080b 1ebd 9ddb 52bd
00000050: c8a0 67bb f75c 903d 5f96 35bd 5068 c7bd
00000060: a64b 82bb 9465 c13b bc81 09bd efc0 99bc
00000070: 3c10 72bd c113 29bc cf68 4e3d d790 093b
00000080: fa07 dcbc 2caa 0e3c d938 bcbb 3285 d9bd
00000090: 9671 053b 302d c53d e7bc 043e 30a3 d73d
000000a0: 1468 17be ad1c 9bbd ffc7 0bbc bd65 2ebd
000000b0: c9cb a93d deb4 013e eac4 573c efd1 c73d
000000c0: aa25 c7bd 629d a6ba 1412 063d 62af 183e
000000d0: ee3c 8b3d 8e74 67ba 8085 debd d58b dfbd
000000e0: 2b71 0c3d 5d2e 30bb 7b21 f33d f42b 39ba
000000f0: 32b1 13ba e3fa 09bc 1bf3 cdbd f96a e23d
00000100: 99ef 7bbd 5d57 043e b2ac 863d 0d6d e9bc
00000110: 7ab6 20bc b7e3 0f3d ea7a 553d b8d4 883b
00000120: 1cc3 0abd 4ae9 a1bd 0614 ef3b 0b2f 0fbe
00000130: 731d d63d b774 b73d f82a ffbd 6b09 04bb
00000140: e6ef 54bd c8c9 213d a360 bbbd 7db9 ac3b
00000150: fc09 8bbd a11f 18be ba87 8f3c 5b21 7f3d
00000160: b60f 8cbc 71b5 a93d f2c4 52bd f113 28ba
00000170: ad0e 3abc e156 c1bd b490 99bd 1b06 f73d
00000180: a73b e23d 2dc9 8b3d ae2c 013e f522 debc
00000190: 5168 143c f878 e0bc 776a 083e 9f83 24bd
000001a0: 4436 903b a355 5ebd 39f0 623c ef8a babd
000001b0: 8bf8 d13d 0f11 45bd cb2a 0dbc 87a5 833d
000001c0: 9d0a 2bbc 42c1 453b c297 93bd d0ed 973c
000001d0: dfaf ed3c ad45 af3c 300d 0cbe d4a5 0a3d
000001e0: 410f a8bd c9b9 00be a46b f03c 7549 fabd
000001f0: 9dd1 b4bc 8a84 f93c d153 77bd fd1d 2c3d
00000200: 1db6 d9bd b814 e03d 629d 13be 39ec 853d
00000210: 4060 43bc bcdf b83d 832f 5c3d 7131 ca3d
00000220: 1ddf 98bd e437 fe3a 380c ddb9 066e a53d
00000230: f702 14be 5f6a 2dbc 8ea8 81bd 2e1f 9fbd
00000240: 5e72 1d3c a6f1 0b3a 9295 77bd 568c 133b
00000250: 9482 27bc a43f e13d 1dd4 bcbd 9fa8 81bb
00000260: 1567 3abd 8c68 403d bbaa 34bd d125 283d
00000270: be56 373c 9a08 cd3d a2e3 3bbc d52b f7bc
00000280: 519d cbbd 11f7 3f3d 4c56 12bd 0ad4 b6bd
00000290: beb2 1ebd d093 1d3d 27d6 213c 4c13 c2bd
000002a0: 752d f93d b92f c7bc 0570 16bd b92d 29bb
000002b0: 82c7 663d ca30 b53d d445 2bbd b0ad 9dbc
000002c0: 3626 cebd a50b f93c 11d0 c43c b267 abbd
000002d0: cceb 5f3b 2119 a3bc 20b5 04bd 33f6 1a3d
000002e0: 6e0e c73a dfcf ad3b 7235 0abb 433e 113d
000002f0: 7daf b13c 4561 b6bd 17a9 adbd 8ea5 6abd
00000300: 629f 0fbe ea9a 06bc 39dd da3d 14cb 0a3d
00000310: 7b42 703c 309d c339 c580 c73c a85a 9f3c
00000320: 88f7 243c 965c 1abd 3399 7ebd 0803 653d
00000330: 7b92 353d 8c55 fd3d 80e1 61bd d56e 72bc
00000340: 8774 0f3d dc2e 92b9 8a8d ef3a 98c4 f93d
00000350: af1f 023e 165a cbbd c0fe 523d f3fa 4ebb
00000360: d527 aebc 235e dabd 8f40 b6bd bb91 113d
00000370: 8210 383c 7e46 b7bc a83b 7fbd 1800 89bc
00000380: 293f e8bd 6b27 eabd 251e e5bd 028a 67bd
00000390: 59e5 a73d 70aa 8b3d 90d5 7b3b af18 94bd
000003a0: d962 6f3d 78a4 55bd 587f 11be a7d4 05bc
000003b0: 0a92 b5bd ecc2 df3d 3879 d8bb 3871 6abd
000003c0: e40a fabc c62a a53b 2f84 dbbd be53 353c
000003d0: 9925 ca3b a220 cf3c c5f2 6f3c 90e8 89bd
000003e0: ec93 bebd 9ce0 d63d 064b da3d 3bfd aa3d
000003f0: dd2d 713d 6cad b03c 370a 2e3d 175c 17bc

gcn_layer1.linear.bias f4 [16]
0.06851412 0.13759315 -0.048987135 0.07397513 -0.047165006 0.051454358 0.1348656 0.07811996
0.05749684 0.06568259 0.07707651 0.058762662 -0.05325758 0.15719187 0.13714194 0.07099581
00000000: 2251 8c3d 38e5 0c3e bca6 48bd 4680 973d
00000010: 1830 41bd cec1 523d 351a 0a3e 5cfd 9f3d
00000020: ce81 6b3d 9884 863d 4ada 9d3d 1eb1 703d
00000030: 9f24 5abd e8f6 203e f06e 0c3e 4066 913d

gcn_layer2.linear.weight f4 [7, 16]
0.19467531 0.038704555 -0.1572826 -0.1679271 0.20685573 0.42111212 0.24814615 0.39128608
-0.25901586 0.2714963 0.28165025 0.24764794 0.2542135 0.3993346 0.2890862 0.19776267
0.34524056 0.20675185 -0.12954137 -0.093543515 -0.060493927 -0.31761315 -0.17518649 -0.14466542
-0.23221283 -0.039577458 0.2125844 -0.40642342 0.038468715 -0.3950479 0.31708863 -0.40511608
-0.3075267 -0.42332402 0.1432721 0.30932176 0.20164613 0.23210332 -0.4240573 0.24243146
0.33403474 0.24111284 -0.26012024 0.31400588 -0.29686692 -0.42981994 -0.40202895 0.047196567
-0.35848674 0.3898528 0.06513232 0.20933075 -0.11774091 -0.26164207 -0.27853507 -0.29296452
-0.36741933 0.078868285 -0.35829175 -0.19449751 -0.15261258 0.12969758 0.10449426 -0.28708184
0.28167543 0.40001753 -0.2469665 0.23350912 0.09430298 -0.13053492 0.32597405 0.3638408
0.3514876 -0.4167659 0.23256326 -0.40608343 -0.015244333 -0.38629538 -0.25982732 0.27719608
-0.33839735 -0.40566018 0.10859288 -0.37763685 -0.10037664 -0.28189406 -0.3494458 -0.2155749
0.4216437 0.268913 -0.00043054426 0.40818322 0.101162836 -0.03222223 -0.31590188 0.10092308
0.10221241 -0.2932995 0.23596273 0.39891317 -0.0012749238 0.16700135 0.35612056 -0.21527195
-0.093575045 0.3241903 -0.35125834 -0.25742328 -0.14760073 0.24001646 0.25692233 -0.33337075
00000000: f758 473e ab88 1e3d b10e 21be 15f5 2bbe
00000010: fdd1 533e 029c d73e 061a 7e3e a656 c83e
00000020: ba9d 84be 9001 8b3e 7634 903e 6c97 7d3e
00000030: 4628 823e 9675 cc3e 1b03 943e 4c82 4a3e
00000040: 5fc3 b03e c2b6 533e 7ea6 04be be93 bfbd
00000050: 7bc8 77bd 319e a2be 1664 33be 2c23 14be
00000060: 33c9 6dbe f91b 22bd baaf 593e bb16 d0be
00000070: 5f91 1d3d b843 cabe 7159 a23e 606b cfbe
00000080: 2474 9dbe edbd d8be ecb5 123e 6c5f 9e3e
00000090: 537c 4e3e 7eac 6d3e 0a1e d9be f43f 783e
000000a0: 9a06 ab3e 49e6 763e 7b2e 85be 61c5 a03e
000000b0: f1fe 97be 5c11 dcbe bdd6 cdbe 3051 413d
000000c0: 938b b7be c99a c73e 1864 853d cd5a 563e
000000d0: 2522 f1bd f3f5 85be 269c 8ebe 72ff 95be
000000e0: 631e bcbe b285 a13d 0472 b7be 5b2a 47be
000000f0: 7946 1cbe 71cf 043e 1601 d63d 64fc 92be
00000100: c337 903e 19cf cc3e c9e4 7cbe 041d 6f3e
00000110: ec21 c13d f2aa 05be 12e6 a63e 5749 ba3e
00000120: 2ff6 b33e 5762 d5be 1025 6e3e 2bea cfbe
00000130: 5ec3 79bc 82c8 c5be 1608 85be a5ec 8d3e
00000140: 6b42 adbe b1b2 cfbe f265 de3d 9e59 c1be
00000150: 4592 cdbd 6b54 90be 8fea b2be abbf 5cbe
00000160: afe1 d73e f7ae 893e acba e1b9 64fd d03e
00000170: 762e cf3d 75fb 03bd e4bd a1be c3b0 ce3d
00000180: bd54 d13d 5a2b 96be 37a0 713e 593e cc3e
00000190: 581b a7ba 6702 2b3e 6f55 b63e 4070 5cbe
000001a0: 46a4 bfbd 45fc a53e 22d8 b3be fccc 83be
000001b0: a524 17be e0c6 753e 538b 833e 92af aabe

gcn_layer2.linear.bias f4 [7]
-0.062354855 0.13788219 0.120185666 0.07093034 0.023096286 0.20637584 0.021078333
00000000: ce67 7fbd fd30 0d3e e723 f63d ed43 913d
00000010: 6c34 bd3c 3054 533e 78ac ac3c
