checkpoints/cora/gcn_80.pth (torch, 93849 bytes, 4 tensors)

gcn_layer1.linear.weight f4 [16, 1433]
0	0x3d9fa7ef	0.07795703
1	0x3e50ee91	0.20403506
2	0x3de8fb50	0.11376059
3	0x3e857984	0.26069272
4	0xbf2df9b4	-0.6795914
5	0xbe365955	-0.17807515
6	0xbe1e0988	-0.15433323
7	0x3d8e06ce	0.06934892
8	0xbdb31ddc	-0.087459296
9	0xbc4ffc34	-0.012694407
10	0x3cb681f4	0.022278763
11	0x3d5fb1ef	0.05461305
12	0xbdefc9b5	-0.117083944
13	0xbd325db8	-0.04354641
14	0xbdbbe6e4	-0.09174898
15	0x3e5613ae	0.20905945
16	0x3dc1bd7e	0.09459971
17	0x3c8fee29	0.017569618
18	0xbd472156	-0.048615776
19	0xbec8eae3	-0.39241704
20	0xb98b627b	-0.0002658552
21	0x3e888a0d	0.26667824
22	0xbe0a10df	-0.13482998
23	0xbe87e459	-0.26541403
24	0x3c8ab409	0.01693155
25	0x3d40092b	0.046883743
26	0x3db9677f	0.090529434
27	0x3d2a3e04	0.04156305
28	0xbe38dae0	-0.18052244
29	0x3c8f1645	0.017466674
30	0x3e6043a1	0.21900798
31	0xbd1d3a98	-0.038385957
32	0xbd2c2592	-0.042028017
33	0x3c5ced72	0.013484346
34	0x3d12a684	0.035803333
35	0xbe65377e	-0.2238445
36	0x3caea083	0.021316772
37	0x3dccdace	0.10002671
38	0x3eec9598	0.4620788
39	0x3e9ca949	0.30597904
40	0xbefa1ff0	-0.4885249
41	0xbe5dbfb3	-0.21655159
42	0xbd6edf8b	-0.058318656
43	0xbb9c3f8e	-0.0047683185
44	0x3e2f02e7	0.17090951
45	0x3eefe548	0.46854615
46	0xbbd335f6	-0.0064456416
47	0x3e6b18ef	0.2295873
48	0xbec0aded	-0.37632695
49	0x3bc4be2e	0.0060041165
50	0x3e5fc00d	0.21850605
51	0x3f292740	0.66075516
52	0x3ce880b1	0.028381677
53	0xbc7e1ff3	-0.015510547
54	0xbe2c7d5c	-0.16844696
55	0xbd9df4e2	-0.07712723
56	0x3c9591c7	0.018257989
57	0xbdd3b5bd	-0.10337398
58	0x3e8c4fcf	0.2740464
59	0xbe8d86f2	-0.27642018
60	0x38a3032c	7.7730365e-05
61	0xbe916aea	-0.2840188
62	0xbea635cf	-0.32462928
63	0x3e6ad00c	0.22930926
64	0xbdc45be8	-0.09587842
65	0x3f0e9b5d	0.55705816
66	0x3e083fdd	0.13305612
67	0xbdb3cdbf	-0.08779477
68	0x3b6ff5f2	0.00366151
69	0x3d91a502	0.07111551
70	0x3dab6f1a	0.083708
71	0x3ca5654c	0.020189904
72	0xbd4be008	-0.0497742
73	0xbe125f56	-0.1429418
74	0x3d243208	0.040086776
75	0xbe8c8cf6	-0.27451295
76	0x3eebd48c	0.46060598
77	0x3e8b734e	0.27236408
78	0xbebb9e8c	-0.366444
79	0xbd70f483	-0.058826935
80	0xbd3b9d8c	-0.045804545
81	0x3e091a0d	0.13388844
82	0xbde9195e	-0.113817915
83	0x3d8e3abe	0.06944798
84	0xbdc82319	-0.09772319
85	0xbeebe328	-0.46071744
86	0xbe04dfc1	-0.1297598
87	0x3dd1a3e6	0.10236339
88	0x3c22d6ca	0.009938905
89	0x3dd79ca2	0.10527922
90	0xbe23a15a	-0.1597952
91	0xbda1be0c	-0.07897577
92	0xbdd0c73b	-0.1019425
93	0xbd6b3159	-0.05742011
94	0xbe36ddd2	-0.17858055
95	0x3e70b7fc	0.23507684
96	0x3e72a88b	0.23697107
97	0x3da95546	0.08268218
98	0x3f0076b7	0.50181144
99	0xbd983ae7	-0.0743311
100	0xbdd5aa23	-0.10432842
101	0xbd82d2be	-0.06387852
102	0x3e659baf	0.2242267
103	0xbe51217d	-0.20422931
104	0x3c59cf9d	0.013294128
105	0xbe18ec8b	-0.14933984
106	0x3d8c2650	0.06843245
107	0xbe326ffc	-0.17425531
108	0x3e80b718	0.2513969
109	0xbe04e9b6	-0.12979779
110	0xbd44afcc	-0.048019215
111	0x3ddadd54	0.10686746
112	0x3d9c97df	0.076461546
113	0x395aa4e7	0.00020851531
114	0xbdb55c63	-0.08855512
115	0x3c41f92d	0.011839193
116	0x3d8fddec	0.0702475
117	0x3d965ac5	0.07341532
118	0xbeffbfff	-0.4995117
119	0x3d3127d9	0.043250892
120	0xbe74ed50	-0.23918653
121	0xbe889b69	-0.2668107
122	0x3e5b0b50	0.21391034
123	0xbe53bc0f	-0.20677207
124	0xbdb76b8c	-0.0895606
125	0xbe7ea976	-0.24869332
126	0x3d8b08b8	0.06788772
127	0x3d4b2f0f	0.049605425
128	0xbeb962f8	-0.3620832
129	0x3e24c6a0	0.16091394
130	0xbeee5883	-0.46551904
131	0x3e1ed285	0.15509994
132	0x3ce15234	0.027505018
133	0x3e73cfb6	0.23809704
134	0x3dac4fc5	0.08413652
135	0x3e60818f	0.21924423
136	0xbe59339e	-0.21211097
137	0x3cbb3d18	0.02285628
138	0xbc82ae77	-0.015952332
139	0x3e27c85b	0.16385023
140	0xbf2d3a82	-0.676674
141	0x3c22cb85	0.009936218
142	0xbd918b0d	-0.071066
143	0xbe3552ce	-0.17707369
144	0x3d44892a	0.047982372
145	0xb8c61251	-9.4447874e-05
146	0xbe712605	-0.2354966
147	0xbc185526	-0.009297645
148	0xbcdca570	-0.026934355
149	0x3e8253a5	0.2545444
150	0xbe452e8f	-0.19256042
151	0xbd55a415	-0.052158434
152	0x3d11f8c5	0.035637636
153	0x3e3949c1	0.18094541
154	0xbdeaa482	-0.114571586
155	0x3e221e06	0.15831766
156	0x3d9d9536	0.07694475
157	0x3e9e2e13	0.30894527
158	0xbd9f0a24	-0.07765606
159	0xbd84575e	-0.064619765
160	0xbebcfb75	-0.36910596
161	0x3d8914f9	0.06693453
162	0xbd883a52	-0.06651749
163	0xbe4eebfa	-0.20207205
164	0xbdcdb5be	-0.1004443
165	0x3d203808	0.039115936
166	0x3bee17d0	0.0072660223
167	0xbe12cdbb	-0.14336292
168	0x3eef1769	0.46697548
169	0xbdea0487	-0.11426645
170	0xbdd31733	-0.10307159
171	0x39b8ea4c	0.0003526978
172	0x3e636907	0.22208034
173	0x3e6dd903	0.23227315
174	0x3d58a28a	0.052889384
175	0xbd0d1ff0	-0.034454286
176	0xbeda00ef	-0.42578837
177	0x3dae8c9f	0.08522915
178	0x3d739cf6	0.05947586
179	0xbdebd07f	-0.11514377
180	0x3b0e566a	0.0021718987
181	0xb9dba9ae	-0.00041897356
182	0xbdf9b866	-0.12193374
183	0x3e4f7bbd	0.20262046
184	0x3b2b3c82	0.0026128595
185	0xb8b57414	-8.652374e-05
186	0x3de44435	0.11145822
187	0x3e3d56df	0.1849017
188	0x3e664c4d	0.22490044
189	0xbdf7de07	-0.12102895
190	0xbe440a08	-0.19144452
191	0xbc6cfbee	-0.014464362
192	0xbee624e1	-0.4495001
193	0xbca72933	-0.020405388
194	0x3e90f375	0.28310743
195	0x3dc41759	0.09574766
196	0x3d2247b8	0.039619178
197	0x3d781d8f	0.060575064
198	0x3cd0fbf9	0.025510775
199	0x3c3c016d	0.011474949
200	0x3d9c0bd5	0.07619444
201	0xbd1f6125	-0.038911004
202	0xbbe62905	-0.007023933
203	0x3e213aeb	0.15745132
204	0x3d576dbb	0.05259488
205	0x3ebf7b99	0.37398985
206	0xbdd51e8d	-0.10406218
207	0xbde472da	-0.11154719
208	0x3d076642	0.033056505
209	0xbbef36e0	-0.007300243
210	0x3c6752ff	0.014118909
211	0x3f071482	0.5276567
212	0x3f0b006b	0.5429751
213	0xbe7608e1	-0.24026825
214	0x3d9bae6c	0.07601628
215	0x3cd8ca48	0.026463643
216	0xbd4b6763	-0.049659144
217	0xbebd21b1	-0.36939767
218	0xbe917132	-0.28406674
219	0x3d30d6d2	0.04317362
220	0xb89b37c1	-7.401361e-05
221	0x3cefc2b6	0.02926765
222	0xbe34ca9f	-0.17655419
223	0xbb2a3070	-0.0025968812
224	0xbe69ddc4	-0.22838503
225	0xbeb034e7	-0.3441536
226	0xbe520467	-0.20509492
227	0xbe2fb9be	-0.17160699
228	0x3ec8941f	0.39175507
229	0x3df1603d	0.11785934
230	0x3d66935a	0.05629287
231	0xbe60e489	-0.21962179
232	0x3e97df13	0.2966238
233	0xbe438acf	-0.1909592
234	0xbf001fe0	-0.5004864
235	0x3ba3019c	0.004974557
236	0xbd98a933	-0.07454147
237	0x3ea16010	0.31518602
238	0xbce1ab42	-0.027547482
239	0xbe1ff2fb	-0.15620033
240	0xbdac1d44	-0.084040195
241	0x3ba93266	0.0051634787
242	0xbdabefeb	-0.0839537
243	0x3d1ee42b	0.038791817
244	0x3d4e6c0b	0.050396007
245	0x3da57e11	0.08080686
246	0x3cf14d41	0.029455783
247	0xbea57b28	-0.32320523
248	0xbe2eb48f	-0.17061065
249	0x3e9f19df	0.31074426
250	0x3dbce029	0.09222443
251	0x3def3f6e	0.1168202
252	0x3d5cd3ff	0.053913113
253	0x3dae4076	0.08508389
254	0x3d8a60ec	0.06756768
255	0xbd12994a	-0.03579072

gcn_layer1.linear.bias f4 [16]
0	0x3e1ac287	0.15113269
1	0x3e83f95e	0.2577619
2	0xbd126a69	-0.035746012
3	0x3e798118	0.24365652
4	0xbcf01ae6	-0.029309701
5	0x3e03e1c6	0.12879094
6	0x3e2a1c10	0.16612267
7	0x3e12b554	0.14326984
8	0x3e150e17	0.14556156
9	0x3e02f3c5	0.12788303
10	0x3e2f1a2e	0.1709983
11	0x3df0b981	0.11754132
12	0xbd35c946	-0.044381402
13	0x3e2b6cb8	0.16740692
14	0x3e63956f	0.22224973
15	0x3e160bde	0.14652964

gcn_layer2.linear.weight f4 [7, 16]
0	0x3f373278	0.71561384
1	0xbceaab14	-0.02864603
2	0xbe194466	-0.14967498
3	0xbf701eda	-0.93797076
4	0x3e5bbb7d	0.2145824
5	0x3f860dfd	1.0473019
6	0x3f48d4e3	0.7844984
7	0x3f8b4793	1.0881218
8	0xbf80eb77	-1.0071858
9	0xbc8415ce	-0.016123679
10	0x3f68b6ba	0.9090382
11	0x3f6966a0	0.9117222
12	0x3e85ba50	0.26118708
13	0x3f80de15	1.0067774
14	0x3f21d659	0.63217694
15	0x3f51c39e	0.81939113
16	0x3f8bc447	1.0919274
17	0x3f4c8e07	0.79904217
18	0xbdf9862b	-0.12183794
19	0xbf5abf8d	-0.85448533
20	0xbd588840	-0.052864313
21	0xbf830647	-1.0236291
22	0xbf6e0f0f	-0.9299173
23	0xbf65f19e	-0.89821804
24	0xbf6fdcb7	-0.9369616
25	0xbf363b54	-0.7118428
26	0x3f778293	0.96683615
27	0xbf88f9e3	-1.0701259
28	0x3d00ef39	0.03147814
29	0xbf901cef	-1.125883
30	0x3f870b56	1.0550334
31	0xbf912440	-1.1339188
32	0xbf86bb1d	-1.0525852
33	0xbf8f9f92	-1.1220572
34	0x3e0ad1bc	0.1355657
35	0x3f7e35e9	0.9930101
36	0x3e46912d	0.19391318
37	0x3f7c0829	0.9844995
38	0xbf905bf7	-1.1278065
39	0x3f802503	1.0011295
40	0x3f7d4b4c	0.9894302
41	0x3f4c56d0	0.79819965
42	0xbf84b01c	-1.0366244
43	0x3f7be384	0.98394036
44	0xbe9b9258	-0.3038509
45	0xbf954f43	-1.1664814
46	0xbf8d1bc7	-1.1024102
47	0x3f1a4e16	0.602754
48	0xbf8cfe9b	-1.10152
49	0x3f92be24	1.1464276
50	0x3d6b596b	0.057458322
51	0x3f7646d9	0.96201855
52	0xbde140b1	-0.10998667
53	0xbf813dda	-1.0097001
54	0xbf4892ab	-0.783488
55	0xbf443ae2	-0.7665235
56	0xbf8627cb	-1.0480894
57	0xbf1bbfa2	-0.60839283
58	0xbf8b0c60	-1.0863152
59	0xbf6cc5d4	-0.9248936
60	0xbe151cc1	-0.1456175
61	0x3f4c0deb	0.7970874
62	0x3f3cf765	0.73814994
63	0xbf6507f7	-0.8946528
64	0x3f705e3d	0.93893796
65	0x3f876f53	1.0580848
66	0xbe8257f1	-0.2545772
67	0x3f79ad5b	0.97530144
68	0x3db14eee	0.08657633
69	0xbf67860a	-0.904389
70	0x3f7c3a11	0.985261
71	0x3f88d1fa	1.068908
72	0x3f85ecb8	1.0462866
73	0xbf8e6f41	-1.1127702
74	0x3f53cc3f	0.8273353
75	0xbf8f49ad	-1.1194359
76	0xbcb5d539	-0.022196399
77	0xbf87285a	-1.0559189
78	0xbf813fb6	-1.0097568
79	0x3f735ee5	0.9506667
80	0xbf85075a	-1.0392869
81	0xbf8f0912	-1.1174643
82	0x3dcea4d6	0.10090034
83	0xbf907649	-1.1286098
84	0xbddd606d	-0.108094074
85	0xbf845b03	-1.0340275
86	0xbf7cb913	-0.987199
87	0xbf795050	-0.9738817
88	0x3f935424	1.1510053
89	0x3f81349f	1.0094184
90	0x3f220d4f	0.6330156
91	0x3f8e684b	1.1125578
92	0x3dc0dc76	0.094170496
93	0x3ed071ef	0.40711924
94	0xbf80e43b	-1.006965
95	0x3f42c19c	0.76076674
96	0x3f35b35d	0.7097681
97	0xbf8550a2	-1.0415232
98	0x3e798abd	0.2436933
99	0x3f853f91	1.0410024
100	0xbc1328c2	-0.008981885
101	0x3f6d6a56	0.9274038
102	0x3f8a0612	1.0783103
103	0xbf7881e2	-0.97073185
104	0xbf5930fa	-0.8484036
105	0x3f837ad0	1.0271854
106	0xbf88d9b4	-1.0691438
107	0xbf8179c0	-1.011528
108	0xbe0ffcb2	-0.1406124
109	0x3f626be3	0.8844587
110	0x3f6279f0	0.8846731
111	0xbf876940	-1.0578995

gcn_layer2.linear.bias f4 [7]
0	0xbf2a5117	-0.66529983
1	0x3f4657c6	0.7747768
2	0x3ee69b3e	0.45040315
3	0x3f2006ec	0.6251056
4	0xbeca1770	-0.39471006
5	0x3f487baf	0.78313726
6	0xbe5d0253	-0.21582918
