checkpoints/cora/gcn_100.pth (torch, 93855 bytes, 4 tensors)

gcn_layer1.linear.weight f4 [16, 1433]
0.072893456 0.24389781 0.06400364 0.2979432 -0.81434834 -0.17071077 -0.1713785 0.05709748
-0.07951727 0.0563139 0.004976695 0.10748327 -0.088445105 -0.04954698 -0.08279588 0.2232192
0.108742885 0.056634553 -0.012172602 -0.5174034 9.400886e-05 0.2128408 -0.101413086 -0.28061777
0.01369228 0.038792305 0.13949853 0.020609504 -0.18794751 0.007228611 0.25174797 -0.059161022
-0.04857854 0.0033431528 0.003003649 -0.20106919 0.048900098 0.15648845 0.5265089 0.25189158
-0.43617183 -0.1599394 -0.06858388 -0.025833959 0.20085987 0.533097 0.002584681 0.20857674
-0.37365225 0.00827737 0.21493168 0.7733072 -0.059407424 -0.020007042 -0.14818373 -0.09545725
-0.013874234 -0.07125104 0.3085006 -0.26352185 2.1064265e-05 -0.2850971 -0.31658477 0.1525522
-0.11552488 0.5931172 0.1616442 -0.1808259 -0.034874547 0.071551085 0.07444615 0.025196873
-0.08616759 -0.10909348 0.07246845 -0.2596269 0.4925161 0.27000868 -0.30130178 -0.046781838
-0.065033875 0.1090295 -0.10532109 0.06474331 -0.13590702 -0.43069795 -0.19359836 0.09931517
0.03577276 0.059377864 -0.069763 -0.060199484 -0.07706065 0.027758133 -0.24572954 0.25480345
0.21035671 0.026036875 0.49364787 -0.106508866 -0.0794816 -0.099956416 0.22534974 -0.30330774
0.0010561497 -0.11434555 0.101187825 -0.20635897 0.34746408 -0.20251288 -0.040685836 0.1502057
0.010360407 -9.755642e-05 -0.10467231 -0.017847477 0.080526374 0.023369469 -0.5192529 0.03678734
-0.25427145 -0.2505103 0.19710676 -0.15766998 -0.09279522 -0.33190662 0.1734091 0.09789979
-0.4363353 0.24493225 -0.4695457 0.19727145 -0.014815014 0.18900396 0.0529925 0.119709976
-0.18776931 0.0017634374 -0.011014041 0.17222553 -0.679844 -0.021478275 -0.038151026 -0.24989839
0.039028376 -2.1650125e-05 -0.28620332 -0.0010064519 -0.022549713 0.27593866 -0.1505697 -0.050591588
0.036722902 0.21560943 -0.028662268 0.15505344 0.01659345 0.32550138 -0.07972577 -0.04183038
-0.3754868 0.13022743 -0.049287673 -0.17190115 -0.046641197 0.022972083 -0.017685402 -0.12828955
0.4543794 -0.09603863 -0.14622588 -0.007576921 0.25501215 0.24716692 0.03633605 -0.044965588
-0.45658004 0.04510071 0.012972138 -0.15497428 0.007917268 0.006075179 -0.07591102 0.14897649
-0.00534628 9.551688e-05 0.10364673 0.25657377 0.21279198 -0.16739054 -0.14099912 -0.005912368
-0.3723012 -0.007329388 0.35255238 0.064581454 -0.017388433 0.02192931 0.06626556 0.020672517
0.03447653 -0.023098988 0.017467743 0.2427141 0.026973478 0.35887673 -0.08425296 -0.18392399
0.028881246 -0.0028598523 0.049360022 0.5575183 0.5936148 -0.20344758 0.07365984 0.034466892
-0.087152705 -0.40140367 -0.33053315 -0.0023207548 0.017061248 0.002789747 -0.14366925 -0.066711836
-0.22959138 -0.33233225 -0.15155318 -0.18353498 0.36941063 0.105711624 -0.013004791 -0.25358298
0.30761763 -0.11640773 -0.48049998 0.0075089326 -0.09241666 0.28625292 -0.0427643 -0.15231593
-0.12950912 0.025007796 -0.098365195 0.093101926 0.037704322 0.09976247 0.03187624 -0.31964496
-0.1350944 0.31500378 0.10475581 0.09246468 0.04362918 0.08275995 0.11689347 -0.044722542
00000000: 2a49 953d 59c0 793e 5714 833d 038c 983e
00000010: 2279 50bf cece 2ebe d87d 2fbe 0cdf 693d
00000020: f3d9 a2bd 67a9 663d 8b13 a33b 3020 dc3d
00000030: b522 b5bd c6f1 4abd e390 a9bd 9393 643e
00000040: 97b4 de3d a2f9 673d 986f 47bc 8d74 04bf
00000050: 9f26 c538 f0f2 593e aab1 cfbd 22ad 8fbe
00000060: 9655 603c aee4 1e3d b4d8 0e3e 43d5 a83c
00000070: 5075 40be fcdd ec3b 1ce5 803e d452 72bd
00000080: 4bfa 46bd cc18 5b3b ded8 443b 15e5 4dbe
00000090: 784b 483d 823e 203e 4ac9 063f eff7 803e
000000a0: ea51 dfbe 27c7 23be b575 8cbd bda1 d3bc
000000b0: 36ae 4d3e 0c79 083f c063 293b 2495 553e
000000c0: 594f bfbe ce9d 073c 0d17 5c3e 76f7 453f
000000d0: 3355 73bd cfe5 a3bc 7abd 17be 177f c3bd
000000e0: c150 63bc 11ec 91bd caf3 9d3e 56ec 86be
000000f0: 2ab3 b037 3ff8 91be 6617 a2be a536 1c3e
00000100: 4f98 ecbd 87d6 173f 0f86 253e 6d2a 39be
00000110: 9dd8 0ebd 6089 923d 3977 983d ac69 ce3c
00000120: a278 b0bd 676c dfbd 576a 943d d1ed 84be
00000130: 122b fc3e 943e 8a3e 3a44 9abe 509e 3fbd
00000140: 7b30 85bd dc4a df3d 95b2 d7bd 2498 843d
00000150: 362b 0bbe 7184 dcbe a63e 46be c065 cb3d
00000160: 7586 123d 3436 733d e7df 8ebd bc93 76bd
00000170: f9d1 9dbd 0665 e33c 86a0 7bbe 9975 823e
00000180: c067 573e 494b d53c 6abf fc3e 5221 dabd
00000190: 40c7 a2bd f3b5 ccbd 15c2 663e 274b 9bbe
000001a0: 816e 8a3a 002e eabd 903b cf3d c44f 53be
000001b0: d0e6 b13e 895f 4fbe 31a6 26bd 86cf 193e
000001c0: b2be 293c 3497 ccb8 705e d6bd df34 92bc
000001d0: 03eb a43d 5471 bf3c c2ed 04bf 52ae 163d
000001e0: de2f 82be e342 80be 5bd6 493e 3d74 21be
000001f0: 6c0b bebd aaef a9be 2892 313e af7f c83d
00000200: 5767 dfbe 85cf 7a3e 4b68 f0be 8701 4a3e
00000210: acba 72bc 418a 413e aa0e 593d 812a f53d
00000220: 9946 40be 2423 e73a 3c74 34bc e45b 303e
00000230: 420a 2ebf 35f3 afbc 4044 1cbd 5de5 7fbe
00000240: 38dc 1f3d 4a9d b5b7 3e89 92be ecea 83ba
00000250: 2dba b8bc d547 8d3e f22e 1abe 2039 4fbd
00000260: c16a 163d b8c8 5c3e 22cd eabc 54c6 1e3e
00000270: fdee 873c 1ea8 a63e 4447 a3bd 5556 2bbd
00000280: ce3f c0be 575a 053e dfe1 49bd db06 30be
00000290: d70a 3fbd f32f bc3c fae0 90bc 565e 03be
000002a0: 6ba4 e83e e7af c4bd 3dbc 15be d247 f8bb
000002b0: f490 823e 5319 7d3e 1cd5 143d d62d 38bd
000002c0: dcc4 e9be 86bb 383d 1789 543c 94b1 1ebe
000002d0: 6eb7 013c 4c12 c73b 3d77 9bbd 4b8d 183e
000002e0: d92f afbb 3c50 c838 bd44 d43d a35d 833e
000002f0: 24e6 593e 6d68 2bbe 1362 10be 8abc c1bb
00000300: 439e bebe 5d2b f0bb bf81 b43e 4843 843d
00000310: 3072 8ebc 19a5 b33c 3db6 873d 6959 a93c
00000320: 4337 0d3d 173a bdbc 8318 8f3c 0c8a 783e
00000330: 7cf7 dc3c b1be b73e d18c acbd 9256 3cbe
00000340: 5d98 ec3c 5c6c 3bbb bc2d 4a3d 85b9 0e3f
00000350: 24f7 173f 9054 50be f8da 963d 282d 0d3d
00000360: 1e7d b2bd c884 cdbe a43b a9be ce17 18bb
00000370: 08c4 8b3c 30d4 363b 081e 13be 37a0 88bd
00000380: 011a 6bbe 7427 aabe c230 1bbe 98f0 3bbe
00000390: 6423 bd3e 567f d83d 0c12 55bc a1d5 81be
000003a0: 0f80 9d3e 2d67 eebd 1804 f6be 7e0d f63b
000003b0: f244 bdbd be8f 923e 9e29 2fbd b5f8 1bbe
000003c0: 0a9e 04be 26dd cc3c b173 c9bd 39ac be3d
000003d0: d96f 1a3d 4450 cc3d a990 023d 81a8 a3be
000003e0: 3056 0abe 2d48 a13e 378a d63d 1f5e bd3d
000003f0: 83b4 323d 0c7e a93d d865 ef3d fc2e 37bd

gcn_layer1.linear.bias f4 [16]
0.16203845 0.25956607 -0.028322453 0.25060934 -0.021217976 0.11529388 0.15193328 0.15368691
0.1501084 0.14614758 0.16227101 0.07736539 -0.038193256 0.17671922 0.20082398 0.12575294
00000000: 68ed 253e d8e5 843e 7d04 e8bc de4f 803e
00000010: 52d1 adbc 331f ec3d 6694 1b3e 1a60 1d3e
00000020: 04b6 193e b6a7 153e 5f2a 263e bf71 9e3d
00000030: 8870 1cbd e2f5 343e cda4 4d3e 61c5 003e

gcn_layer2.linear.weight f4 [7, 16]
0.8468926 -0.058409046 -0.1496554 -1.1450533 0.21460254 1.1566714 0.9645425 1.2848889
-1.2221806 -0.26044846 1.0648609 1.1480567 0.26120526 1.1585586 0.6651288 1.0202712
1.299624 0.95728093 -0.121817924 -1.0868814 -0.052844618 -1.1758541 -1.167753 -1.1103483
-1.0997884 -0.894162 1.1982455 -1.2293953 0.03145987 -1.3675802 1.2525903 -1.3379756
-1.2518268 -1.2943492 0.13554567 1.1821024 0.19389302 1.219861 -1.3249165 1.2254972
1.1287627 0.9557186 -1.2679535 1.1727461 -0.30386907 -1.3868754 -1.2820418 0.729333
-1.361505 1.3489602 0.057438437 1.2286644 -0.10996642 -1.2457329 -0.9416132 -0.7923369
-1.2086971 -0.87326366 -1.3445694 -1.1467915 -0.14559925 1.006032 0.93240803 -1.1059899
1.0636405 1.1961493 -0.25459683 1.1548386 0.0865562 -1.1245408 1.1483184 1.2492954
1.2636191 -1.2755753 0.92207944 -1.3133196 -0.022214495 -1.2327414 -1.2246279 1.1292033
-1.2068503 -1.3006923 0.10088036 -1.342174 -0.10811414 -1.2447549 -1.137159 -1.2075053
1.3302114 1.2235913 0.89858806 1.2815107 0.0941522 0.6725508 -1.1766235 0.9403912
0.9261541 -1.2441137 0.24371347 1.1679944 -0.00900192 1.137315 1.2862232 -1.1766986
-1.0357295 1.2453375 -1.2379841 -1.2218426 -0.14059414 1.0529134 1.0172849 -1.2414043
00000000: f4cd 583f 533e 6fbd 443f 19be 1b91 92bf
00000010: c5c0 5b3e cf0d 943f 42ec 763f 3d77 a43f
00000020: 6a70 9cbf 8059 85be 5d4d 883f 86f3 923f
00000030: b2bc 853e a64b 943f e245 2a3f 3f98 823f
00000040: 145a a63f 5d10 753f ad7b f9bd ee1e 8bbf
00000050: 9973 58bd 6382 96bf ee78 95bf e51f 8ebf
00000060: dec5 8cbf cde7 64bf 1c60 993f d35c 9dbf
00000070: 11dc 003d de0c afbf e154 a03f c942 abbf
00000080: dc3b a0bf 3cad a5bf 7ccc 0a3e 224f 973f
00000090: e48b 463e 6824 9c3f dd96 a9bf 18dd 9c3f
000000a0: 4c7b 903f f9a9 743f 4d4c a2bf 8b1c 963f
000000b0: ba94 9bbe 2285 b1bf f219 a4bf 91b5 3a3f
000000c0: cc45 aebf baaa ac3f 9144 6b3d e044 9d3f
000000d0: 1336 e1bd 2d74 9fbf 900d 71bf 97d6 4abf
000000e0: 96b6 9abf 358e 5fbf da1a acbf 10ca 92bf
000000f0: f817 15be a8c5 803f 4bb2 6e3f 1491 8dbf
00000100: 5f25 883f 6c1b 993f 845a 82be c0d1 933f
00000110: 6144 b13d f4f0 8fbf 19fc 923f e9e8 9f3f
00000120: 45be a13f 0d46 a3bf 660d 6c3f db1a a8bf
00000130: 2cfb b5bc 78ca 9dbf 9bc0 9cbf bc89 903f
00000140: 127a 9abf 167d a6bf 5d9a ce3d 5ccc abbf
00000150: f26a ddbd 2154 9fbf 6d8e 91bf 898f 9abf
00000160: 5e44 aa3f a49e 9c3f de09 663f 8b08 a43f
00000170: ded2 c03d 4a2c 2c3f 999b 96bf 7abd 703f
00000180: 6f18 6d3f 1e3f 9fbf 0690 793e d780 953f
00000190: ca7c 13bc 8a93 913f f6a2 a43f 0f9e 96bf
000001a0: c992 84bf 3867 9f3f 4376 9ebf 5765 9cbf
000001b0: e9f7 0fbe dec5 863f 6436 823f 56e6 9ebf

gcn_layer2.linear.bias f4 [7]
-0.78817564 0.91443723 0.508659 0.773221 -0.49803707 0.7852256 -0.25828746
00000000: e1c5 49bf 8f18 6a3f 7a37 023f d0f1 453f
00000010: b7fe febe 8b04 493f 413e 84be
