checkpoints/cora/gcn_120.pth (torch, 93855 bytes, 4 tensors)

gcn_layer1.linear.weight f4 [16, 1433]
000000 79 be 95 3d 88 de 85 3e 0f a0 98 3d 8a ac 93 3e
       0.073117204 0.2614634 0.07452404 0.28842574
000010 c6 0d 69 bf 6d 7e 06 be 4b 8c 40 be cb 73 a6 3d
       -0.9103664 -0.13134165 -0.18803518 0.081275545
000020 5e 67 50 bd f5 69 98 3d 8d 7b fc bb 40 ef 2f 3d
       -0.05087983 0.07442085 -0.007705158 0.042952776
000030 87 50 8b bd 45 0f 96 bd 07 d8 b9 bd b0 9e 47 3e
       -0.06802469 -0.07327131 -0.09074407 0.19494128
000040 b5 31 ec 3d 34 df 5b 3d f6 e8 09 bd 35 1b 1d bf
       0.11532918 0.05367966 -0.033669434 -0.6136964
000050 d0 bb 75 b6 c6 3a 67 3e a8 cc a3 bd 07 16 9a be
       -3.6617166e-06 0.22581014 -0.079980195 -0.3009493
000060 23 8c 93 3b 2c a6 4b 39 a2 8e 11 3e af b4 75 3c
       0.0045027896 0.00019421492 0.14214566 0.014996692
000070 08 dd 30 be f2 ce 3d 3b b7 01 87 3e 9e 42 f4 bc
       -0.17271817 0.002896246 0.26368496 -0.029816922
000080 c3 e3 70 bc 68 13 9a 3a 38 70 87 bd 33 67 41 be
       -0.01470274 0.0011755051 -0.06613201 -0.18887024
000090 22 86 d7 3c b4 00 05 3e 6a 25 eb 3e d1 48 68 3e
       0.026309077 0.1298855 0.45926982 0.22684027
0000a0 3f 1d c9 be 74 23 6e bd 92 90 7c bd 3c 2b b5 bc
       -0.39280125 -0.05813928 -0.06166131 -0.022115342
0000b0 7f d4 1e 3e c3 82 06 3f d1 9a 1c 3c df ff 27 3e
       0.15510748 0.52543277 0.0095583955 0.16406201
0000c0 5b 0d c4 be 4a 18 22 3c 5b 1b 80 3e df 86 50 3f
       -0.3829144 0.009893486 0.2502087 0.81455797
0000d0 2c 65 11 be a8 df 59 3c 61 90 8b bd 0d 2e 1a be
       -0.1419875 0.013297953 -0.068146475 -0.1505663
0000e0 1e eb af 3b 40 e0 bf bd f1 7a a5 3e 2e 56 82 be
       0.0053686043 -0.09368944 0.3232036 -0.25456375
0000f0 78 37 9b 37 6c f5 9e be 51 bc 88 be fd 0f 16 3e
       1.850327e-05 -0.31046617 -0.26706174 0.14654537
000100 a0 aa 24 be 77 b1 1a 3f 17 73 14 3e 1a d6 22 be
       -0.16080713 0.6042704 0.14497028 -0.15901986
000110 b0 eb 41 3b 30 5d 96 3d cb 74 a8 3d d7 2a 58 3d
       0.0029589944 0.07341993 0.082254015 0.05277523
000120 ce 15 02 bd 1c 2e 90 bd 63 e1 7c 3d ce 0b 48 be
       -0.031759076 -0.07040045 0.061738383 -0.19535753
000130 36 2f e4 3e 27 3f 6e 3e d0 fd 90 be 8d 6f 4b bc
       0.4456727 0.23266278 -0.28318644 -0.0124167325
000140 70 7b 43 bd 30 57 27 3e e1 c2 d7 bd 6e 37 f5 3d
       -0.04772514 0.16341853 -0.10535217 0.11973463
000150 fd a4 f7 bd 96 eb d8 be 2c 8a 3b be 29 d2 7f 3d
       -0.12092016 -0.42367238 -0.18314427 0.062456284
000160 be 1e c2 3d fc a5 f5 3d 13 51 f5 bd 24 13 21 bd
       0.0947852 0.1199455 -0.11978354 -0.039324895
000170 09 dd bd bd 52 34 4f 3d e9 67 5a be ed aa 4b 3e
       -0.09270675 0.050587006 -0.21328701 0.19889422
000180 e9 92 2e 3e ca 07 c8 3c f5 0b e5 3e 29 b1 9d bd
       0.1704823 0.024417777 0.44735685 -0.07699806
000190 d9 c5 3d bd bc 63 83 bd 5c ac 55 3e 41 64 9a be
       -0.04633126 -0.06415507 0.20866531 -0.30154613
0001a0 08 81 23 3c 68 9e b6 bd 26 dd 03 3e 4b 45 42 be
       0.009979494 -0.08916932 0.1287733 -0.18971746
0001b0 44 35 dd 3e de ba 0a be e2 85 9b bc 71 f3 05 3e
       0.432047 -0.13547847 -0.018984739 0.13081147
0001c0 0d f0 20 bd bc f8 e5 37 7a cc c2 bd c1 c8 8c 3d
       -0.03929143 2.7414753e-05 -0.09511657 0.06874228
0001d0 f7 92 ac 3d 63 de 9a 3d c2 18 05 bf 23 a1 f7 3c
       0.08426469 0.07561948 -0.519909 0.030228203
0001e0 b8 1f 7a be fb c6 63 be ed f4 32 3e d7 cc ee bd
       -0.24426162 -0.22243874 0.17476244 -0.11660164
0001f0 c1 5a 0c bd 95 fa 89 be 37 75 61 3e a7 7d ac 3d
       -0.034266237 -0.2694899 0.2201737 0.08422404
000200 d6 79 0a bf fd 40 60 3e 0d 12 ef be 94 4f 6b 3e
       -0.54092157 0.21899791 -0.4669346 0.22979575
000210 0f 13 c2 bb 88 54 e5 3d 52 3b bf 3d 36 8e 3d bc
       -0.005922682 0.11197764 0.09337486 -0.01156955
000220 fe c6 32 be a8 c9 3c 3d 64 21 2e bd f9 d7 30 3e
       -0.17458722 0.046090752 -0.042512313 0.17269887
000230 f4 6e 2d bf 44 a6 41 3d a3 5b 32 bd fd b7 7f be
       -0.67747426 0.047277704 -0.043544423 -0.2497253
000240 f7 23 75 3d b4 ce 0f b7 fd 98 97 be 8c 23 e4 3c
       0.059848752 -8.571591e-06 -0.29608908 0.027848981
000250 ad bb 18 3d a9 0b 8a 3e f7 30 12 be 63 39 e4 3c
       0.037288357 0.2696202 -0.14276491 0.027859395
000260 64 b0 73 bb 3f d1 56 3e 8e 39 3a 3c d6 44 26 3e
       -0.0037183994 0.20978259 0.011366261 0.16237196
000270 b6 8e 34 3d be 9e 88 3e 84 c9 6c bd c2 6e dc bd
       0.044081412 0.2668361 -0.057809368 -0.10763313
000280 0d 8b bf be 79 f7 da 3d a5 78 7e bd b1 21 11 be
       -0.37410775 0.10691733 -0.062126774 -0.14173009
000290 85 6f 60 bd c7 1a 3a 3d 92 6b 2b ba 38 b0 f0 bd
       -0.054793853 0.045435693 -0.00065391615 -0.11752361
0002a0 5c 70 f2 3e e4 65 da bd 22 3c 0d be d6 25 19 3a
       0.47351348 -0.10663965 -0.1379247 0.0005842125
0002b0 df 3d 6c 3e 8c f9 6e 3e 3b 11 2c 3d 78 53 8b bd
       0.23070477 0.23337382 0.04200862 -0.0680303
0002c0 aa 74 f6 be 67 ed 8f 3d 5d ee ae 3c 2b af 0b be
       -0.48135883 0.07027703 0.021353895 -0.1364104
0002d0 a3 67 18 3c 45 69 08 bd 72 0c b9 3c d7 b1 29 3e
       0.009302053 -0.033303518 0.022588942 0.16571747
0002e0 d6 de 91 3b 54 e4 7c b7 94 0d e4 3d 03 d3 a8 3e
       0.004451613 -1.5073532e-05 0.11135402 0.3297349
0002f0 6e da 76 3e da 9b 59 be 69 7c 1f be 5f 1f f0 bc
       0.24106762 -0.21250859 -0.15574802 -0.029311834
000300 ed 1c 89 be 59 23 18 bd 8d 7f 8c 3e 19 84 86 3c
       -0.2677988 -0.037143085 0.27441064 0.016420411
000310 c2 8b 17 bc 2e d2 bd bb 57 cc 65 3d fc 25 da 3c
       -0.009249629 -0.0057928776 0.056103077 0.02662944
000320 6b 5e 4e 3d bf 20 86 bc e5 02 81 3d 11 ba 9d 3e
       0.050383013 -0.016373036 0.0629938 0.3080602
000330 9f ba fc 3b 56 74 9c 3e cd 54 b7 bc d6 85 00 be
       0.0077126767 0.30557507 -0.022379303 -0.12551054
000340 46 3b e7 3c 4a a2 bf 3c 3c 5b fd 3c c5 a7 09 3f
       0.028226506 0.023392815 0.030927293 0.5377162
000350 b6 e0 13 3f 16 32 38 be fa a9 1a 3d 56 44 03 3d
       0.57764757 -0.17987856 0.03775976 0.032047592
000360 f1 03 ab bb 85 77 b6 be a4 d8 ad be 21 26 58 3d
       -0.0052189757 -0.3563806 -0.33954346 0.052770738
000370 f8 04 7a 3d ed 3a 4e 3c 4b cf 21 be 57 f5 70 bd
       0.061039895 0.012587291 -0.15801732 -0.058827724
000380 69 9d 6c be 5b 9c b3 be aa 42 fd bd cb ee 29 be
       -0.23106922 -0.35080227 -0.12366231 -0.16594999
000390 f6 55 c1 3e ef 93 ba 3d 3f d7 01 bd 65 75 92 be
       0.37760895 0.09110247 -0.031699415 -0.2860519
0003a0 e9 75 a0 3e c5 65 d8 bd 84 df ef be 0d 4a 7b 3c
       0.31339958 -0.10566286 -0.46850216 0.015337479
0003b0 8b ed 9a bd 0b 3c 70 3e e5 9d ac bd 02 ef 1b be
       -0.07564839 0.23460405 -0.084285535 -0.15227893
0003c0 64 b8 17 be b2 ba 09 3c 0e 96 da bd 42 de be 3d
       -0.14816433 0.008406328 -0.10673152 0.09319736
0003d0 47 f1 be 3c 66 a2 f1 3d 16 12 f5 3c 10 cc a7 be
       0.02330841 0.11798553 0.02991585 -0.32772875
0003e0 aa b2 0c be be b1 99 3e 52 1e c3 3d 64 03 e4 3d
       -0.1374003 0.3001842 0.095272675 0.11133459
0003f0 3e 8b 76 3d 62 3c 83 3d 7f ce ee 3d 75 a4 9d 3b
       0.060191385 0.064080015 0.1166048 0.0048108646

gcn_layer1.linear.bias f4 [16]
000000 18 9f 1e 3e 92 56 81 3e 1e 32 b2 bc 76 cc 6e 3e
       0.15490377 0.2526136 -0.021752413 0.23320183
000010 e2 2c 70 bc cb e9 fd 3d df 75 1d 3e ee 89 0e 3e
       -0.014659138 0.12398108 0.15376996 0.13919804
000020 e0 88 03 3e 37 c3 09 3e 9c a0 0d 3e 63 b7 97 3d
       0.12845182 0.13453375 0.13830799 0.07408025
000030 36 1c 04 bd e8 8b 2e 3e fc fd 50 3e 02 48 e2 3d
       -0.032253467 0.17045557 0.20409387 0.11048891

gcn_layer2.linear.weight f4 [7, 16]
000000 74 9c 76 3f f8 67 a5 bd 91 3e 19 be 4f 63 a9 bf
       0.9633248 -0.08076471 -0.14965273 -1.3233432
000010 7b c1 5b 3e 76 b4 a3 3f f2 a3 92 3f 5c 4f bb 3f
       0.21460526 1.2789447 1.1456282 1.4633594
000020 c0 9b b2 bf 1f 94 f4 be 03 c1 9a 3f 36 ef ae 3f
       -1.3953781 -0.47769257 1.2090153 1.3666751
000030 04 bd 85 3e 2e 74 a6 3f 75 69 2e 3f ed 73 9b 3f
       0.2612077 1.3004205 0.68129665 1.2144753
000040 9b 85 bd 3f f6 2b 8a 3f 41 7a f9 bd 61 89 a2 bf
       1.4806398 1.0794666 -0.12181521 -1.2698175
000050 d0 70 58 bd 8a 3a a6 bf 1c b9 b0 bf 8f 4e a8 bf
       -0.05284196 -1.2986615 -1.3806491 -1.3148974
000060 d0 04 9e bf ef b4 85 bf ad ef b0 3f 0e 79 af bf
       -1.2345219 -1.0445842 1.3823143 -1.3708818
000070 7a d9 00 3d 9d cb ca bf 9d 5f b7 3f e0 dd c0 bf
       0.0314574 -1.5843388 1.4326054 -1.5067711
000080 d0 a9 b5 bf 1d ec b7 bf c8 cb 0a 3e 54 05 ab 3f
       -1.4192448 -1.4368931 0.13554299 1.3361001
000090 2e 8b 46 3e c4 97 b3 3f 2b af c0 bf 5b 01 b5 3f
       0.1938903 1.403069 -1.5053457 1.4141039
0000a0 b3 72 9f 3f df 3b 84 3f 22 7d bc bf 06 d7 a7 3f
       1.2456878 1.0330771 -1.4725688 1.3112495
0000b0 0c 95 9b be d9 2f ca bf ca 81 b6 bf ca 82 46 3f
       -0.3038715 -1.5795852 -1.4258358 0.7754332
0000c0 76 99 cc bf 56 67 c3 3f c0 41 6b 3d 20 2d b6 3f
       -1.5984333 1.5265911 0.05743575 1.4232521
0000d0 a4 34 e1 bd ca 45 b9 bf 51 69 89 bf 8a 88 53 bf
       -0.109963685 -1.4474423 -1.0735265 -0.8263022
0000e0 cc dd ac bf 99 b9 8d bf ae 53 c7 bf ee 26 ac bf
       -1.3505187 -1.1072265 -1.5572412 -1.344938
0000f0 53 17 15 be bf 89 99 3f 4d 2d 89 3f 63 fe a5 bf
       -0.14559679 1.1995162 1.071695 -1.2968258
000100 92 56 95 3f 4c 20 a7 3f dd 5a 82 be 01 07 a7 3f
       1.1667044 1.3056731 -0.25459948 1.3049012
000110 f5 42 b1 3d 35 01 a9 bf 2f fd a5 3f 6a 00 b5 3f
       0.08655349 -1.3203493 1.296789 1.4140751
000120 4a fe b9 3f 8b 3e b4 bf ba c6 7a 3f 96 cc bc bf
       1.4530728 -1.4081587 0.9795948 -1.4749935
000130 4d 00 b6 bc a7 86 ae bf 39 8a b5 bf 7c 27 a2 3f
       -0.02221694 -1.3634843 -1.4182807 1.26683
000140 c3 8d ab bf eb 10 bb bf f1 98 ce 3d ff c3 c1 bf
       -1.3402637 -1.4614538 0.10087765 -1.5137938
000150 5e 6c dd bd 79 b9 b5 bf 1f ae a1 bf eb 27 b4 bf
       -0.10811685 -1.4197227 -1.2631263 -1.4074682
000160 93 d9 ba 3f fc 82 b5 3f 0a df 91 3f 22 ab b6 3f
       1.4597648 1.4180598 1.1396191 1.4270976
000170 93 d1 c0 3d 65 ee 62 3f 59 fd a8 bf ef 4e 8e 3f
       0.09414973 0.8864501 -1.3202316 1.1117839
000180 d0 b3 8d 3f c4 e9 b4 bf bc 90 79 3e e8 12 a5 3f
       1.10705 -1.413384 0.24371618 1.2896395
000190 27 88 13 bc ff 28 a8 3f 4b b9 ba 3f c1 f5 ac bf
       -0.009004629 1.3137511 1.4587797 -1.3512498
0001a0 5b 53 96 bf 62 85 b8 3f ad d1 b0 bf 96 db b1 bf
       -1.1744188 1.4415705 -1.3813988 -1.3895137
0001b0 44 f7 0f be a8 26 97 3f aa 83 90 3f 0f 06 b2 bf
       -0.14059168 1.1808672 1.1290181 -1.3908099

gcn_layer2.linear.bias f4 [7]
000000 2d 6a 5b bf a7 13 80 3f a4 46 07 3f bb 42 5d 3f
       -0.85708886 1.0005997 0.52842164 0.8642995
000010 b7 73 10 bf bd f7 50 3f d0 fd 9a be
       -0.56426567 0.8162802 -0.3027177
