checkpoints/cora/gcn_0.pth (torch, 93843 bytes, 4 tensors)

gcn_layer1.linear.weight f4 [16, 1433]
000000 40 80 90 3c b8 fd 87 3c bc 6d 8b bc 40 24 97 3c
       0.01763928 0.016600475 -0.017020099 0.018449903
000010 28 90 78 3c c0 dd 80 bc a0 09 41 3c 50 38 02 3b
       0.015171088 -0.015730739 0.01178208 0.001986999
000020 b0 9d f2 3b 74 1c d4 3c 9c 4d 6f 3c 90 df 27 3c
       0.0074040517 0.025892474 0.014605906 0.010246173
000030 2f 3e 32 bc 2a e9 8c 3c c8 5a a8 3c 08 7c 7f 3c
       -0.010879084 0.017201025 0.0205511 0.015593536
000040 12 36 d4 3c 54 bb 59 3c 68 4e d7 3c 30 88 b1 bc
       0.025904689 0.013289291 0.026282504 -0.021671385
000050 30 66 b6 3c 52 e0 d0 3c 00 9c 03 3c d0 87 c4 3a
       0.022265524 0.02549759 0.008032799 0.0014994089
000060 d2 b2 94 bc 0c 08 6d 3c f4 c1 a9 bb 6c 70 22 3c
       -0.018151674 0.014467251 -0.0051805917 0.009914499
000070 87 d0 8e bc 14 13 92 3b b0 7c 14 3c 48 75 b0 bb
       -0.017433418 0.0044578407 0.009062931 -0.0053850748
000080 7c 39 c5 bc 40 65 ad bc ae 86 83 bc c8 4c a4 3c
       -0.024075262 -0.021166444 -0.016055431 0.020056143
000090 28 d3 63 3c 90 1b f9 3a 54 50 a2 bc 68 07 7f 3c
       0.013905324 0.0019005407 -0.019813694 0.015565731
0000a0 3c a4 a5 bc 9e d1 d5 3c 4e 10 97 3c c8 c5 ac bb
       -0.020219915 0.02610093 0.018440392 -0.005272601
0000b0 c8 13 21 3c 1e 0a 8b 3c 1c ff 8a bc 00 a4 f2 ba
       0.009831376 0.016972598 -0.016967349 -0.001851201
0000c0 3e 26 b8 3c 18 57 76 3c ed 58 65 bc b9 e2 9e bc
       0.022479173 0.015035413 -0.013998252 -0.01939522
0000d0 f4 f5 43 3c c8 4e 69 3b 66 71 2b bc c7 05 ab bc
       0.011960495 0.0035599936 -0.010464048 -0.020876778
0000e0 20 2c 51 bc c4 4d 8c bc 88 f6 8c 3b 78 e7 be bb
       -0.012766868 -0.017126925 0.0043018498 -0.005825933
0000f0 98 06 68 3c 60 30 72 ba 1e 5d 6a bc 40 d7 81 bc
       0.014161728 -0.0009238776 -0.014304427 -0.01584971
000100 f0 7b df ba 0e 60 a0 3c a7 2e cc bc 34 a3 83 bc
       -0.0017050486 0.019577052 -0.02492459 -0.016069032
000110 44 46 c4 3c 70 2d a7 3b 64 2f 55 3c 0a 1f ae 3c
       0.023959287 0.005101852 0.013011787 0.021255035
000120 d0 a2 43 3c a8 75 46 3c 98 ec 81 bb c4 2e ac bb
       0.011940673 0.012113012 -0.0039649718 -0.0052545983
000130 84 3d b9 3c 20 74 55 bc bc 28 89 bc 9c 68 d7 3c
       0.02261234 -0.013028175 -0.016743056 0.026294999
000140 d0 1a e0 3a 37 b3 c8 bc b8 ac 38 3b ca ca 27 bc
       0.0017097834 -0.024499519 0.002817912 -0.01024122
000150 d4 7c 9d bc a0 ec 7c bb 8c 8e 73 bc 68 d5 34 3c
       -0.019224562 -0.0038593188 -0.014865529 0.011037208
000160 a4 b8 95 3c 50 d5 80 3c 52 1d c9 bc 37 ea cc bc
       0.01827652 0.015726715 -0.024550114 -0.025014026
000170 b2 78 93 bc 80 78 87 bb 75 90 85 bc 8e e7 42 bc
       -0.018001888 -0.0041342378 -0.016304234 -0.011896027
000180 fc cd 97 3c b0 b6 80 ba 94 56 3f 3c 72 e7 c1 bc
       0.018530838 -0.000982007 0.011678357 -0.023669932
000190 30 3e 04 3b 36 b5 bb 3c dc d2 38 3c 3c 8b 69 3c
       0.0020178668 0.022913557 0.011280742 0.0142543875
0001a0 3c 9b 67 3c 24 bd cd bc 06 45 9d bc 16 c6 9a 3c
       0.014136132 -0.025114603 -0.019197952 0.018893283
0001b0 c4 ac cd bc 76 2b c6 3c 6c eb eb bb 32 3e 9d bc
       -0.025106795 0.024190646 -0.0071996953 -0.019194696
0001c0 ae 5b 86 3c e6 5b bb bc ba 6a 9d bc 9a 1b 96 bc
       0.016401138 -0.022870969 -0.01921593 -0.018323708
0001d0 71 e5 3e bc 20 d4 91 ba f4 0a 9f bb a8 b0 86 3c
       -0.011651383 -0.001112584 -0.0048536006 0.016441658
0001e0 d8 9a 07 bb bb ae 45 bc dc 5c 82 3c 34 44 73 3c
       -0.002069166 -0.012065585 0.01591342 0.014847804
0001f0 40 9e a5 3c d2 f4 d6 3c fc 2c 54 3c 18 7e 2f 3c
       0.020217061 0.026239786 0.012950178 0.010711215
000200 c8 39 c2 bc e0 45 bd 3c 34 6e 70 3c c8 6c b2 3b
       -0.023709193 0.023104608 0.014674712 0.0054450966
000210 70 e8 9f bb f0 27 70 3b 2c 65 82 bb 23 bf 4a bc
       -0.0048800036 0.0036644898 -0.003979346 -0.012374672
000220 18 49 1c bb 4c f7 bf bb c0 63 61 ba 74 75 24 3c
       -0.0023847278 -0.0058583375 -0.0008597933 0.010037769
000230 e4 25 75 bc 7c 34 88 bc 20 a1 43 3c 16 4e 18 bc
       -0.014962647 -0.016626589 0.011940271 -0.009295961
000240 d7 d3 a1 bc 78 eb 54 bb b0 78 9c bc 60 85 97 3b
       -0.019754333 -0.0032488983 -0.019100517 0.004624054
000250 00 5a be 38 f2 74 cf 3c 44 92 bc 3c 58 c7 72 3b
       9.07667e-05 0.025324319 0.023018964 0.0037045088
000260 e8 21 aa bc 9e 44 cb 3c 8e 3f 20 bc e4 d3 5d 3c
       -0.02076812 0.024812993 -0.009780778 0.013539288
000270 9e 65 aa 3c 6d 02 c1 bc 98 43 c5 3c 6e 3e a3 3c
       0.020800408 -0.023560727 0.024080083 0.01992723
000280 68 23 96 bc fc dd b8 3c 90 2f 1d bc 52 73 a4 3c
       -0.01832743 0.022566788 -0.009593859 0.02007452
000290 05 2c 31 bc 72 a5 b7 bc 61 a3 d6 bc 84 97 a1 3c
       -0.010813718 -0.022417758 -0.026200952 0.019725569
0002a0 c0 6f df 39 20 b6 64 3b 54 73 bb 3c 90 ae c4 3b
       0.00042617135 0.0034898594 0.022882141 0.006002255
0002b0 92 a7 d0 3c 5d e0 a8 bc 9b 1e 5f bc d1 ea 72 bc
       0.025470529 -0.020614797 -0.013618137 -0.014826492
0002c0 21 09 a0 bc 40 89 26 3a 51 d9 bc bc 3c f4 d1 3c
       -0.019535603 0.00063528493 -0.023052843 0.025629155
0002d0 40 6b f7 3b bc 40 46 bc c0 c1 ea 3a 6e 4a 9e 3c
       0.007550627 -0.012100395 0.0017910525 0.0193226
0002e0 47 8b d5 bc 34 78 83 bc 16 0f be 3c 82 3a 91 3c
       -0.02606739 -0.016048528 0.023200553 0.017728094
0002f0 b6 dd c4 3c bf b3 94 bc 24 e6 93 bb 48 5d 5c 3c
       0.024031501 -0.018152116 -0.004513519 0.013449974
000300 98 3e 31 bb c8 42 d6 3b 46 5b d7 bc b9 4f c3 bc
       -0.0027045365 0.0065387227 -0.02628864 -0.023841726
000310 e6 cc aa 3c 60 fc 24 ba 30 03 a5 bb 50 8b e2 ba
       0.020849656 -0.00062937103 -0.0050357804 -0.001728395
000320 40 e6 98 3c f2 d5 10 bc 1e c7 cd bc 94 d1 5f 3c
       0.01866448 -0.008840071 -0.02511936 0.013660807
000330 20 da 99 3c d0 3c 47 bc b2 df 9d bc 50 27 ed 3b
       0.018780768 -0.012160495 -0.019271705 0.0072373524
000340 80 2c 01 3c a4 ac 48 bc 10 35 4c 3c 16 46 ae 3c
       0.007884145 -0.012248192 0.012463823 0.021273654
000350 9c 92 85 3c 9c 3f 32 3c 0a f1 8d 3c 68 ec 58 bc
       0.01630526 0.0108794235 0.01732685 -0.013239957
000360 48 16 79 bb 58 80 bf bb 68 f1 c5 3c fc 47 33 3c
       -0.0038007665 -0.005844157 0.024162963 0.010942455
000370 71 d4 62 bc f4 59 dc bb b8 c3 ea 3b c0 4f d6 39
       -0.013844595 -0.0067245904 0.007164445 0.0004087668
000380 2c 43 86 bb 36 f5 ba bc a0 0b 27 ba e4 bf 93 3b
       -0.004097363 -0.022822004 -0.00063722767 0.004508959
000390 ab 1a c4 bc ec 07 99 3c 1e 91 62 bc 1b 1f d2 bc
       -0.023938498 0.018680535 -0.013828544 -0.025649598
0003a0 90 0b f2 3b 02 82 cc bc 77 7f a5 bc 54 e4 49 bc
       0.0073866323 -0.024964336 -0.020202382 -0.012322504
0003b0 cb f8 82 bc d8 68 5d 3c 2c 17 82 3b f0 75 ca bc
       -0.015987774 0.013513766 0.0039700475 -0.02471444
0003c0 e2 aa 6c bc 4c 0a aa bb 04 36 61 3c a0 c9 b5 3a
       -0.0144450385 -0.0051892158 0.0137457885 0.0013869293
0003d0 c6 c6 ab 3c 60 ce 79 bb 84 28 a5 bc c8 16 df bb
       0.020968806 -0.0038117394 -0.02016092 -0.0068081357
0003e0 7c 87 3c bc a2 38 b4 bc cc 63 a7 bb e8 8e 73 3c
       -0.011506911 -0.02199966 -0.0051083323 0.0148656145
0003f0 25 20 3c bc 66 cf 95 3c 1d 81 33 bc b0 f2 6e bb
       -0.011482273 0.018287372 -0.010956076 -0.003646057

gcn_layer1.linear.bias f4 [16]
000000 71 98 ce bc 54 05 0b bc 91 3f 55 bc 42 82 04 bc
       -0.025219174 -0.008485157 -0.013015644 -0.0080876965
000010 30 64 3f bc 30 71 6c 3b 6c 70 5d 3c 72 8e 91 bc
       -0.011681601 0.0036078207 0.013515573 -0.017768119
000020 10 95 bd 3c 74 23 36 3c 9c 57 44 3c 1e e0 b4 3c
       0.023142368 0.011116851 0.011983778 0.022079524
000030 b0 20 db ba b0 63 7e 3c 78 b9 56 bc d4 6b 20 bc
       -0.0016718116 0.015526697 -0.013105743 -0.009791333

gcn_layer2.linear.weight f4 [7, 16]
000000 40 56 67 3d 18 05 28 bd ac 7f 51 be 40 c8 18 bc
       0.05647874 -0.041020483 -0.20458859 -0.009325087
000010 10 06 23 3e 18 f4 6b 3e 08 76 68 3d 70 3b 63 3e
       0.15920281 0.23042333 0.05675319 0.22190642
000020 34 73 f7 bd da 4a 0c 3e 14 38 b8 3d 20 3e 73 3d
       -0.1208252 0.13700429 0.08995071 0.05938542
000030 84 18 4e 3e 7a 48 60 3e 10 0a 0b 3e 90 8b fe 3c
       0.2012654 0.21902648 0.13578057 0.031072408
000040 72 e9 43 3e 84 34 d6 3d c6 60 35 be b0 09 a6 3d
       0.19132021 0.10459235 -0.17712697 0.081073165
000050 0c e8 dc bd b4 ce 42 be f8 29 55 bd 90 91 8f 3c
       -0.10786447 -0.19024163 -0.052041978 0.017525464
000060 70 d4 d6 bc f0 2d 43 3d 60 7e a6 3c 8e dd 6e be
       -0.026224345 0.04765123 0.020323932 -0.23326704
000070 08 55 bb 3d da 02 6e be 70 3f 31 3e 7a 5e 70 be
       0.09147078 -0.23243275 0.17309356 -0.2347354
000080 66 da 18 be 10 6e 6c be 86 72 43 3e 3c 7a 54 3e
       -0.14927062 -0.2308886 0.19086656 0.20749754
000090 04 4d 7f 3e 92 ca 11 3e f2 e3 61 be f2 c4 04 3e
       0.24931723 0.1423743 -0.2205961 0.12965754
0000a0 28 3c 37 3e b8 8b 39 3e c8 29 73 bd 0e d7 34 3e
       0.17894042 0.18119705 -0.059366018 0.17660162
0000b0 28 bd 79 be da 2d 69 be 7e 57 66 be a0 cb 40 3c
       -0.24388564 -0.22771397 -0.22494313 0.011767298
0000c0 ee b3 71 be 36 b5 63 3e e0 ab e6 3d c0 8e b6 3d
       -0.23603794 0.22237095 0.11263251 0.08913946
0000d0 e2 71 29 be 78 09 01 be 62 8a 48 be 6a d4 21 be
       -0.16547349 -0.12601268 -0.19584039 -0.15803686
0000e0 06 b7 47 be b0 60 a0 3d 96 af 5e be 9c f4 a6 bd
       -0.19503412 0.07830942 -0.21746668 -0.08152124
0000f0 62 90 52 be f8 07 00 bd 60 43 9c bc d2 2e 31 be
       -0.2056289 -0.0312576 -0.019075096 -0.17303017
000100 4a 05 32 3e d2 9e 53 3e 74 71 4c be c8 95 f8 3d
       0.1738483 0.20666054 -0.19965154 0.121379435
000110 e4 5c 11 3e e0 06 41 3c c0 89 5e 3e 4c 83 49 3e
       0.14195591 0.011781424 0.21732235 0.19678992
000120 1a b0 5c 3e 08 04 7c be 94 61 8c 3d 9e c1 4e be
       0.21551552 -0.24610913 0.06854549 -0.20191047
000130 d0 28 1a 3d 70 eb 67 be c8 af b3 bd 98 40 cc 3d
       0.037636578 -0.22648406 -0.08773762 0.09973258
000140 e6 10 3c be ea 8e 58 be fe e4 1f 3e 6a 3d 3d be
       -0.18365821 -0.21148267 0.15614697 -0.18480459
000150 d8 10 58 bd 14 d7 b9 bd 42 f4 22 be f0 c0 3a bd
       -0.05275044 -0.09074226 -0.1591349 -0.045594156
000160 06 ce 65 3e cc 6d 0a 3e 40 02 e1 bb 98 6e 7b 3e
       0.22441873 0.13518447 -0.0068667233 0.24553907
000170 da de 1d 3e 70 14 57 bd 74 84 10 be 00 9c 34 bc
       0.15417042 -0.052509725 -0.14113027 -0.011023521
000180 c0 9e 9b 3c 28 74 d0 bd 50 d1 40 3e 2c d3 5a 3e
       0.018996596 -0.10178405 0.18829846 0.21369618
000190 18 bb 3d 3d 5c a1 8d 3d d6 9f 27 3e b8 a6 44 bd
       0.046321005 0.069155425 0.16369566 -0.048010558
0001a0 88 0c 06 3d e4 75 30 3e 24 55 36 be 18 85 e4 bd
       0.032726794 0.17232472 -0.17805916 -0.11158198
0001b0 f8 68 4d be 50 ca 6e 3d 48 42 b1 3d 98 84 0c be
       -0.20059574 0.05829841 0.0865522 -0.13722456

gcn_layer2.linear.bias f4 [7]
000000 88 7e af bd 40 b9 1e 3d 28 8d 67 3e ac 4f f5 bd
       -0.08569056 0.038750887 0.2261244 -0.11978087
000010 08 d1 3a 3e e0 af 61 3c 00 b5 7d bd
       0.18243802 0.013774842 -0.061940193
