checkpoints/cora/gcn_60.pth (torch, 93849 bytes, 4 tensors)

gcn_layer1.linear.weight f4 [16, 1433]
00000000: 561f 823d 3696 023e 4b89 fa3d 7447 2e3e
00000010: a94c 05bf 68a5 e3bd f7f1 fcbd 730d e33d
00000020: 940d 623c b24e 8f3d 202c 86bb fe7b aa3d
00000030: 5ac7 15be 459d febc 47fe 50bd 97f1 2f3e
00000040: eb2d 6e3d c3ff a9bc bd04 9ebd 318d 5fbe
00000050: f9e2 423a a45c 5a3e d690 cfbd 23ff 73be
00000060: 6e29 243c 1414 893d 3db2 383d 0015 2b3d
00000070: afa8 26be bca4 223c ce65 2f3e 91f3 67bd
00000080: 5a1d 49bd 1003 e93b 0fcb 673c 7ca4 70be
00000090: 3ca0 5b3b a07d e33d 7371 ce3e f204 9f3e
000000a0: 31bc f0be a162 43be 2e8d 86bc e3ec abbd
000000b0: 6c01 f73d 013b ba3e 00ca 563c 43b9 5a3e
000000c0: 3776 86be f027 103c bb61 2a3e b4de 073f
000000d0: 77c1 003e b206 8e3a b975 33be 1112 dfbd
000000e0: 2a81 483d aa68 60bd 0d66 7e3e f5a8 78be
000000f0: e4be 003a b65e 63be 71d9 34be fa75 963e
00000100: ca45 cdbd 15c3 d93e 1564 c83d c6ba 8bbc
00000110: feea ccbb 9f82 d13d 9c0b 673d ebf1 653d
00000120: f230 6abd 6968 c9bd a29b 9f3d 8948 87be
00000130: 4794 c33e 76bb 793e 6602 b1be b112 c0bc
00000140: 1cc1 bbbd 8b21 0e3e af9e 26be 0a83 60bc
00000150: 4334 36be 58c4 e2be 9570 a5bd 2f9c 323d
00000160: fc8d b8bc ed42 8a3d 29b1 14be eb3c 35bd
00000170: c85d a3bd 42af bbbd 740a cbbd b34f 843e
00000180: 9803 523e 0105 843d 216c dc3e 749b 1dbd
00000190: 0239 47bd 5949 20bd fe1f 6c3e 0854 11be
000001a0: 57cc 243d 553d e1bd a0aa 0d3d c85f f5bd
000001b0: 4908 623e 338b dfbd aa1e ee3b 472e a63d
000001c0: dc27 fcbc f4fd 2cba ba8c a5bd 3c35 32ba
000001d0: 17a3 a43d e478 303c e5d3 d9be bce3 2e3d
000001e0: 6d22 57be 3c99 59be 7225 1c3d 0302 7bbe
000001f0: a06b 94bd 16f5 d5bd 5fff 2dbd 05a9 bf3d
00000200: 1bf2 80be d390 1f3e 10e7 c5be f3d4 6d3e
00000210: d326 f53d 1729 4b3e 63c3 ab3d fed7 783e
00000220: 985f 28be 0482 043d 94b8 36bd d784 0b3e
00000230: 90ea 08bf 88dd 94bc fda1 67bd 464d eabd
00000240: 591e 103c 527c 1c39 fcc4 34be e98f 70bb
00000250: d6f5 bebb 426a 8e3e 5056 2fbe eae3 9cbd
00000260: 8ebc fc3b afc7 c13d 8366 cfbd d60e cb3d
00000270: c610 bc3c ae12 863e c495 0ebd 400e 76bd
00000280: b200 a9be a86e 903d c793 d9bc 268d 3fbe
00000290: c4a9 adbd 4177 5c3d ba2e 043d ab0f 22be
000002a0: 091d da3e 943b adbd bb08 adbd 51b6 6e3b
000002b0: 685d 443e e290 2a3e 3898 7c3d 9396 06bd
000002c0: a84b acbe b449 683d 834e 483d 9821 cabd
000002d0: 0db1 403c f103 96bc ecb6 9abd f507 0d3e
000002e0: 0009 553c f895 4438 1211 733c 007a 263e
000002f0: 788c 033e 4e9e 0dbe 56fd fdbd d8f1 f6bd
00000300: 5160 d0be 03d8 c2bb ee79 6a3e 0f86 8d3d
00000310: 479f a73d 835d 3e3d b09a 613d 9118 8c3c
00000320: 3211 74bc 71ec 96bd f8b5 17bd 3c2d 003e
00000330: cc0b f93c 81e1 ad3e b25a 0abd 6470 43bd
00000340: 6041 263d 4c74 113d 1607 013b 59da e03e
00000350: 2512 eb3e 847e 6ebe f38b 743d 19ff 3c3d
00000360: 9c50 89bd 7278 92be eeaf 42be 6223 703c
00000370: 68f4 823c 1bfd c93b 0632 ebbd ac11 32bd
00000380: b776 60be 5db3 95be cfd8 1bbe 244b 30be
00000390: a55e ab3e 34c7 1b3e d69a 853c 15f8 5fbe
000003a0: e326 423e efa4 33be 4261 eebe 65cd 8bbc
000003b0: ce72 c8bc 6b06 a23e de2c 8c3c 54e4 02be
000003c0: 8d83 b4bd eba6 9a3c 24a0 e4bd 42f2 d93c
000003d0: 481e 133d 4970 c83d cb86 af3b a4c7 8dbe
000003e0: a16f 25be 6f36 883e e2f2 053e 2bf0 053e
000003f0: 4059 023e c463 c23d 04a8 c73d 7e51 aabd
0.06353633 0.12752613 0.12233218 0.17019445 -0.520701 -0.11115533 -0.12350839 0.110865496
0.013797183 0.06997432 -0.0040946156 0.08324431 -0.14626828 -0.031080851 -0.051023748 0.17182003
0.05814926 -0.02075184 -0.077157475 -0.21831204 0.0007434334 0.21324402 -0.10135047 -0.23827796
0.010019643 0.06693283 0.045091856 0.041768074 -0.16275285 0.009926971 0.17128679 -0.056628767
-0.049100257 0.007110961 0.014147534 -0.23500246 0.0033512255 0.111079454 0.4032093 0.3105846
-0.4701858 -0.19080593 -0.016424742 -0.08394792 0.12060818 0.3637314 0.013109684 0.21359734
-0.26262066 0.008798584 0.16638844 0.53074193 0.12573801 0.0010835736 -0.17525376 -0.10892118
0.048951305 -0.054787315 0.24843617 -0.24283202 0.00049112574 -0.22204098 -0.17661072 0.29386884
-0.10023077 0.42531648 0.09784714 -0.017056834 -0.006253599 0.10229992 0.056407556 0.056138914
-0.057175584 -0.09834368 0.077933565 -0.26422527 0.38199064 0.24387917 -0.34572142 -0.023446413
-0.09167692 0.13879983 -0.1627147 -0.013703117 -0.17793374 -0.44290423 -0.08078114 0.04360598
-0.02252864 0.06751046 -0.14520706 -0.04424755 -0.07976872 -0.09164287 -0.09914103 0.25842056
0.20509183 0.06446267 0.43051246 -0.03847833 -0.04863835 -0.03913245 0.23059079 -0.14192212
0.040233936 -0.10998026 0.03458655 -0.119811594 0.22073473 -0.10915222 0.007266839 0.081142955
-0.030780725 -0.0006599121 -0.08083482 -0.00067980937 0.080389194 0.01077101 -0.42544475 0.042697653
-0.21009226 -0.2124986 0.038121648 -0.24512486 -0.0724709 -0.10447137 -0.04247987 0.0935841
-0.25184712 0.1558259 -0.3865285 0.23225765 0.11970296 0.19839893 0.083868764 0.24301144
-0.16442716 0.032350555 -0.04460962 0.13624893 -0.53482914 -0.01817204 -0.05655097 -0.1144052
0.008796298 0.00014923632 -0.17653269 -0.003670687 -0.005827646 0.27815443 -0.1712277 -0.07660659
0.007712907 0.09461915 -0.101269744 0.09914939 0.022957217 0.26186126 -0.034810796 -0.060072184
-0.33008343 0.07052356 -0.026559724 -0.18706188 -0.08479646 0.053824667 0.032271124 -0.1582629
0.42600277 -0.08458629 -0.08448931 0.0036424587 0.19176257 0.16656831 0.061668605 -0.032858443
-0.3365147 0.056710914 0.048903 -0.09869689 0.011760962 -0.018312426 -0.07554421 0.13772567
0.013002634 4.686971e-05 0.014835613 0.16257477 0.12846553 -0.1382992 -0.124018356 -0.12057847
-0.40698484 -0.0059461608 0.22898075 0.06910335 0.081846766 0.0464759 0.055079162 0.017101558
-0.014896678 -0.07369316 -0.037038773 0.12517256 0.030401133 0.33961108 -0.0337779 -0.047714606
0.04058969 0.0355113 0.0019688061 0.43916586 0.4591228 -0.2329045 0.05970378 0.046141718
-0.06704828 -0.28607517 -0.19012424 0.014656873 0.015985683 0.0061642057 -0.114841506 -0.043473884
-0.21920286 -0.29238406 -0.15219425 -0.17216164 0.33470646 0.15212709 0.016309183 -0.2187198
0.18960147 -0.17543386 -0.46558577 -0.017065713 -0.024468806 0.31645522 0.017111238 -0.12782413
-0.08814154 0.01887842 -0.11163357 0.026604775 0.03591755 0.09787042 0.0053566447 -0.27691376
-0.16155864 0.2660403 0.13080934 0.13079898 0.12729359 0.09491685 0.09748843 -0.08316325

gcn_layer1.linear.bias f4 [16]
00000000: 33fb 243e bcd4 8f3e 5d2b 32bd 785d 7e3e
00000010: 5d50 1dbd 0551 023e c489 1b3e 4eee 0d3e
00000020: b329 1a3e e5fe 1c3e be02 2c3e 6b2d ed3d
00000030: 407c 4ebd fe9d 313e 9d60 673e a6cf 0a3e
0.1611145 0.2809199 -0.043498386 0.24840343 -0.03840672 0.12726219 0.15189272 0.13860437
0.1505497 0.1533161 0.16797921 0.115809284 -0.050411463 0.17345425 0.22595449 0.13555774

gcn_layer2.linear.weight f4 [7, 16]
00000000: 54e4 183f 2211 643b 7f69 19be 2d53 2ebf
00000010: 8495 5b3e 454c 5d3f b6e2 1a3f 340f 5c3f
00000020: 990a 45bf bd57 143e 9ced 343f f9c2 2e3f
00000030: 27a9 853e 8153 4b3f 0db4 0f3f 00e9 1b3f
00000040: 395d 593f 094a 1e3f c3d1 f9bd ab53 19bf
00000050: 4a1d 59bd 2f2c 4fbf aa0c 2bbf cb7c 24bf
00000060: 61f3 39bf ebe5 fabe 5bbb 353f 6b5f 5fbf
00000070: f578 013d 06c3 5fbf d21f 4f3f 5028 67bf
00000080: dbf8 50bf 949f 68bf 8ef7 0a3e 3f78 453f
00000090: 30b7 463e 1f8c 393f 84a1 66bf a332 3f3f
000000a0: 10f4 4c3f 695d 223f e19c 45bf f25e 473f
000000b0: 2781 9bbe 45c7 6abf b725 63bf 1a78 e83e
000000c0: aaa8 57bf 70e4 663f c0ef 6b3d dd17 343f
000000d0: 0a8d e1bd 7753 43bf cff4 20bf 20dd 2cbf
000000e0: cfad 57bf e48d afbe aacb 55bf d0a6 30bf
000000f0: 393f 15be 6445 123f ac33 003f d40d 34bf
00000100: a4fb 3a3f c680 5f3f 6245 82be dc6a 3d3f
00000110: e09a b13d 1c7f 22bf 17b1 493f d6c1 583f
00000120: 5ede 513f 2ebf 66bf 0896 2c3f 2c05 66bf
00000130: 06c4 b4bc 9961 5bbf 1b01 43bf fb92 3e3f
00000140: 214a 54bf d4e0 64bf 47f0 ce3d 54bd 62bf
00000150: 9f14 ddbd a832 49bf 09d0 4dbf 6182 38bf
00000160: 94a5 6a3f eef1 413f 5b92 b13e eb92 643f
00000170: 5a21 c13d 9243 303e 8dc1 48bf f4ef 0b3f
00000180: 5429 013f 624d 4dbf bd64 793e 4fde 563f
00000190: 93cb 10bc 9ca0 2d3f 5ae5 573f 4c0e 39bf
000001a0: 90a8 1abf 25b5 4c3f d997 57bf b040 43bf
000001b0: 1e1f 10be 5669 303f ccd8 393f e189 55bf
0.597234 0.003480025 -0.1498165 -0.68095666 0.21443754 0.86444503 0.60502183 0.859607
-0.76969296 0.14486594 0.70675063 0.68266255 0.26105615 0.7942429 0.5613411 0.60902405
0.8490787 0.6183172 -0.12198212 -0.5989329 -0.053006448 -0.80926794 -0.668162 -0.6425292
-0.7263699 -0.49003538 0.70989007 -0.8725497 0.031609494 -0.8740696 0.8090793 -0.90295887
-0.81629723 -0.90868497 0.13570997 0.77136606 0.19405818 0.7247943 -0.90090203 0.7468664
0.8005991 0.6342378 -0.77192503 0.7787925 -0.30371973 -0.9171031 -0.88729423 0.4540413
-0.84241736 0.9019232 0.05760169 0.7034891 -0.11013229 -0.7629923 -0.6287355 -0.6752491
-0.84249586 -0.3428794 -0.8351389 -0.69004536 -0.14574899 0.5713713 0.50078845 -0.703336
0.73040223 0.8730587 -0.2544356 0.7399118 0.08672118 -0.63475204 0.7878584 0.8467077
0.8197993 -0.9013547 0.6741643 -0.8985164 -0.022066128 -0.856958 -0.7617356 0.74443024
-0.8292561 -0.8940556 0.10104423 -0.8857014 -0.10794949 -0.7859292 -0.8039556 -0.7207394
0.916589 0.7575978 0.34681973 0.8928668 0.094301894 0.17213276 -0.78420335 0.54663014
0.50453687 -0.801962 0.24354835 0.83932966 -0.008837598 0.67823195 0.8433434 -0.7228744
-0.60413456 0.79963905 -0.84216076 -0.7627058 -0.1407437 0.6891073 0.7259643 -0.8341351

gcn_layer2.linear.bias f4 [7]
00000000: 3056 febe 4272 0d3f 0d85 bf3e 5502 df3e
00000010: eca3 83be 6002 263f 9a1e 97bd
-0.4967513 0.5525247 0.37406197 0.43556467 -0.25711 0.64847374 -0.07378884
