checkpoints/cora/gcn_40.pth (torch, 93849 bytes, 4 tensors)

gcn_layer1.linear.weight f4 [16, 1433]
0.036178973 0.12360482 0.06859401 0.10855449 -0.34806612 -0.08754617 -0.08302405 0.029820688
-0.017332405 0.049444046 0.017480398 0.049280226 -0.029290736 0.026107768 -0.008436868 0.11350567
0.08500013 -0.039168827 -0.071429595 -0.11406837 -0.0017197183 0.14501782 -0.12883803 -0.19357626
0.003853429 0.02035369 -0.023242256 -0.015039313 -0.08503936 0.054648098 0.09204874 -0.036662098
0.006930057 0.015497701 0.028796896 -0.17868116 0.014300287 0.10485551 0.26954275 0.23160212
-0.33388904 -0.067242585 -0.024862044 -0.06720038 0.15280132 0.2477568 0.010355792 0.1989712
-0.2033346 0.005478353 0.097788654 0.3562876 0.11673137 0.012064353 -0.16043645 -0.11822279
0.065416895 -0.0029678196 0.21577667 -0.052671865 -0.00011165987 -0.13554129 -0.093505 0.24691229
-0.07451943 0.24371806 0.029568462 -0.014582635 -0.012613175 0.058119964 0.079438336 0.04785528
-0.060032915 -0.12727371 0.031733934 -0.25825468 0.24472523 0.19435151 -0.25961095 -0.049389657
-0.092152044 0.1323868 -0.1602891 0.023615034 -0.14252673 -0.31650552 -0.06401693 0.06954969
-0.0064110355 0.07019688 -0.07989006 -0.03832197 -0.009414964 -0.10446455 -0.054973513 0.207658
0.15428104 0.11120065 0.26075363 -0.0066980664 -0.084855124 -0.03210302 0.18482196 -0.035000574
-0.00028618565 -0.08627029 0.035034083 -0.10351683 0.17970127 -0.042350978 -0.03592284 0.044080324
-0.031485807 0.001992983 -0.09616496 -0.007882028 0.04453864 0.053892706 -0.29677832 0.042250376
-0.13338354 -0.20677562 0.06339343 -0.20715705 0.008606423 0.0015253443 -0.06403421 0.031644788
-0.15802802 0.14787082 -0.31346014 0.17614271 0.0996496 0.21346283 0.100284494 0.18747397
-0.1296464 0.017046053 -0.002524207 0.10066116 -0.3583162 -0.016767142 -0.04104243 -0.11066022
0.050470315 -0.0005871246 -0.123489775 -0.0044637118 -0.01032554 0.20523605 -0.12295806 -0.058595497
0.0043259338 0.0657721 -0.05177236 0.12797198 -0.040676273 0.20165901 -0.06261653 -0.032716196
-0.21958221 0.062977344 -0.03529638 -0.19616504 -0.08175292 0.038220428 0.031822503 -0.18614963
0.27937788 -0.06481001 -0.07065951 0.004016554 0.16183606 0.17294665 -0.008409645 -0.013182204
-0.2148407 0.023717172 0.011804366 -0.10081821 0.0119849555 0.015821353 -0.06121955 0.07412367
-0.0027539884 -0.0011874579 -0.017831633 0.08391136 0.07847679 -0.112514116 -0.11021206 -0.07693998
-0.2814556 -0.006955336 0.17195238 0.0922315 0.0692264 0.05231112 0.001198766 0.017108653
0.030604485 -0.06338331 -0.052529477 0.09125769 0.024667239 0.2538128 -0.08841545 -0.0031585323
0.018070264 -0.021144116 -0.031616196 0.29033408 0.30608866 -0.18750368 0.071500026 0.02916722
-0.03335183 -0.22091366 -0.09889774 -0.009740549 -0.007654368 -0.027329473 -0.09860634 -0.029485289
-0.18408228 -0.19808169 -0.12835939 -0.06224542 0.24456282 0.07127706 -0.08054768 -0.16912533
0.14710042 -0.15496565 -0.3207541 -0.012802728 -0.05224865 0.25945058 0.030800147 -0.025310267
-0.07316059 0.016452547 -0.1630871 0.034909744 -0.032437004 0.1026122 -0.0013857903 -0.20106383
-0.16688186 0.21374476 0.15546928 0.12143036 0.10006006 0.09857973 0.06514209 -0.027893413
00000000: 6730 143d 8624 fd3d 047b 8c3d d151 de3d
00000010: b935 b2be 684b b3bd 8308 aabd 844a f43c
00000020: b0fc 8dbc d785 4a3d 0d33 8f3c 10da 493d
00000030: 20f3 efbc f5df d53c ca3a 0abc a975 e83d
00000040: 8c14 ae3d 7e6f 20bd ae49 92bd ad9c e9bd
00000050: 2c68 e1ba 8d7f 143e 1eee 03be db38 46be
00000060: d089 7c3b c8bc a63c 8b66 bebc 7367 76bc
00000070: 1e29 aebd afd6 5f3d 0d84 bc3d ff2a 16bd
00000080: 8815 e33b 12ea 7d3c 78e7 eb3c 32f8 36be
00000090: c04b 6a3c 7cbe d63d 8201 8a3e 1b29 6d3e
000000a0: 81f3 aabe 7bb6 89bd 7cab cbbc 5aa0 89bd
000000b0: f377 1c3e f5b3 7d3e 57ab 293c 1bbf 4b3e
000000c0: f236 50be c183 b33b 6b45 c83d 546b b63e
000000d0: db10 ef3d 90a9 453c 7449 24be ca1e f2bd
000000e0: 4bf9 853d c07f 42bb 8ff4 5c3e 74be 57bd
000000f0: f02a eab8 56cb 0abe 8d7f bfbd 93d6 7c3e
00000100: a59d 98bd 3a91 793e 8f39 f23c 01ec 6ebc
00000110: 7ea7 4ebc 330f 6e3d 91b0 a23d e603 443d
00000120: 13e5 75bd 0a54 02be 71fb 013d f539 84be
00000130: 4099 7a3e 1504 473e baeb 84be cf4c 4abd
00000140: 36ba bcbd 6890 073e d322 24be 5174 c13c
00000150: 87f2 11be 030d a2be 4f1b 83bd 1170 8e3d
00000160: aa13 d2bb 62c3 8f3d 669d a3bd 7ff7 1cbd
00000170: 3941 1abc 83f1 d5bd e82b 61bd 4ca4 543e
00000180: d9fb 1d3e 2bbd e33d 8081 853e 747b dbbb
00000190: 86c8 adbd 757e 03bd f841 3d3e c35c 0fbd
000001a0: 300b 96b9 7aae b0bd e67f 0f3d a200 d4bd
000001b0: 9c03 383e 3878 2dbd d423 13bd 928d 343d
000001c0: 43f7 00bd b59c 023b 22f2 c4bd 9f23 01bc
000001d0: 266e 363d 99be 5c3d 54f3 97be bb0e 2d3d
000001e0: b295 08be fdbc 53be 6ad4 813d fa20 54be
000001f0: f401 0d3c 10ee c73a 5e24 83bd f79d 013d
00000200: 19d2 21be 736b 173e d97d a0be c15e 343e
00000210: 1715 cc3d 0096 5a3e f561 cd3d 2df9 3f3e
00000220: 07c2 04be 2aa4 8b3c 2b6d 25bb 7027 ce3d
00000230: 3975 b7be 3f5b 89bc 1b1c 28bd d3a1 e2bd
00000240: f6b9 4e3d 44e9 19ba 35e8 fcbd 5444 92bb
00000250: 742c 29bc 6629 523e 6fd1 fbbd d501 70bd
00000260: 90c0 8d3b 86b3 863d 410f 54bd 160b 033e
00000270: 2a9c 26bd b37f 4e3e 183d 80bd 6b01 06bd
00000280: 29da 60be 44fa 803d f092 10bd 7ddf 48be
00000290: 136e a7bd 068d 1c3d 5058 023d 029e 3ebe
000002a0: 9e0a 8f3e 1cbb 84bd efb5 90bd 4c9d 833b
000002b0: 5ab8 253e ed18 313e 9cc8 09bc 2cfa 57bc
000002c0: 33ff 5bbe 844a c23c 1967 413c c779 cebd
000002d0: 8c5c 443c c89b 813c 5ac1 7abd 27ce 973d
000002e0: 427c 34bb 7aa4 9bba a513 92bc b8d9 ab3d
000002f0: 70b8 a03d cd6d e6bd dcb6 e1bd b592 9dbd
00000300: f31a 90be 96e9 e3bb 4914 303e dee3 bc3d
00000310: 92c6 8d3d 2f44 563d ea1f 9d3a 7227 8c3c
00000320: 42b6 fa3c 1ccf 81bd 2629 57bd 50e5 ba3d
00000330: f312 ca3c c0f3 813e 2913 b5bd 61ff 4ebb
00000340: 1708 943c 6d36 adbc fc7f 01bd aba6 943e
00000350: a7b7 9c3e f700 40be 9b6e 923d 18f0 ee3c
00000360: ee9b 08bd 3137 62be e68a cabd d396 1fbc
00000370: 7ed1 fabb 0fe2 dfbc 1ff2 c9bd 228b f1bc
00000380: 1180 3cbe edd5 4abe a570 03be 0ef5 7ebd
00000390: ad6e 7a3e b5f9 913d 2ff6 a4bd 312f 2dbe
000003a0: 7ea1 163e 51af 1ebe e239 a4be 89c2 51bc
000003b0: ae02 56bd b5d6 843e 9750 fc3c 7a57 cfbc
000003c0: 38d5 95bd 7ec7 863c 4e00 27be 85fd 0e3d
000003d0: aadc 04bd 5826 d23d 68a3 b5ba ade3 4dbe
000003e0: 14e3 2abe e8df 5a3e 5733 1f3e 7bb0 f83d
000003f0: 4aec cc3d 2be4 c93d 3769 853d ba80 e4bc

gcn_layer1.linear.bias f4 [16]
0.1510915 0.20203196 -0.050005596 0.16705132 -0.046667453 0.086109065 0.14959589 0.11104826
0.105534196 0.13296251 0.1255149 0.0949532 -0.055098522 0.1321003 0.17674537 0.116566494
00000000: bbb7 1a3e 77e1 4e3e abd2 4cbd 800f 2b3e
00000010: 5f26 3fbd f359 b03d aa2f 193e 456d e33d
00000020: 5022 d83d 5327 083e fa86 003e d376 c23d
00000030: fdae 61bd 4d45 073e bdfc 343e 6aba ee3d

gcn_layer2.linear.weight f4 [7, 16]
0.41867977 0.08035712 -0.1507983 -0.41265333 0.21343644 0.6536274 0.44657683 0.63473135
-0.5062215 0.25403115 0.4878988 0.45675737 0.26015207 0.58985966 0.47019777 0.38643184
0.5877887 0.40575412 -0.122979455 -0.33184537 -0.053991806 -0.5592824 -0.4012832 -0.37721893
-0.47702304 -0.25437212 0.45065132 -0.6443713 0.032516327 -0.61374205 0.54885775 -0.65086603
-0.5541955 -0.66120094 0.13670775 0.5332866 0.1950603 0.45614064 -0.6589592 0.47009775
0.56162095 0.43274882 -0.5021051 0.54709816 -0.30281395 -0.66514987 -0.6419301 0.261865
-0.59923023 0.63224095 0.058594234 0.4426773 -0.11113787 -0.50149924 -0.4543772 -0.5054966
-0.6063513 -0.08738063 -0.5919067 -0.43038443 -0.14665653 0.3225656 0.27877405 -0.48207417
0.50990564 0.6360752 -0.25345325 0.4743329 0.08772228 -0.35519105 0.55661803 0.6023537
0.57394135 -0.6590954 0.4612293 -0.6475804 -0.021165567 -0.6062406 -0.4889175 0.51564366
-0.5837794 -0.64758563 0.10203978 -0.624968 -0.10694988 -0.5285381 -0.5842869 -0.46123427
0.66284525 0.5009608 0.102963574 0.64197254 0.09520901 0.009925976 -0.55017006 0.30660456
0.2935431 -0.53711987 0.24254662 0.62319803 -0.007839699 0.40934318 0.58649385 -0.46198705
-0.33372685 0.55555344 -0.5897982 -0.50044405 -0.14165018 0.45707634 0.48564407 -0.57976776
00000000: 325d d63e 4692 a43d df6a 1abe 4c47 d3be
00000010: 158f 5a3e 2054 273f b8a5 e43e c17d 223f
00000020: bb97 01bf 5f10 823e dfcd f93e 1adc e93e
00000030: a732 853e 0b01 173f c3bd f03e 65da c53e
00000040: 5279 163f 01bf cf3e a7dc fbbd a3e7 a9be
00000050: 8326 5dbd 222d 0fbf fe74 cdbe d722 c1be
00000060: 5d3c f4be 103d 82be c5bb e63e 84f5 24bf
00000070: d72f 053d 331e 1dbf f181 0c3f 289f 26bf
00000080: c2df 0dbf 7744 29bf 1efd 0b3e 7885 083f
00000090: e3bd 473e 448b e93e 8db1 28bf a7b0 f03e
000000a0: 64c6 0f3f 4191 dd3e f689 00bf a00e 0c3f
000000b0: 6e0a 9bbe 4347 2abf 8855 24bf 2b13 863e
000000c0: 2767 19bf 8bda 213f 8200 703d 99a6 e23e
000000d0: 409c e3bd 4162 00bf 21a4 e8be 3a68 01bf
000000e0: d739 1bbf 9ef4 b2bd 3387 17bf 595b dcbe
000000f0: 212d 16be 5127 a53e 79bb 8e3e 6dd2 f6be
00000100: 2d89 023f d3d5 223f a0c4 81be c3db f23e
00000110: bda7 b33d 9adb b5be 857e 0e3f da33 1a3f
00000120: d2ed 123f 7aba 28bf 3f26 ec3e d4c7 25bf
00000130: 6963 adbc 9532 1bbf 6553 fabe 3901 043f
00000140: 9172 15bf 2cc8 25bf 3bfa d03d e7fd 1fbf
00000150: 8a08 dbbd 464e 07bf d493 15bf e626 ecbe
00000160: 3ab0 293f f83e 003f 91de d23d 5058 243f
00000170: f1fc c23d 90a0 223c f2d7 0cbf 46fb 9c3e
00000180: 484b 963e b080 09bf 245e 783e e889 1f3f
00000190: 1572 00bc 6e95 d13e 7624 163f 9189 ecbe
000001a0: 3fde aabe c038 0e3f 04fd 16bf 1a1d 00bf
000001b0: bf0c 11be e905 ea3e 57a6 f83e a96b 14bf

gcn_layer2.linear.bias f4 [7]
-0.2776024 0.30675924 0.24104439 0.24238576 -0.08521778 0.42069104 -0.029765792
00000000: e721 8ebe 8c0f 9d3e 57d4 763e f933 783e
00000010: a986 aebd d164 d73e 64d7 f3bc
