checkpoints/citeseer/gcn_100.pth (torch, 239071 bytes, 4 tensors)

gcn_layer1.linear.weight f4 [16, 3703]
0.11400531 -0.3098867 -0.021388786 0.08705609 -0.01722341 0.11419605 -0.034580443 3.712554e-05
2.4872203e-05 0.15802608 -0.0014898601 0.13749501 0.06989345 0.22711584 -0.066268824 0.016644955
0.36853415 -0.09346719 -0.07404175 -0.02792756 0.012959003 0.21088643 0.8586731 0.009050647
-0.12541848 0.007560146 -0.06041973 -0.06321075 -0.06221144 0.3606006 -0.012824226 0.03564796
0.15706639 -0.1824368 -0.29414618 -0.2835994 0.24969369 0.18124297 -0.24605101 0.063672036
-0.17201087 -0.059043072 0.0069183717 0.0011855587 0.2861376 -0.0606718 0.16134304 0.04592214
-0.01912813 0.017960306 3.7146976e-05 0.12209859 -0.061126076 0.25345072 -0.117582336 -0.14974993
0.01534413 -0.41313308 0.013588238 -0.12887211 0.0166977 -0.16602558 -1.8427058e-05 0.006977127
-0.008067056 1.0765957 0.033984654 0.113706954 0.004930069 0.00527125 -0.005113879 0.14384604
0.23881434 -0.18093978 -0.055173375 -0.109338365 -0.21828263 0.21056972 0.14963457 -5.6092795e-05
0.015502601 0.020214226 0.2887755 -0.02212419 -0.13082574 0.20685272 -0.041088626 -0.3979999
3.0717838e-05 0.029291125 -0.02336919 -0.07723283 0.11723384 0.084981516 -0.06366019 -0.016041704
-0.04977823 -0.04420745 -0.020950643 2.4439698e-05 5.670793e-05 0.072804675 -0.34963664 0.03858732
-0.044970587 -0.15267828 0.021358727 -0.00028619028 0.0005054058 0.2064515 -0.06989755 0.027361149
0.10397925 0.14229846 -0.3204388 -2.5876374e-05 4.9085553e-05 2.7628612e-06 0.0053541088 0.09088502
0.0030337325 0.0039238376 0.14889213 0.015998567 0.08263419 0.34372374 -3.9491308e-05 0.030819206
0.12960608 -0.10674176 0.072353 0.11562201 -0.05039683 -0.024529165 0.055475786 0.17980903
-0.00078613346 -0.057745047 0.08931755 0.108394384 -0.12732589 0.011657448 -0.2950486 -0.06744646
-3.3815984e-05 7.123488e-06 0.10965817 0.13551195 -0.33052406 0.08828386 0.04070232 0.004192535
6.74495e-05 -1.4702342e-05 0.00027518265 -0.09112928 -0.12987009 7.844756e-06 -0.015165597 0.061060674
0.025063569 -0.029347328 0.08884697 -0.1541904 0.07641632 -0.027764555 -0.30756065 -0.018317759
0.0023584643 -0.43960312 0.06373667 -0.3527113 0.029094404 0.048125714 -0.16403507 -0.25499982
0.0030693924 0.27422783 0.12858507 0.034833696 2.5147212e-05 -2.6592921e-05 -0.082487576 3.7766305e-05
0.103873 0.0065091345 0.19623113 0.034437872 -0.01722854 0.211195 -0.02599726 -3.2284363e-05
-0.10298068 0.04968533 -0.03899742 -0.027236313 0.028620014 0.16759507 -0.010040649 -0.1748388
-0.17643236 -0.11008191 -0.11547218 0.06278454 -0.003613155 0.017920392 0.045350194 -0.005393967
-0.25596422 -0.004365895 0.0136023 0.21749975 -0.20761368 0.1997508 0.09858549 0.28704107
0.13820225 0.101296164 -0.005399585 0.1155121 0.07261234 -0.04727185 0.016190728 -0.09011805
-0.14043044 -0.030957052 0.19021921 0.081432626 0.005247733 -0.11516114 -0.10030854 0.019844593
0.27473158 0.011642599 -0.02558137 0.0038320154 -0.6597832 0.27563694 -0.040180594 0.059236985
-0.1729939 -0.14570454 0.05441784 -0.0011390804 -0.21552214 -0.054779746 -0.060985815 -0.25814456
-0.042504348 0.62148756 0.07249743 -0.047657255 0.0042618513 0.2659407 -0.2569834 -0.0018037255
00000000: 9e7b e93d 78a9 9ebe 8937 afbc 774a b23d
00000010: 1c18 8dbc 9edf e93d 39a4 0dbd 3fb7 1b38
00000020: a6a4 d037 97d1 213e 6947 c3ba 7ecb 0c3e
00000030: 4c24 8f3d 0e91 683e f3b7 87bd 005b 883c
00000040: 82b0 bc3e ba6b bfbd 33a3 97bd 57c8 e4bc
00000050: 0052 543c 9df2 573e 00d2 5b3f 2a49 143c
00000060: b46d 00be 1abb f73b ae7a 77bd a374 81bd
00000070: 6cd1 7ebd a4a0 b83e b41c 52bc 9803 123d
00000080: 03d6 203e b6d0 3abe 549a 96be f133 91be
00000090: b4af 7f3e c297 393e ccf4 7bbe 7c66 823d
000000a0: 9e23 30be 26d7 71bd 82b3 e23b c064 9b3a
000000b0: a180 923e fe82 78bd 1c37 253e db18 3c3d
000000c0: 99b2 9cbc 7e21 933c 43ce 1b38 d30e fa3d
000000d0: 565f 7abd 4bc4 813e 02cf f0bd 0c58 19be
000000e0: f265 7b3c 2e86 d3be 33a1 5e3c 0df7 03be
000000f0: 9dc9 883c 9c02 2abe ce93 9ab7 62a0 e43b
00000100: af2b 04bc e3cd 893f 7e33 0b3d 31df e83d
00000110: 6b8c a13b 73ba ac3b 5492 a7bb 604c 133e
00000120: bf8b 743e 4748 39be 7afd 61bd cbec dfbd
00000130: 7b85 5fbe 979f 573e ce39 193e 2e45 6bb8
00000140: 9ffe 7d3c 4e98 a53c 62da 933e ca3d b5bc
00000150: 2ff7 05be 33d1 533e 8c4c 28bd a5c6 cbbe
00000160: 07d7 0038 f1f3 ef3c be70 bfbc 3f2c 9ebd
00000170: 4c18 f03d ca0a ae3d 4660 82bd e469 83bc
00000180: 42e4 4bbd df12 35bd afa0 abbc da03 cd37
00000190: add9 6d38 9e1a 953d 9303 b3be bd0d 1e3d
000001a0: 1433 38bd b257 1cbe 7ff8 ae3c cf0b 96b9
000001b0: 367d 043a 0668 533e 7226 8fbd 7d24 e03c
000001c0: 13f3 d43d b0b6 113e 8e10 a4be 1711 d9b7
000001d0: 36e1 4d38 9869 3936 8571 af3b ed21 ba3d
000001e0: 96d1 463b 8993 803b 2e77 183e 6d0f 833c
000001f0: 1d3c a93d 8ffc af3e 78a3 25b8 8f78 fc3c
00000200: 75b7 043e 6d9b dabd cf2d 943d 3bcb ec3d
00000210: e86c 4ebd 63f1 c8bc 943a 633d dc1f 383e
00000220: 8614 4eba 1286 6cbd 1fec b63d e0fd dd3d
00000230: b861 02be e1fe 3e3c 9c10 97be 5f21 8abd
00000240: a3d5 0db8 4c06 ef36 7694 e03d a5c3 0a3e
00000250: 733a a9be 2bce b43d 7ab7 263d 8861 893b
00000260: ad73 8d38 14aa 76b7 6446 9039 fda1 babd
00000270: aafc 04be f89c 0337 2079 78bc c21a 7a3d
00000280: 1d52 cd3c cf69 f0bc 66f5 b53d 17e4 1dbe
00000290: 2980 9c3d 7e72 e3bc 9778 9dbe 200f 96bc
000002a0: 7790 1a3b a913 e1be 5f88 823d 9396 b4be
000002b0: 6357 ee3c 781f 453d cff8 27be 568f 82be
000002c0: dc27 493b 9767 8c3e ceab 033e c7ad 0e3d
000002d0: 3af3 d237 dd13 dfb7 3fef a8bd 4367 1e38
000002e0: 5ebb d43d 944a d53b d0f0 483e ba0e 0d3d
000002f0: de22 8dbc 8143 583e 35f8 d4bc 1269 07b8
00000300: 89e7 d2bd d882 4b3d c2bb 1fbd b01e dfbc
00000310: 8574 ea3c 0b9e 2b3e 8981 24bc f108 33be
00000320: afaa 34be a072 e1bd ae7c ecbd 2e95 803d
00000330: afca 6cbb c9cd 923c 20c1 393d e0bf b0bb
00000340: be0d 83be c80f 8fbb 2edc 5e3c 41b8 5e3e
00000350: ae98 54be 798b 4c3e 30e7 c93d 0cf7 923e
00000360: e484 0d3e 5d74 cf3d 00ef b0bb 9c91 ec3d
00000370: c7b5 943d 21a0 41bd 6ba2 843c d08f b8bd
00000380: ffcc 0fbe a599 fdbc d3c8 423e 26c6 a63d
00000390: 2df5 ab3b 9bd9 ebbd 906e cdbd 2191 a23c
000003a0: 9ea9 8c3e 99c0 3e3c 0590 d1bc 8d22 7b3b
000003b0: 8de7 28bf 4920 8d3e 6894 24bd 7ba2 723d
000003c0: 5025 31be 9233 15be 3ee5 5e3d 324d 95ba
000003d0: d6b1 5cbe ba60 60bd 43cc 79bd 862b 84be
000003e0: 0a19 2ebd cf19 1f3f 8879 943d 4134 43bd
000003f0: 00a7 8b3b 6129 883e 5493 83be fc6a ecba

gcn_layer1.linear.bias f4 [16]
0.11564512 -0.0029935925 0.12991595 0.11685479 0.11195611 0.09813771 0.13321473 -0.0378803
0.12425911 0.12487691 0.10704027 0.12407413 0.095323876 0.10972894 0.1111422 0.18199228
00000000: 59d7 ec3d 2630 44bb b008 053e 9051 ef3d
00000010: 3f49 e53d 6cfc c83d 7169 083e 6028 1bbd
00000020: 8f7b fe3d 77bf ff3d ee37 db3d 941a fe3d
00000030: 2a39 c33d 91b9 e03d 869e e33d 2f5c 3a3e

gcn_layer2.linear.weight f4 [6, 16]
-1.2787515 -0.062165845 1.210329 -1.1629052 -0.17411885 1.2744621 -1.3640589 -0.22367153
1.322028 0.9665468 -1.1139302 -1.2435461 0.6299624 -0.6501723 1.2317396 -0.21500213
-1.3001392 -0.13934267 1.2414358 -1.2273519 -1.1058666 -0.2818633 1.15512 -0.04246727
1.0378966 -1.3434638 -1.1735015 1.0385592 -0.82169145 -1.2593894 0.79903173 -1.2577178
1.0836354 -0.041673537 1.3231457 1.1247097 -1.1652352 -1.3751738 1.2095187 -0.25329044
1.2415226 0.89861506 1.1565639 1.2160786 0.41744792 -1.0581021 -1.2546713 -0.7569516
1.1190709 -0.117470205 -1.1391941 1.0896091 1.1763657 1.0255103 1.169651 0.097953655
-1.2846639 1.068894 1.1133665 1.134397 -0.7259734 1.0619875 1.2294753 -1.1564705
1.2299963 -0.15870734 -1.0616128 -1.078812 1.323398 -0.72069025 -1.1056902 0.020421565
-0.9902955 -1.2566556 -1.2730312 -1.2949543 0.7610084 1.2453462 -1.1656944 1.3248411
-1.0264937 0.08181776 -1.0946229 1.3195982 -1.1416795 -1.2775248 -1.288498 0.1136167
-1.3307873 1.2243596 1.2297808 -1.3513283 -0.8755437 -1.2962029 -1.1389593 1.2082139
00000000: 21ae a3bf 9da1 7ebd 10ec 9a3f 14da 94bf
00000010: 364c 32be 9321 a33f 7b99 aebf 260a 65be
00000020: 3738 a93f 9c6f 773f 4495 8ebf 852c 9fbf
00000030: 3745 213f b171 26bf a5a9 9d3f 8529 5cbe
00000040: f66a a6bf d8af 0ebe 5ee7 9e3f de19 9dbf
00000050: 098d 8dbf 6350 90be f9da 933f 29f2 2dbd
00000060: ccd9 843f 9ff6 abbf 4c35 96bf 82ef 843f
00000070: 5f5a 52bf ac33 a1bf 588d 4c3f e6fc a0bf
00000080: 91b4 8a3f dfb1 2abd d75c a93f 7df6 8f3f
00000090: 6d26 95bf b205 b0bf 82d1 9a3f 49af 81be
000000a0: 36ea 9e3f a30b 663f 490a 943f 77a8 9b3f
000000b0: bcbb d53e e46f 87bf 1299 a0bf 94c7 41bf
000000c0: b73d 8f3f 3894 f0bd 1dd1 91bf 5078 8b3f
000000d0: 2793 963f ec43 833f 20b7 953f ed9b c83d
000000e0: de6f a4bf 85d1 883f cb82 8e3f ec33 913f
000000f0: 65d9 39bf 35ef 873f 725f 9d3f 3a07 94bf
00000100: 8570 9d3f 2d84 22be eee2 87bf 8316 8abf
00000110: 1b65 a93f 287f 38bf 4287 8dbf 204b a73c
00000120: 0284 7dbf 17da a0bf b0f2 a2bf 10c1 a5bf
00000130: 72d1 423f 8167 9f3f 7935 95bf 6594 a93f
00000140: 2564 83bf 1290 a73d 9a1c 8cbf 98e8 a83f
00000150: 8e22 92bf ef85 a3bf 81ed a4bf dfaf e83d
00000160: 3d57 aabf d1b7 9c3f 7569 9d3f 53f8 acbf
00000170: a223 60bf fae9 a5bf 6bc9 91bf c1a6 9a3f

gcn_layer2.linear.bias f4 [6]
0.04987556 0.46694928 -0.66942406 -0.88339555 0.36728904 0.5425788
00000000: 514a 4c3d fa13 ef3e 605f 2bbf 3626 62bf
00000010: 4f0d bc3e 72e6 0a3f
