checkpoints/citeseer/gcn_0.pth (torch, 239059 bytes, 4 tensors)

gcn_layer1.linear.weight f4 [16, 3703]
0	0xb9b5e300	-0.00034692138
1	0xbbb810c4	-0.005617233
2	0xbc2af964	-0.010435436
3	0xbbe7c34c	-0.0070728417
4	0xbc2bb58c	-0.010480296
5	0x3bc6d830	0.006068252
6	0x3bb763e8	0.0055966265
7	0xbc70622f	-0.014671846
8	0x3b1539a8	0.0022769962
9	0xbbc9e772	-0.0061616236
10	0x3c818e99	0.015815066
11	0x3ad1a960	0.0015995912
12	0xb9c2d840	-0.00037163682
13	0xbbd58c6e	-0.0065169847
14	0x3babff98	0.005248975
15	0x399af780	0.0002955757
16	0xbc30a35d	-0.010781136
17	0x3bc67268	0.0060561188
18	0xbc7710ac	-0.0150796585
19	0x3c5c0564	0.01342902
20	0x3c57ff06	0.013183361
21	0xbc2fc880	-0.010728955
22	0xbc201fb7	-0.009773186
23	0xbc5f186d	-0.013616663
24	0xbc78afc2	-0.015178623
25	0x3c1577a2	0.009122761
26	0xbc01b89d	-0.00791755
27	0xbc85e87c	-0.016346209
28	0xbc803ef5	-0.01565502
29	0x3c674cca	0.014117429
30	0x3ba8c808	0.0051507987
31	0x3c6ff296	0.014645239
32	0x3c8594d1	0.016306313
33	0x3bd7fb70	0.006591253
34	0xbac67358	-0.0015140576
35	0x3bcd5ff8	0.006267544
36	0xbc1d20f7	-0.009590379
37	0x3b678b40	0.0035330802
38	0x3c5f2c5a	0.013621414
39	0xbc38d5bc	-0.011281427
40	0xbc7a84de	-0.015290467
41	0x3c580c36	0.013186505
42	0x3c3be7de	0.011468856
43	0xbc471d0b	-0.0121529205
44	0xba43ccc0	-0.000746917
45	0xbb1a76b4	-0.0023569288
46	0x3c1e5e76	0.009666076
47	0xbb606ffc	-0.0034246435
48	0xbaf2c8e0	-0.0018523
49	0xbc01ab04	-0.007914308
50	0x3c339f0a	0.010963211
51	0x3ba41d6c	0.00500839
52	0x3a42ac60	0.00074261986
53	0x3b31acc8	0.0027111042
54	0xbbb85742	-0.0056256363
55	0xbc83af60	-0.016074836
56	0xbc23e848	-0.010004111
57	0xbc6c386a	-0.014417747
58	0x39ccc340	0.00039055385
59	0x3c2f7716	0.010709545
60	0x3b9e8fbc	0.004838912
61	0xbc5c8730	-0.013459966
62	0xbb779b14	-0.0037781643
63	0xbbc4deea	-0.0060080187
64	0xbc71ea83	-0.014765385
65	0x3b5be8a8	0.0033555422
66	0x3c4e5a80	0.012594819
67	0x3c3406f2	0.010987984
68	0xbc8341eb	-0.016022643
69	0x3bcac898	0.0061884634
70	0x3b668978	0.0035177153
71	0x3a25df40	0.00063275173
72	0x3bc342f8	0.005958911
73	0xbc479ef0	-0.01218389
74	0xbc823b0b	-0.015897295
75	0x3ac911f0	0.0015340429
76	0x3c275724	0.010213647
77	0x3bfbaddc	0.0076806378
78	0x3bfde2cc	0.0077479836
79	0x3c45b518	0.012067102
80	0xbb5ef3fc	-0.0034019938
81	0xbc8270ed	-0.015922988
82	0x3c82736b	0.015924176
83	0x3c3d2db6	0.011546543
84	0xbc184cc4	-0.009295646
85	0x3ac81450	0.0015264843
86	0x3b83915c	0.004015131
87	0x3bc301e8	0.005951155
88	0xbc82ba59	-0.015957998
89	0xbc33fc36	-0.010985425
90	0x3c33ebfc	0.010981556
91	0x3bc1c668	0.0059135444
92	0x3c03f114	0.008053083
93	0x3c837cc3	0.016050702
94	0x3b9f1f34	0.0048560146
95	0x3a8fab30	0.0010961052
96	0x3c274972	0.010210382
97	0x3c1c2630	0.009530589
98	0xbb15c4f0	-0.002285298
99	0xbb3f58f4	-0.0029197307
100	0xbc43d54c	-0.011952709
101	0xbc61780c	-0.013761532
102	0xbc7dcca2	-0.015490683
103	0xbc0a905a	-0.008457268
104	0x3b5fb1b8	0.0034133028
105	0x3c16517e	0.009174703
106	0xbc2d8ca8	-0.010592617
107	0xbc1fe5ae	-0.00975935
108	0xbb9a0e56	-0.004701416
109	0x3bcbd470	0.006220393
110	0xbb826ea0	-0.0039804727
111	0xbc555b83	-0.013022306
112	0xbc293458	-0.010327421
113	0xbc29e930	-0.010370538
114	0x3c079ba6	0.008276856
115	0x3c15d652	0.009145336
116	0x39731b80	0.0002318453
117	0xbbedde90	-0.0072591975
118	0x3b63b608	0.003474595
119	0x3ba0c8b4	0.004906738
120	0x3a800b70	0.0009769034
121	0xbbbba734	-0.0057267193
122	0xbc42e502	-0.01189542
123	0xbc825a81	-0.015912296
124	0xbc556f89	-0.01302708
125	0xbbb3a142	-0.00548187
126	0x3bfb12ec	0.007662168
127	0x388bce00	6.666407e-05
128	0xbc3f66f1	-0.011682258
129	0xbc0b8e71	-0.008517847
130	0xbbbfe69a	-0.0058563473
131	0xbba42aec	-0.0050099995
132	0x3c80f245	0.015740523
133	0xbbc24dfa	-0.0059297057
134	0xba3d5f40	-0.0007223971
135	0xbbc3d876	-0.005976732
136	0xbc47406c	-0.012161355
137	0xb98fe1c0	-0.00027443282
138	0x3c498968	0.012300827
139	0x3b505ff0	0.0031795464
140	0x3c4bdd1c	0.012442853
141	0xbbd7e6b6	-0.006588782
142	0x3c1bc302	0.009506943
143	0xbb0b12e0	-0.0021220967
144	0x3bcb0a14	0.0061962698
145	0xbb8a0bec	-0.004212847
146	0x3ba6dd9c	0.005092336
147	0x3c54c490	0.012986317
148	0x3bbeead4	0.0058263335
149	0x3bf20294	0.0073855612
150	0x3be90494	0.0071111415
151	0xbc2eeda0	-0.010676771
152	0xbc779477	-0.01511108
153	0xbbea4a04	-0.0071499366
154	0xbc5a0b00	-0.013308287
155	0xba960f70	-0.0011448693
156	0x3bd31bb0	0.0064425096
157	0x3a811330	0.0009847637
158	0xbc771743	-0.01508123
159	0xbc3f1b53	-0.011664229
160	0xbbcf03d0	-0.006317593
161	0x3b217258	0.0024634805
162	0x39e45140	0.00043548085
163	0xbb4c81a0	-0.0031205192
164	0x3bee364c	0.0072696563
165	0xbc21fa1e	-0.009886293
166	0x3c524b9a	0.012835408
167	0xbc37a8be	-0.011209665
168	0x3c61de68	0.013785936
169	0xbbdb5ae2	-0.0066941837
170	0x3c127e22	0.008941205
171	0xbc849235	-0.016182998
172	0x3beb7300	0.00718534
173	0xbc05afb4	-0.008159567
174	0xbc5757e2	-0.0131435115
175	0xbc7e1c18	-0.015509628
176	0x3ba5c6ac	0.005059084
177	0x382d8e00	4.1378662e-05
178	0x3c1a9216	0.009434244
179	0xbc6caaa2	-0.014444979
180	0x3c676b3c	0.014124688
181	0x3bc6a2c0	0.006061882
182	0x3b944544	0.0045248587
183	0xbbfc9fb4	-0.007709468
184	0xbc2bdf38	-0.010490231
185	0x3c109bf0	0.008826241
186	0xbadf6768	-0.0017044367
187	0xbb5eaf98	-0.0033979174
188	0xba5308a0	-0.00080502965
189	0xbc269486	-0.010167247
190	0x39988c40	0.00029096194
191	0xbc0e7a66	-0.008696174
192	0xb8d47c00	-0.000101320446
193	0x3c2ff318	0.01073911
194	0xba4bc480	-0.0007773116
195	0xbb6d77d4	-0.0036234753
196	0xbc50ab1b	-0.012736107
197	0x3c4fce1c	0.012683418
198	0x3c84e1f9	0.016221033
199	0x3c716670	0.014733896
200	0xbac27510	-0.0014835913
201	0xbc1c5973	-0.009542811
202	0xbc7b03bc	-0.015320715
203	0x3bd9e0d0	0.006649114
204	0x3c6a1608	0.014287479
205	0xbc4009cc	-0.011721086
206	0xbc2d4d86	-0.010577565
207	0xbb907fc2	-0.004409761
208	0x3c096b9e	0.008387474
209	0xbae7b168	-0.0017676773
210	0x3bb4b84c	0.005515134
211	0x3be04d50	0.006845154
212	0xba982168	-0.0011606636
213	0xbc321bcc	-0.010870885
214	0x3b30bcb8	0.0026967954
215	0x3b123fe0	0.0022315904
216	0xbbfc59c0	-0.0077011287
217	0x3b806edc	0.0039194655
218	0xbbb64afa	-0.005563137
219	0x3c85a8bd	0.016315812
220	0x3b205308	0.0024463553
221	0xbba42728	-0.0050095506
222	0xbbc67962	-0.0060569504
223	0xbc813f3e	-0.015777227
224	0x3c7a765e	0.01528701
225	0x3addb810	0.0016915817
226	0x3a585dc0	0.0008253716
227	0xbc60f7fd	-0.013731
228	0x3be99034	0.007127786
229	0x3b590888	0.0033116657
230	0xbbd5ef22	-0.006528751
231	0x3a867740	0.0010258928
232	0x3bf05fd0	0.0073356405
233	0x3b833e8c	0.004005259
234	0x3c28863e	0.010285912
235	0x3c2ac46a	0.010422805
236	0xbc388f36	-0.011264613
237	0x3be86d0c	0.0070930775
238	0xbc0200b1	-0.007934735
239	0xba5cd1d0	-0.00084235985
240	0xbb549a6c	-0.0032440675
241	0x3ba282c0	0.0049594343
242	0x3c261d90	0.010138884
243	0xbc052864	-0.008127306
244	0xbb19624c	-0.0023404537
245	0xbc793670	-0.015210733
246	0x3c021586	0.007939702
247	0x3c12e126	0.008964812
248	0x3c4c08b8	0.012453251
249	0x3b84ba9c	0.004050566
250	0xbbbed7c4	-0.005824061
251	0xbc688592	-0.014192002
252	0x3c089d1c	0.008338239
253	0x3c118914	0.00888278
254	0x3c5e7fa4	0.013580237
255	0xbbdb8730	-0.006699465

gcn_layer1.linear.bias f4 [16]
0	0x3bec2b20	0.0072072893
1	0xbb49b494	-0.00307778
2	0x3bef70d4	0.0073071513
3	0x3a051280	0.0005076304
4	0xbb5593f8	-0.0032589417
5	0x3c2b1ef8	0.010444395
6	0x3b2a3938	0.0025974046
7	0xbb6b3ea8	-0.00358955
8	0x3b1daaf8	0.0024058204
9	0x3c2e0ccc	0.010623168
10	0xbc46d09a	-0.012134695
11	0x3bc62f7c	0.006048141
12	0xbc35bdf4	-0.011092652
13	0x3c7bb27e	0.01536238
14	0xbc784d63	-0.015155169
15	0x3ae853f0	0.0017725211

gcn_layer2.linear.weight f4 [6, 16]
0	0xbe4ce4d0	-0.2000916
1	0xbc83d4f0	-0.016092747
2	0x3e371c36	0.17881855
3	0xbd955414	-0.07291427
4	0x3d5d7ba8	0.054073006
5	0x3e5100f6	0.20410523
6	0xbe5a19bc	-0.2129888
7	0xbe75ac4c	-0.23991507
8	0x3e71e24c	0.23621482
9	0x3e75337e	0.23945424
10	0x3cd46ab0	0.025929779
11	0xbcb83d30	-0.022490114
12	0xbd23f428	-0.040027767
13	0xbd8f2654	-0.069897324
14	0x3df0ba74	0.11754313
15	0x3bc86240	0.006115228
16	0xbe5fbbf8	-0.21849048
17	0xbda6d8d8	-0.081468284
18	0x3e5ca836	0.21548542
19	0xbdea7274	-0.114476115
20	0xbc8d14b0	-0.017221779
21	0xbd539808	-0.05165866
22	0x3e0c6634	0.13710862
23	0xbce3df60	-0.027816474
24	0x3e5393e8	0.2066189
25	0xbe1dba54	-0.1540311
26	0xbcd52670	-0.026019305
27	0xbc1fbe00	-0.009749889
28	0xbd9bb2a4	-0.07602432
29	0xbe6177e0	-0.22018385
30	0x3d4279b0	0.04747933
31	0xbe22fd26	-0.15916881
32	0x3de6700c	0.1125184
33	0x3c7c8200	0.015411854
34	0x3e64ab4e	0.22330973
35	0x3e5b44fe	0.21413037
36	0xbe103a5c	-0.14084762
37	0xbe6e80d0	-0.23291326
38	0x3de558b8	0.111985624
39	0xbe0b8932	-0.13626555
40	0x3e2c512a	0.16827837
41	0x3dc2d668	0.09513551
42	0x3e5040ee	0.20337269
43	0x3e1e8bf8	0.15483081
44	0xbd62f1f0	-0.05540651
45	0xbd9c73dc	-0.07639286
46	0xbd9bc1d8	-0.07605332
47	0x3e1d1d22	0.15343145
48	0x3dba8798	0.09107894
49	0xbe3510ae	-0.17682144
50	0x3c6a2820	0.014291793
51	0x3dcc97b8	0.099898756
52	0x3e6cbfe0	0.2312007
53	0x3b9fd940	0.004878193
54	0x3e2cd288	0.16877186
55	0x3e0431b2	0.12909582
56	0xbe4cd592	-0.20003346
57	0x3e2375de	0.15962932
58	0x3dc238c0	0.094834805
59	0x3db14d1c	0.086572856
60	0x3be9b2c0	0.0071319044
61	0x3d93a184	0.07208541
62	0x3e4df4ac	0.20112866
63	0xbde30b14	-0.11086097
64	0x3e00d858	0.12582529
65	0xbdd027ec	-0.101638645
66	0x3c40e7c0	0.0117740035
67	0x3cb7ffb0	0.022460788
68	0x3e788102	0.24267963
69	0xbe019a06	-0.12656412
70	0xbce67880	-0.02813363
71	0x3e0d3022	0.13787892
72	0x3d6871c0	0.056749105
73	0xbe310138	-0.17285621
74	0xbe64f760	-0.22359991
75	0xbe744bf8	-0.23857105
76	0x3cb74f80	0.022376776
77	0x3e12fc7e	0.1435413
78	0xbd8b9cf4	-0.06817046
79	0x3e66f66e	0.22554943
80	0xbdada4bc	-0.08478686
81	0x3e0df246	0.13861951
82	0x3c2d8040	0.010589659
83	0x3e627618	0.22115362
84	0xbd8a26a8	-0.06745654
85	0xbe34d416	-0.1765903
86	0xbe47340c	-0.19453448
87	0xbb912f40	-0.0044306815
88	0xbe7a0542	-0.24416068
89	0x3d0b92d0	0.03407556
90	0x3dbe7ce8	0.09301168
91	0xbe7f8090	-0.24951386
92	0xbe72ead2	-0.2372239
93	0xbe7f7c26	-0.24949703
94	0xbd1aaba8	-0.03776136
95	0x3e15b92c	0.14621419

gcn_layer2.linear.bias f4 [6]
0	0x3e2ed0a2	0.17071775
1	0x3e37c678	0.17946804
2	0xbe1c8c40	-0.15287876
3	0xbe7ed8a4	-0.2488733
4	0xbe1e2984	-0.15445524
5	0xbe75889e	-0.23977897
