checkpoints/citeseer/gcn_20.pth (torch, 239065 bytes, 4 tensors)

gcn_layer1.linear.weight f4 [16, 3703]
000000 d0 aa ab 3d 10 17 14 be 35 d4 09 3a aa fa 9d 3c
       0.08382189 -0.14461923 0.00052577566 0.019284565
000010 a5 15 a0 ba 8b 03 18 3d 36 a8 94 bc d8 d1 a8 3a
       -0.0012213482 0.037112754 -0.018146615 0.0012879921
000020 1e 6d d0 ba 58 21 5a 3d 77 73 44 bb c1 c7 1a 3e
       -0.001590166 0.053254455 -0.002997605 0.15115263
000030 eb 74 d9 3c c0 c9 ff 3d 8e 36 98 bc 36 66 83 ba
       0.026545009 0.12489653 -0.018580701 -0.0010024968
000040 d1 da e1 3d f2 6b 61 bd 02 66 d4 bc 06 c1 50 bc
       0.11028064 -0.055034585 -0.025927547 -0.012741333
000050 ea 66 a1 3b 89 83 93 3d 15 a5 3f 3e 81 8e 23 bc
       0.0049255984 0.07202823 0.18715318 -0.009982706
000060 d0 5e c1 bb b3 ab 97 3c 5a 4b 1d bd 7c 39 87 bc
       -0.005901195 0.01851449 -0.03840194 -0.016506903
000070 12 f7 cc bd 76 0d 8b 3d 64 60 03 3d 7f d1 14 bd
       -0.100080624 0.06789677 0.032074347 -0.036332604
000080 bb 2d 3c 3e 42 0f a7 bd 8c 2a 19 be 9e fa 29 be
       0.1837682 -0.08157207 -0.14957637 -0.16599509
000090 39 58 fc 3d 9e 4e 95 3c ba 24 3f bc 12 69 a6 3b
       0.12321515 0.018225964 -0.011666471 0.0050784433
0000a0 50 ad fa bc c6 aa eb 3b 76 5d 21 bd d4 7d 10 bc
       -0.03060022 0.0071919886 -0.039395772 -0.008819062
0000b0 88 80 37 3d f8 14 05 bd 9d 3d 85 3c a3 68 95 3c
       0.04480031 -0.0324907 0.016264731 0.018238371
0000c0 41 ef 5b bd 30 6a d0 bb 66 33 3b 3b 7b 59 b5 3d
       -0.053694967 -0.006360315 0.0028564571 0.08854958
0000d0 4f c9 ad bc bf cd b1 3d fa bb 99 bd c4 e6 84 bd
       -0.021214155 0.08681821 -0.07506557 -0.064893275
0000e0 30 b8 c2 b8 61 68 30 be 84 a5 7d ba 02 7e 0c bd
       -9.2849485e-05 -0.17227317 -0.0009675848 -0.034299858
0000f0 de 7e 3a 3c 87 1b 13 be 84 8f 8b 39 5d 2f c5 3b
       0.011382787 -0.1436597 0.00026619073 0.006017609
000100 38 8d ab 3b 98 25 4f 3e 42 21 c3 bb 2d 9c 1b 3d
       0.0052353404 0.20229185 -0.0059548924 0.037990738
000110 e2 d7 2a 3c e4 a7 af 3d 65 15 71 bc ad 25 b4 3d
       0.010427447 0.085769445 -0.0147145735 0.087962486
000120 4f 66 92 3d 69 d9 e8 bd 34 64 2b bc bf 27 ca bd
       0.0714842 -0.11369593 -0.010460902 -0.09870862
000130 d3 98 eb bd 51 2f e9 3d ae 6a 62 3d 78 86 0d 3b
       -0.11503758 0.11385978 0.05527752 0.0021595042
000140 06 d2 5d 3c d4 3a 8a 3b 51 20 fa 3d 81 9c ec bc
       0.013538843 0.0042184386 0.12213195 -0.02888322
000150 ca 4a 08 bd e5 e8 9f 3d ce 72 e1 bb 6b fa 13 be
       -0.03327445 0.07808093 -0.006880141 -0.14450996
000160 60 f6 3f 3b 40 9c 1d 3a 23 26 9f bc 20 cd 34 bd
       0.0029291138 0.0006012358 -0.019427365 -0.044140935
000170 08 e8 f0 3c 59 4c 84 3d 94 47 00 bd f7 a7 c6 3c
       0.029407516 0.06459875 -0.031318262 0.024250014
000180 a8 41 c8 bc 4e ba 0f bc 8d 0f b6 bc bc 3f 5b 3a
       -0.02444537 -0.008772446 -0.022224212 0.0008363684
000190 bc 90 14 bb 91 e3 d3 3c b8 bf 33 be 9a a8 0d 3c
       -0.0022669276 0.025865348 -0.17553604 0.008646155
0001a0 64 20 d3 bc 20 3b 09 3c 87 ef 6f 3c 10 9b 09 bc
       -0.025772281 0.008375913 0.01464451 -0.008398786
0001b0 ba 2f 8c 3b b9 c5 cc 3d 5b 8e a9 3d 1e ad 80 3d
       0.0042781504 0.0999865 0.08279105 0.062830195
0001c0 a3 b8 6f 3d fb d4 89 3d 7d 60 dc bd 3f 5c fb 3a
       0.058525693 0.06730076 -0.10760591 0.0019177272
0001d0 8b e3 34 bb c8 d3 98 3a f0 b7 47 bc 5a 78 28 3d
       -0.0027601446 0.0011659795 -0.01218985 0.0411304
0001e0 4a a8 01 3c aa 23 11 3b 4d 49 dd 3c 26 07 a0 bb
       0.007913658 0.0022146502 0.027012492 -0.0048836647
0001f0 a1 84 0d 3d 3a 3e 0f 3e 76 92 07 ba d4 11 21 3c
       0.034550313 0.13988581 -0.00051716657 0.009830911
000200 67 6b f2 3c 38 b4 6e bd 9f 0e bd 3d 40 4f 11 3d
       0.029592229 -0.05827734 0.092313044 0.03547597
000210 6b 9b 83 bc ea 4b 87 bc bd 5f 0a 3c 66 2b bd 3d
       -0.01606532 -0.01651569 0.008445677 0.09236793
000220 fe 6a 17 bc 81 9d 18 bd 87 fa 5c 3d 56 48 63 3d
       -0.0092418175 -0.037259582 0.05394986 0.055488907
000230 05 ad cb bd c8 bd 3f 3d a9 75 5c bd d3 af d4 bc
       -0.0994511 0.04681185 -0.053823147 -0.025962746
000240 44 be f7 ba a4 30 94 39 12 8f 9e 3b f5 1a 76 3d
       -0.0018901308 0.00028265 0.0048388327 0.060084302
000250 b2 b8 15 be 0b 29 35 3d e0 2f e4 3b f4 85 48 3c
       -0.14621237 0.044228595 0.006963715 0.012238968
000260 2b 4c f7 3a c1 bf ac 3a 14 7c 23 bc 1f 55 03 bd
       0.0018867304 0.0013179706 -0.009978313 -0.0320636
000270 17 dd c5 bd 92 cb 2e bb da a2 53 3a 64 57 1e 3d
       -0.0966131 -0.002667163 0.0008073278 0.03865756
000280 f1 5d dc 3c 88 b3 c4 bb 80 4a d2 3b 67 dc 7f bd
       0.026900264 -0.006002847 0.0064175725 -0.06246605
000290 16 a3 e0 3c 9b c7 ea bc 4b eb 0b be 32 9e 5d bb
       0.027421515 -0.028659632 -0.13663976 -0.0033816216
0002a0 97 58 f0 3c 84 12 02 be ca 1f 5f 3d c9 ba 41 be
       0.029339118 -0.12702376 0.054473676 -0.18918909
0002b0 6f cd 27 3d 08 74 15 3c a0 a9 95 bc e5 aa ef bd
       0.0409674 0.009121902 -0.01826936 -0.117025174
0002c0 f1 80 89 3b 8e 5c 81 3d 4c 3d b5 3d 28 50 90 3d
       0.004196279 0.063164815 0.08849582 0.070465386
0002d0 14 bb 05 ba b9 b7 f1 ba 39 26 20 bc 5c fc e3 39
       -0.0005101424 -0.0018441594 -0.009774738 0.00043484836
0002e0 f3 1a b9 3d 16 33 68 3b 44 c7 97 3d 8e c8 8d 3c
       0.09038343 0.003543084 0.07411054 0.017307546
0002f0 d4 f3 b2 bc db bb b0 3d b2 fe cd bc 53 50 a7 ba
       -0.021844782 0.086295806 -0.025145862 -0.0012765027
000300 d2 8e cd bb 4a fc 02 bd 79 75 9e bc 4b 3a 2e bc
       -0.006273129 -0.031978883 -0.019343125 -0.010634015
000310 a8 97 ae ba e7 a4 50 3d 17 30 0b bc 3f 8b 28 bd
       -0.0013320344 0.050938513 -0.008495352 -0.04114842
000320 22 2a 0d be 1e 0d 81 bd 00 f7 5a bc 31 89 ed 3b
       -0.13785604 -0.0630133 -0.013364553 0.0072490205
000330 83 ef ae bc 23 03 b3 3b 2a 82 ac 3d cf ee d6 ba
       -0.021354442 0.0054630204 0.08423264 -0.0016398075
000340 e5 b3 d8 bd 2a fc 5f ba 55 92 43 bd a8 23 4b 3d
       -0.10581187 -0.000854435 -0.047746975 0.04959455
000350 79 23 9e bd 5e 8c cd 3d cc f6 aa 3d 80 a9 02 3e
       -0.077216096 0.100365385 0.08347854 0.12759972
000360 42 81 a1 3b f8 17 a3 3d 2c 62 99 3b a0 2c e6 3d
       0.004928739 0.07963556 0.0046808925 0.1123898
000370 1a 76 53 3d a4 c6 08 bc c4 e4 84 3b 44 8c 5e bd
       0.051626302 -0.008348141 0.0040555913 -0.054332986
000380 79 f3 c8 bd 26 b0 77 3c d2 c0 d1 3d e6 1f a8 3c
       -0.09812064 0.015117681 0.10241856 0.020523023
000390 ba 12 bc 3b 9b c5 82 bc 84 c6 45 bd 56 66 42 3c
       0.005739537 -0.015963366 -0.048285022 0.011865219
0003a0 af 1a 0d 3e bb 77 70 3c 19 07 b7 3b 12 5e 75 3c
       0.1377971 0.0146769835 0.005585563 0.014976041
0003b0 7e 0a ab bd 34 28 c4 3d c6 ee 56 bd 49 73 ff bb
       -0.083516106 0.09577981 -0.052473806 -0.0077957255
0003c0 98 0f ba bd 06 66 6b bd 66 6c 86 3d 80 17 9a b7
       -0.090850055 -0.057470344 0.06563644 -1.8369174e-05
0003d0 2d 8c ad bd 70 89 10 bc 15 6d 13 bd 54 5e aa bd
       -0.08474002 -0.00882183 -0.0359927 -0.08318773
0003e0 68 d5 c7 bc 9b 63 1a 3e 35 e8 94 3d ba 66 1f bc
       -0.024393752 0.15077059 0.072708525 -0.009729082
0003f0 cf e5 bd bb 71 65 03 3e 8f 79 a5 bc 17 e8 8f 3b
       -0.0057952176 0.12831666 -0.020199565 0.004391681

gcn_layer1.linear.bias f4 [16]
000000 61 bc be 3d c4 fa 49 bd 23 42 3c 3d ac 8b 79 3d
       0.09313274 -0.049311414 0.04596151 0.060924217
000010 3a db bd 3d 46 57 82 3d e7 52 75 3d 19 1a 9f bc
       0.0927033 0.06364302 0.059893515 -0.019421624
000020 d8 21 bd 3c 47 fd 89 3d ce 5a 6c 3d e9 10 80 3d
       0.023087427 0.06737762 0.057703786 0.06253225
000030 c6 f4 15 bd 03 40 03 3e 05 b6 5c 3d a0 8d d7 3d
       -0.036610387 0.12817387 0.053884525 0.1052506

gcn_layer2.linear.weight f4 [6, 16]
000000 a1 75 c9 be 8c 66 6d bd b6 7e a4 3e f8 53 8b be
       -0.39347556 -0.057959124 0.32127923 -0.272125
000010 ab 33 60 bd d9 75 b9 3e b3 42 d5 be a1 03 40 be
       -0.054736774 0.36222723 -0.4165245 -0.18751384
000020 79 35 bc 3e 77 c2 8b 3e 54 e6 0c be f6 2a 54 be
       0.36759546 0.27296802 -0.13759738 -0.20719513
000030 78 85 8e b9 a2 11 39 be cc 56 8c 3e f7 e9 08 be
       -0.00027183793 -0.18073133 0.2740997 -0.133705
000040 90 4e d3 be 6a 06 08 be 96 08 b8 3e 23 86 9e be
       -0.41270876 -0.13283697 0.3594405 -0.30961713
000050 d2 5c 45 be 41 6d 21 be d3 79 25 3e 51 be a3 bd
       -0.1927369 -0.15764333 0.16159754 -0.07995284
000060 f4 96 51 3e 9d f7 b5 be 2d 9c 3c be 83 35 99 3c
       0.2046774 -0.35540476 -0.18418951 0.018702274
000070 86 fc fc bd 13 e7 d0 be 6a 64 3a bc e7 59 b6 be
       -0.123528525 -0.40801296 -0.01137648 -0.35615465
000080 1b 87 45 3e 35 c7 10 bd 40 0e d6 3e a2 fa b0 3e
       0.1928982 -0.03534623 0.41807747 0.34566218
000090 2c 5a 9b be aa 73 dd be b9 57 98 3e 1f 94 40 be
       -0.30342233 -0.43252307 0.29754427 -0.18806504
0000a0 73 b7 8c 3e ec 54 6e 3e d5 85 a5 3e 91 ee b4 3e
       0.2748371 0.23274583 0.32328668 0.35338262
0000b0 a9 30 01 bc fe f3 60 be 9b e6 68 be a3 44 c3 3d
       -0.007885137 -0.21968076 -0.22744219 0.09534576
0000c0 23 0c 8a 3e c4 9b fe bd 95 a7 10 be f6 a1 92 3e
       0.26962385 -0.12432054 -0.14126427 0.2863919
0000d0 f0 f7 bf 3e c1 36 48 3e 18 c5 bb 3e cb 8b 9e 3d
       0.3749385 0.19552137 0.36673808 0.07741507
0000e0 a5 b1 8c be ee 0a b7 3e 44 ee 87 3e 5c 9b 91 3e
       -0.27479282 0.35750526 0.2654897 0.28438842
0000f0 d9 d9 23 bd d5 06 7e 3e 24 34 ba 3e 10 b5 65 be
       -0.040002678 0.24807294 0.36367905 -0.22432351
000100 fb 01 a3 3e 7f 0a 1c be 69 57 3d be b4 04 e0 bd
       0.31837448 -0.15238379 -0.18490376 -0.10938397
000110 61 74 df 3e 07 ee 3d be 1d 13 03 be e6 4c b0 3d
       0.43643478 -0.18547831 -0.1280026 0.08608417
000120 6c 4a c7 bd ae a8 ab be 05 df bc be e2 29 d2 be
       -0.09730992 -0.3352713 -0.368889 -0.4104758
000130 b1 f7 8d 3d ba 53 b2 3e 12 45 61 be 60 e3 d6 3e
       0.06932009 0.34829503 -0.21999004 0.41970348
000140 a0 96 a1 bd 49 64 b4 3d bf d6 10 be 26 f8 ca 3e
       -0.078900576 0.088081904 -0.14144419 0.39642447
000150 18 12 56 be 79 a7 bf be 65 cb ba be 41 db 44 3d
       -0.2090534 -0.3743246 -0.36483303 0.04806066
000160 32 11 b3 be 7e 82 57 3e a2 19 6f 3e ec 65 da be
       -0.34974056 0.21045873 0.23349622 -0.42655885
000170 5e 13 5a be 49 63 c6 be 73 aa 3e be 64 dc a4 3e
       -0.2129645 -0.38747624 -0.18619709 0.32199395

gcn_layer2.linear.bias f4 [6]
000000 15 ee 4a 3c ee 4f 63 3d 0c 4e ad bd 13 6e 05 be
       0.012385865 0.05549615 -0.08462152 -0.13030271
000010 95 38 9a bd 9c 9c 49 bd
       -0.075303234 -0.04922162
