checkpoints/citeseer/gcn_180.pth (torch, 239071 bytes, 4 tensors)

gcn_layer1.linear.weight f4 [16, 3703]
000000 a9 5f 4d 3e 90 ed 50 be 44 2f f2 bb e5 11 d1 3d
       0.20056023 -0.20403123 -0.0073908884 0.10208491
000010 f6 42 b1 bc 5b 14 71 3d ee 8f 1a bd f4 79 86 35
       -0.021638375 0.058857303 -0.03773492 1.0019271e-06
000020 a0 76 60 34 00 08 2b 3e b6 cb fa 3b 94 9d b5 3d
       2.0904781e-07 0.1670227 0.007653679 0.08867946
000030 0d c2 75 3d 8a 36 9f 3e 95 7f bf bc 1f cf 45 bc
       0.059999514 0.31096298 -0.023376266 -0.012073307
000040 14 22 6f 3e 41 90 48 bd 1e 07 81 bb 6f 40 79 bd
       0.23352844 -0.048965696 -0.003937616 -0.060852464
000050 98 3b d2 3c fb 36 59 3e e6 8a 85 3f 58 21 53 3d
       0.025663182 0.2121238 1.0433013 0.05154547
000060 2a a6 1a be 84 03 43 bd 2c a8 e8 bd 65 a6 72 bd
       -0.15102449 -0.047610775 -0.11360201 -0.059240717
000070 1c 84 f2 bd a8 d5 8e 3e 3d 86 12 3c f3 5a d9 3c
       -0.11841604 0.27897382 0.008943138 0.026532626
000080 f8 54 43 3e 04 84 63 be 8d 29 43 be 90 a4 9e be
       0.19075382 -0.22218329 -0.19058819 -0.30984926
000090 e2 ca 73 3e 7a 90 f6 3d e8 b1 31 be 67 fc e1 3c
       0.23807862 0.120392755 -0.17353022 0.027586175
0000a0 9a 12 71 be 37 50 38 be d1 e9 13 3c b7 c2 0f ba
       -0.23542252 -0.1799935 0.009027914 -0.0005484032
0000b0 5a 28 d5 3e c4 c7 9c bd 72 87 3f 3e 36 3d e5 3c
       0.41632348 -0.0765529 0.18704012 0.02798329
0000c0 fe 23 be 3c 9c 20 8a bb 84 0a 24 35 3e be 9a 3d
       0.023210522 -0.004215313 6.1110063e-07 0.07555817
0000d0 3c cc f8 bc a1 63 32 3e 1b eb b2 bd 81 aa 23 be
       -0.030370824 0.17420818 -0.08736249 -0.15983011
0000e0 70 79 ab bb a1 1c cd be 89 b7 22 bb b0 8b bd bd
       -0.0052329823 -0.40060905 -0.0024828634 -0.09255159
0000f0 6c c2 30 3c e4 0f 49 be 29 66 da 34 16 c0 52 3b
       0.010788541 -0.19634968 4.0679996e-07 0.003215795
000100 b6 b2 cd bb 6c a3 cd 3f 0f e2 ba 3b b1 13 a4 3d
       -0.0062774075 1.6065497 0.005703218 0.08011568
000110 60 d6 b8 3c 3b 9a c4 3c 88 13 f1 3b b5 a3 1f 3e
       0.02256316 0.023999324 0.0073570646 0.15589793
000120 79 01 11 3e d1 02 04 be dc 39 26 bd fc 68 23 bd
       0.14160718 -0.128917 -0.040582523 -0.039895043
000130 35 90 65 be 17 6c 53 3e 9c 01 d6 3d d0 c4 65 35
       -0.22418292 0.20646702 0.10449526 8.559555e-07
000140 78 72 8d 3c 2b 92 9b 3c 74 41 aa 3e d1 ec 74 bd
       0.017266497 0.018990597 0.33253062 -0.05979616
000150 56 42 27 be 9a ef 46 3e fb 1e 10 bd 0c bd c2 be
       -0.16333899 0.19427338 -0.035185795 -0.38034856
000160 e0 8f 6a b3 c6 5c 79 3c e0 c8 db bb a5 30 cb bd
       -5.4613224e-08 0.015219873 -0.006707296 -0.099213876
000170 d1 b0 18 3e 02 15 9f bb a9 c0 af bd 55 83 37 bd
       0.149112 -0.0048547992 -0.08581669 -0.044802982
000180 bb d6 9f bc 63 9a 5b bd 76 0a b1 3c 60 85 94 b2
       -0.019511571 -0.05361403 0.021611433 -1.729012e-08
000190 54 29 1a b5 41 2b 04 3d 5c 06 5e be 12 17 8a bb
       -5.742961e-07 0.032267813 -0.21682113 -0.004214176
0001a0 c3 23 55 bd f1 0c ab bd d0 59 28 3d 1c 91 8b b9
       -0.05203606 -0.08352078 0.041101277 -0.0002662026
0001b0 5d 28 7a 3d 41 c9 50 3e 7c 1e 70 be 42 f3 0a bc
       0.06107365 0.20389272 -0.23449129 -0.008480849
0001c0 a3 58 ce 3d e1 ca c8 3d a5 a2 c7 be 5f 94 3d b5
       0.100755 0.09804321 -0.38991275 -7.0623895e-07
0001d0 34 13 c8 34 cd 16 d5 34 06 35 0e bc e9 3a fd 3d
       3.7266875e-07 3.9690931e-07 -0.008679634 0.12364752
0001e0 e2 46 e3 ba f9 90 8a bd 02 1a c2 3d cd 9e a6 3c
       -0.001733985 -0.067659326 0.09477617 0.020339394
0001f0 13 c9 e1 3d c8 18 dd 3e 78 61 0b 35 f7 4d e3 3d
       0.1102468 0.4318297 5.192337e-07 0.11098855
000200 e3 c9 2f 3e 10 cb 15 bb 65 1c f3 3d 52 11 d2 bc
       0.17166857 -0.002285663 0.1187065 -0.025643025
000210 e2 95 c7 bd e3 a0 fa bd cb bb 57 3d 1c e6 38 3e
       -0.09745385 -0.12237718 0.052669328 0.1805653
000220 5b 1c c4 b8 4b 93 b7 bd 0f 47 1e 3e 7c 89 fb 3d
       -9.35129e-05 -0.08963641 0.15456794 0.122820824
000230 6a c5 58 be 70 10 25 3d 04 02 a8 be e9 93 35 bd
       -0.21169057 0.04029888 -0.32814038 -0.04433051
000240 a6 4c 41 34 a8 3e 13 34 c1 d6 45 3d dc a2 dd 3d
       1.800241e-07 1.3713236e-07 0.04830051 0.108220786
000250 02 75 67 be 95 61 2a 3d 88 0f 8e 3c bb cc eb 3b
       -0.22603229 0.041596968 0.01734139 0.0071960366
000260 dc 2d c9 b4 38 68 2e b4 8a d0 27 bd f7 08 cc bd
       -3.7472535e-07 -1.6242927e-07 -0.040970363 -0.099626474
000270 02 0b 3e be a0 2d 36 b3 45 bb 93 bd 02 32 0b 3d
       -0.18558887 -4.2416673e-08 -0.07213453 0.033983238
000280 f9 c8 39 3d 66 34 fe 3a b8 94 d3 3d 6a 7f 2d be
       0.045357678 0.0019394278 0.103311 -0.16943136
000290 53 92 36 3d 36 ff 17 bd ce a0 75 be 6c 1f 0a bc
       0.04457314 -0.037108622 -0.23987123 -0.008430343
0002a0 eb fb 86 bd 43 b3 e2 be 79 0f fa 3c 87 b5 7d be
       -0.06591018 -0.4427739 0.030524956 -0.24776278
0002b0 db a1 69 3c 80 48 b2 38 04 48 06 be 06 3c 30 be
       0.014259781 8.5012056e-05 -0.1311341 -0.17210397
0002c0 9e 6a 2b 3d bf 78 ad 3e 58 eb 91 3d 81 26 da 3d
       0.041849725 0.33881184 0.071249664 0.10651875
0002d0 00 81 c0 b2 84 a3 e6 b4 63 ac d0 bd 86 55 29 b5
       -2.2410404e-08 -4.2959812e-07 -0.1018913 -6.308186e-07
0002e0 bf 6e 89 3d 22 4f 32 3b 4e 91 57 3e 99 6b 19 3d
       0.06710576 0.0027207811 0.21051523 0.03745613
0002f0 4d ae 82 b9 a7 fe 89 3e 7b 70 06 bd 41 56 1d b5
       -0.00024925396 0.26952097 -0.032822113 -5.8612574e-07
000300 8c 7d a8 bd ae f6 d9 bc c9 ce 3a bd 80 91 7e 3c
       -0.08227071 -0.026606884 -0.045607362 0.01553762
000310 c1 2c 51 3d f8 f4 61 3e d7 d7 ba bc 06 d8 03 be
       0.05106807 0.22066104 -0.022807999 -0.12875375
000320 b8 96 94 bb 02 da e4 bd 96 d4 24 be 1c bd 68 3d
       -0.0045345686 -0.11174394 -0.1609672 0.056820974
000330 96 fd 54 bd ad 1e 17 3b bf 6b 65 3d 48 d3 82 3c
       -0.05199965 0.0023059056 0.056010958 0.015969887
000340 03 ba 63 be c7 21 f0 bd 75 cf 9a bc ba 15 7c 3e
       -0.22238927 -0.117251925 -0.018897751 0.24617663
000350 b8 7b 83 be 81 6e 20 3e a6 b4 cb 3d 79 47 92 3e
       -0.25680327 0.15667154 0.09946565 0.28570154
000360 8e 88 21 3d b8 e3 9d 3d a8 7c 32 3c 12 fb 9f 3d
       0.03943687 0.077094495 0.010893978 0.0781156
000370 5e 21 cf 3c d1 a9 15 bd 07 2e 43 3d 6b b0 69 bd
       0.025284465 -0.036538903 0.047651317 -0.05705301
000380 c9 16 24 be fd f9 63 3c ec a9 89 3e 50 fc 3b 3d
       -0.16024317 0.013914582 0.26887453 0.04589492
000390 67 a6 10 3d 90 87 f9 bd 75 b1 e9 bd 10 5a 94 3c
       0.035314944 -0.121840596 -0.114108 0.018109351
0003a0 6e 33 5c 3e 43 85 e1 3c f1 ab 08 3d 18 1e 63 3c
       0.21503994 0.027529364 0.0333671 0.013862155
0003b0 88 d3 12 bf 3a 34 5a 3e 63 ed a4 bc b5 7b a9 3d
       -0.5735402 0.21308985 -0.020132726 0.08275548
0003c0 a4 90 27 be b3 23 15 be 78 bb 2c 3d f3 70 82 bb
       -0.1636377 -0.145644 0.04217097 -0.0039807498
0003d0 90 45 68 be ad 24 05 be 82 2b 00 bd 74 86 29 be
       -0.22682786 -0.13002272 -0.031291492 -0.16555196
0003e0 fb a1 9a ba b5 21 42 3f 5f 02 c1 3d 10 aa ad bc
       -0.0011797542 0.7583268 0.094242804 -0.021199256
0003f0 e4 7a c1 bc 2d 11 92 3e e1 9d 71 be c8 d7 75 3a
       -0.02361817 0.2852873 -0.23595382 0.0009378162

gcn_layer1.linear.bias f4 [16]
000000 e1 ad d2 3d 9e 10 8c bd b8 0d b4 3d 1c 64 df 3d
       0.10287071 -0.06839107 0.08791679 0.10907766
000010 53 ba dd 3d 20 e6 8b 3d b6 8a d9 3d a0 d3 34 bc
       0.10826554 0.06831002 0.1062216 -0.011036783
000020 cb fa a0 3d d9 e7 bb 3d 9f 3c c1 3d cd 54 eb 3d
       0.07860335 0.09175081 0.09435391 0.11490784
000030 c1 a1 b1 3d 6e 27 b8 3d 5d 99 ac 3d 87 59 18 3e
       0.0867343 0.089918956 0.08427689 0.14877902

gcn_layer2.linear.weight f4 [6, 16]
000000 bb 30 ee bf 09 e8 11 be d8 90 dc 3f cb 02 d9 bf
       -1.8608621 -0.1424867 1.7231703 -1.6953977
000010 96 23 85 3d 9b 17 f1 3f 33 e6 00 c0 fd 14 65 be
       0.06500928 1.8835329 -2.0140502 -0.22371288
000020 66 86 e5 3f 53 94 e1 3f 23 4b dc bf 97 09 00 c0
       1.793164 1.762339 -1.721043 -2.0005853
000030 96 cf dd 3f 8b 7d 87 bf c9 b5 eb 3f db e8 a8 3e
       1.7328975 -1.0585188 1.8414851 0.32990155
000040 67 2a f6 bf 93 5b 07 be 19 d0 e2 3f 25 09 f3 bf
       -1.923169 -0.13218527 1.7719756 -1.8987166
000050 f7 2f e1 bf e9 df 34 bf 47 73 ed 3f a7 c5 2d bd
       -1.7592763 -0.7065416 1.8550805 -0.042424824
000060 75 99 be 3f 5e b7 05 c0 38 1e f5 bf c4 a7 ec 3f
       1.4890581 -2.0893168 -1.9149847 1.8488698
000070 15 67 fe bf af e3 e4 bf 72 54 c5 3f 45 3e e5 bf
       -1.9875208 -1.7881984 1.5416396 -1.7909628
000080 0e e7 ea 3f ac 21 a2 bd 03 eb ed 3f 5f 33 e6 3f
       1.8351762 -0.07916579 1.8587345 1.7984427
000090 2d ae d9 bf b8 66 fe bf 62 b4 d9 3f 8c b7 81 be
       -1.7006279 -1.9875097 1.7008173 -0.25335348
0000a0 c0 fc f8 3f 91 1f 9d 3f 97 9e e4 3f dc 4c d0 3f
       1.9452133 1.2275258 1.7860898 1.6273456
0000b0 9c ac be 3f 06 53 d7 bf 77 45 03 c0 26 57 c1 bf
       1.4896426 -1.6822212 -2.0511148 -1.510472
0000c0 b3 49 d4 3f 9c 26 e5 bd 0e ae de bf cc 19 d5 3f
       1.6584991 -0.11189005 -1.7396867 1.6648498
0000d0 ed e5 e6 3f 76 23 db 3f 02 bc d2 3f d3 a8 c8 3d
       1.8038918 1.7120197 1.6463625 0.09797826
0000e0 cf a4 ec bf 18 d0 b0 3f b9 33 cc 3f 2c 85 d1 3f
       -1.8487796 1.3813505 1.5953285 1.6368766
0000f0 e2 0d eb bf 78 3f d7 3f f3 9f ea 3f 4c 10 d7 bf
       -1.8363612 1.6816244 1.8330063 -1.6801848
000100 99 82 e7 3f a2 c0 be bd de 9b c6 bf e6 8d d8 bf
       1.808673 -0.093140855 -1.5516317 -1.6918304
000110 b2 6d eb 3f 94 4b bd bf 40 27 d2 bf c0 c5 a6 3c
       1.8392851 -1.478869 -1.6418228 0.020357966
000120 44 12 d6 bf 06 24 eb bf 5a 1c e8 bf 17 f6 e2 bf
       -1.6724324 -1.8370368 -1.8133652 -1.7731351
000130 8c 62 e1 3f 3f ce e3 3f 9d 96 e6 bf 02 94 de 3f
       1.7608199 1.7797316 -1.8014714 1.7388918
000140 aa f7 e5 bf be 5c 82 3d 26 cc da bf 9e 6f e5 3f
       -1.7966206 0.063653454 -1.7093551 1.7924688
000150 c7 0c e4 bf 2f 29 e5 bf 97 e7 f1 bf 46 d1 e8 3d
       -1.7816399 -1.7903193 -1.8898801 0.11368041
000160 84 92 f5 bf b9 24 ef 3f 4c 6e eb 3f 08 79 f9 bf
       -1.9185338 1.8683082 1.8393035 -1.9490061
000170 82 af ff bf f9 dd ee bf 69 15 e1 bf 70 c8 e7 3f
       -1.9975436 -1.8661491 -1.7584659 1.8108044

gcn_layer2.linear.bias f4 [6]
000000 d0 d6 a8 bd 5d 9f 46 3f a7 09 56 bf fc 2b 9a bf
       -0.08244097 0.7758692 -0.8360848 -1.2044673
000010 2d ec c6 3e 27 0e 66 3f
       0.38852063 0.89865345
