checkpoints/citeseer/gcn_60.pth (torch, 239065 bytes, 4 tensors)

gcn_layer1.linear.weight f4 [16, 3703]
0.044160426 -0.34968862 -0.0007053993 0.0672757 -0.002939814 0.043074783 -0.0059360554 -0.0003856928
0.00029786557 0.11756694 -4.991045e-05 0.11970973 0.06540628 0.20400189 -0.025418017 -0.0038307074
0.29312965 -0.029043203 -0.105062045 -0.05148066 -0.013449681 0.19088927 0.5681319 -0.0043244353
-0.044305157 -0.016378108 -0.050560426 -0.07850157 -0.11016167 0.1357747 0.048537787 -0.0019750257
0.1870563 -0.1731846 -0.24412169 -0.35589334 0.2776057 0.1343352 -0.24412756 0.03689273
-0.15696698 -0.098580495 -0.029106354 0.009137963 0.22305954 -0.10664475 0.16942742 0.03537665
-0.02830489 -0.027240407 -0.0003572771 0.08865695 -0.066041656 0.17267218 -0.15160818 -0.14428866
0.025041226 -0.26500022 0.008448995 -0.08321433 0.023119545 -0.19428271 0.0002431 0.013519608
0.0060738493 0.6488799 0.01226762 0.08438694 0.017821789 0.012442199 -0.010882572 0.1507474
0.114754386 -0.23736349 -0.0579903 -0.20776603 -0.24644035 0.22553788 0.1332153 -0.00024942547
0.036462195 0.028256757 0.21250978 -0.06720418 -0.15184581 0.05845001 -0.006335627 -0.32097608
0.0002045446 0.008663649 -0.036489073 -0.09711459 0.0697223 0.1665193 -0.073848814 0.019702736
-0.02744744 -0.036450174 0.012030029 -3.246659e-05 0.00029615505 0.04571266 -0.3610858 -0.0018171319
-0.064997725 -0.080052845 0.04314589 0.003177701 0.01775807 0.19186175 -0.00093286345 0.10736365
0.11574212 0.09567159 -0.311966 0.00034750116 -0.0002890979 0.00018748001 -0.03924139 0.03169235
-0.000931922 -0.026804965 0.06427689 0.0058956705 0.08478121 0.31871575 -0.0003046487 0.05701967
0.086792246 -0.10110575 0.15444593 -0.054515503 -0.04613225 -0.011775366 0.027364425 0.16321886
0.004918769 -0.032070242 0.050246425 0.11286274 -0.13753766 0.038425755 -0.14756571 -0.06844982
0.00023042894 0.00022294006 0.076094925 0.20308973 -0.20799644 0.064715415 0.0015268782 0.01493542
-0.00021214384 0.000120331475 -0.008594057 -0.08378073 -0.13281028 -0.00036117516 -0.022185862 0.053008065
0.028194204 -0.0356781 0.025953267 -0.13456073 0.062079657 -0.058158565 -0.36200327 0.005303277
0.03411107 -0.28957412 0.052520387 -0.3295809 0.05115837 0.007002175 -0.16100822 -0.20182142
0.0073084384 0.09047524 0.095971785 0.11426439 0.0004937238 0.00017442578 -0.05935839 0.00030226278
0.12664339 0.00093514426 0.12964728 0.039262243 0.00067099044 0.15221035 -0.015541495 -0.00019487317
-0.0856566 -0.043643612 -0.061367083 -0.04452558 -0.0140568055 0.018050762 -0.01019169 -0.12282492
-0.23973073 -0.11206362 -0.04344839 0.04610843 -0.04452493 0.01320958 0.10997033 0.005304827
-0.094965845 0.035101242 -0.050357696 0.14045985 -0.15934609 0.16082378 0.12986638 0.21029624
0.11165885 0.18572657 0.0060247965 0.1291753 0.09945448 -0.014724814 -0.042697538 -0.07216224
-0.19342586 -0.027383063 0.19965282 0.076916866 0.009176032 -0.113523096 -0.087229826 0.05369785
0.30202362 0.025317412 -0.012343161 0.011301799 -0.4694636 0.2290146 -0.056319788 0.028228909
-0.09269013 -0.18241842 0.08858368 -0.026633292 -0.1526484 -0.108934216 -0.058847148 -0.21994153
-0.08428607 0.4497272 0.13218385 -0.015402245 -0.030621072 0.24102531 -0.17164038 0.022304567
00000000: 90e1 343d 630a b3be 8cea 38ba d8c7 893d
00000010: e5a9 40bb 2f6f 303d 3e83 c2bb d036 cab9
00000020: d72a 9c39 f0c6 f03d f056 51b8 602a f53d
00000030: baf3 853d dfe5 503e 7239 d0bc 9b0c 7bbb
00000040: 1715 963e 03ec edbc c52a d7bd 62dd 52bd
00000050: 0d5c 5cbc 7a78 433e 1871 113f feb3 8dbb
00000060: 5379 35bd 622b 86bc 7318 4fbd 6ec5 a0bd
00000070: 719c e1bd 8608 0b3e 8fcf 463d 6f6f 01bb
00000080: b08b 3f3e 4e57 31be 09fb 79be a737 b6be
00000090: 5622 8e3e 2b8f 093e 93fc 79be d51c 173d
000000a0: f4bb 20be 92e4 c9bd 7370 eebc 65b7 153c
000000b0: b869 643e 9068 dabd 627e 2d3e 1be7 103d
000000c0: a8df e7bc 4627 dfbc ec50 bbb9 c691 b53d
000000d0: d940 87bd fad0 303e 2d3f 1bbe 68c0 13be
000000e0: 4223 cd3c 1cae 87be a76d 0a3c 466c aabd
000000f0: 3365 bd3c 0cf2 46be a9e8 7e39 5981 5d3c
00000100: 2407 c73b fe1c 263f 21fe 483c 0fd3 ac3d
00000110: 00ff 913c 5dda 4b3c d14c 32bc 875d 1a3e
00000120: 5904 eb3d 6a0f 73be 3d87 6dbd 9ec0 54be
00000130: dc5a 7cbe 67f3 663e 9769 083e 52c5 82b9
00000140: 6259 153d b77a e73c 2a9c 593e 58a2 89bd
00000150: 787d 1bbe 4769 6f3d 179b cfbb fa56 a4be
00000160: 067b 5639 faf1 0d3c 9175 15bd 04e4 c6bd
00000170: 91ca 8e3d 0984 2a3e 0c3e 97bd a267 a13c
00000180: 74d9 e0bc c74c 15bd 9919 453c bc2c 08b8
00000190: 4245 9b39 333d 3b3d 3de0 b8be d42c eeba
000001a0: 871d 85bd bff2 a3bd bfb9 303d fa40 503b
000001b0: 5f79 913c 6877 443e 688b 74ba 79e1 db3d
000001c0: 340a ed3d 77ef c33d 02ba 9fbe d130 b639
000001d0: 1092 97b9 4896 4439 94bb 20bd d6cf 013d
000001e0: 3a4c 74ba 1696 dbbc 9aa3 833d 7830 c13b
000001f0: c5a1 ad3d b62e a33e 42b9 9fb9 758d 693d
00000200: 22c0 b13d 8810 cfbd 1327 1e3e a64b 5fbd
00000210: 2cf5 3cbd 77ed 40bc 5c2b e03c d822 273e
00000220: a02d a13b 165c 03bd 32cf 4d3d 9524 e73d
00000230: acd6 0cbe 5364 1d3d 771b 17be 6b2f 8cbd
00000240: 4c9f 7139 04c5 6939 a8d7 9b3d c1f6 4f3e
00000250: 05fd 54be 8489 843d 8821 c83a b1b3 743c
00000260: ee72 5eb9 785a fc38 16ce 0cbc 3b95 abbd
00000270: 6bff 07be 1c5c bdb9 20bf b5bc fc1e 593d
00000280: 88f7 e63c 3323 12bd f29b d43c 4aca 09be
00000290: 3d47 7e3d ad37 6ebd 7e58 b9be 1dc7 ad3b
000002a0: 0db8 0b3d 0f43 94be 9e1f 573d d4be a8be
000002b0: 708b 513d 8072 e53b 57df 24be 46aa 4ebe
000002c0: a07b ef3b 154b b93d db8c c43d 7303 ea3d
000002d0: 3e6d 013a 10e6 3639 c821 73bd 0679 9e39
000002e0: ceae 013e 7824 753a 42c2 043e 72d1 203d
000002f0: 68e5 2f3a 08dd 1b3e c1a1 7ebc de56 4cb9
00000300: ba6c afbd a5c3 32bd 0d5c 7bbd 7460 36bd
00000310: 844e 66bc 31df 933c 0cfb 26bc a28b fbbd
00000320: f97b 75be 9c81 e5bd f0f6 31bd 31dc 3c3d
00000330: c65f 36bd ff6c 583c 2038 e13d 1dd4 ad3b
00000340: 747d c2bd 52c6 0f3d df43 4ebd b5d4 0f3e
00000350: 9f2b 23be fdae 243e b1fb 043e e657 573e
00000360: 65ad e43d 1b2f 3e3e a86b c53b 8846 043e
00000370: caae cb3d 5940 71bc 9de3 2ebd ccc9 93bd
00000380: 6e11 46be 7252 e0bc ca71 4c3e 9786 9d3d
00000390: 1157 163c cc7e e8bd 8da5 b2bd 47f2 5b3d
000003a0: d7a2 9a3e 7666 cf3c f83a 4abc 2e2b 393c
000003b0: 885d f0be ce82 6a3e 94af 66bd 5040 e73c
000003c0: 53d4 bdbd e5cb 3abe 5c6b b53d 102e dabc
000003d0: dd4f 1cbe e718 dfbd b509 71bd 5a38 61be
000003e0: 2d9e acbd a542 e63e 345b 073e b359 7cbc
000003f0: 0bd9 fabc 57cf 763e 7fc2 2fbe 11b8 b63c

gcn_layer1.linear.bias f4 [16]
0.11506297 -0.021752639 0.12679142 0.09870475 0.11395666 0.11693993 0.108386554 -0.053414207
0.1360009 0.10071933 0.108275674 0.10939455 0.0077057295 0.10842832 0.101639085 0.20046082
00000000: 22a6 eb3d 9732 b2bc 9cd5 013e b725 ca3d
00000010: 1c62 e93d 347e ef3d c5f9 dd3d dbc8 5abd
00000020: d243 0b3e f045 ce3d a3bf dd3d 400a e03d
00000030: 5880 fc3b ab0f de3d 2728 d03d 9a45 4d3e

gcn_layer2.linear.weight f4 [6, 16]
-0.8642764 -0.062091988 0.7934839 -0.7472442 -0.21472397 0.84143305 -0.8965422 -0.22148271
0.8844937 0.55608195 -0.6487126 -0.7019601 0.012625343 -0.42906696 0.7648407 -0.36428282
-0.8815611 -0.13920887 0.85654175 -0.78535867 -0.66176057 -0.17000444 0.6439839 -0.044719234
0.6650944 -0.8515572 -0.6872115 0.4868229 -0.13642606 -0.8457121 0.33058742 -0.8297645
0.60111266 -0.041545093 0.87116724 0.7514398 -0.77579796 -0.9289286 0.7721903 -0.24996331
0.7638578 0.60908425 0.76373196 0.84651846 -0.004379216 -0.64137447 -0.72035336 -0.2836738
0.7222565 -0.117614724 -0.6585335 0.7024873 0.7840246 0.6246213 0.8105242 0.09663519
-0.8054381 0.7745322 0.73737997 0.73033535 -0.05494205 0.6754326 0.82116866 -0.71535534
0.7874977 -0.15857902 -0.6712371 -0.6082675 0.9189795 -0.408059 -0.6368041 0.023774302
-0.56756425 -0.8210106 -0.8487632 -0.89019895 0.083945304 0.81936353 -0.7066023 0.9111566
-0.47670346 0.08194436 -0.6449396 0.8792098 -0.6875701 -0.86888635 -0.85400736 0.11026824
-0.8744028 0.7200411 0.73496675 -0.9225506 -0.20300764 -0.8626303 -0.69436085 0.7859035
00000000: 3841 5dbf 2b54 7ebd c321 4b3f 654b 3fbf
00000010: 9ae0 5bbe 2868 573f ca83 65bf 5dcc 62be
00000020: 2e6e 623f 635b 0e3f 0712 26bf a8b3 33bf
00000030: 87da 4e3c aaae dbbe 9acc 433f 4783 babe
00000040: fdad 61bf c58c 0ebe 5246 5b3f 440d 49bf
00000050: 2469 29bf a515 2ebe 21dc 243f 842b 37bd
00000060: a043 2a3f a7ff 59bf 18ed 2fbf da40 f93e
00000070: 46b3 0bbe 9780 58bf c142 a93e 726b 54bf
00000080: 85e2 193f 302b 2abd d104 5f3f 5c5e 403f
00000090: b29a 46bf 44ce 6dbf 43ae 453f 62f6 7fbe
000000a0: 2f8c 433f f2ec 1b3f f083 433f 6fb5 583f
000000b0: 877f 8fbb 1e31 24bf 1469 38bf b13d 91be
000000c0: cde5 383f fddf f0bd a795 28bf 35d6 333f
000000d0: d6b5 483f 2ee7 1f3f 847e 4f3f ace8 c53d
000000e0: 3131 4ebf be47 463f efc4 3c3f 42f7 3a3f
000000f0: ea0a 61bd 27e9 2c3f 1c38 523f 8721 37bf
00000100: 7399 493f 8a62 22be 32d6 2bbf 6bb7 1bbf
00000110: 3e42 6b3f 1ced d0be 9805 23bf 53c2 c23c
00000120: e44b 11bf c02d 52bf 8c48 59bf 14e4 63bf
00000130: 84eb ab3d cfc1 513f e3e3 34bf 8f41 693f
00000140: 7a12 f4be 72d2 a73d c31a 25bf e513 613f
00000150: 9804 30bf 566f 5ebf 3aa0 5abf 51d4 e13d
00000160: ddd8 5fbf 9d54 383f c826 3c3f 472c 6cbf
00000170: 3ce1 4fbe 57d5 5cbf a2c1 31bf f930 493f

gcn_layer2.linear.bias f4 [6]
-0.0002515323 0.24543443 -0.3976096 -0.5119418 0.15292078 0.24511106
00000000: 18e0 83b9 2a53 7b3e 7c93 cbbe 9e0e 03bf
00000010: 4497 1c3e 65fe 7a3e
