checkpoints/citeseer/gcn_120.pth (torch, 239071 bytes, 4 tensors)

gcn_layer1.linear.weight f4 [16, 3703]
00000000: af86 0d3e f95d 8bbe 68d4 07bc dfae e23d
00000010: 8318 a0bd 5752 dd3d 2c8e 06bd c031 ac36
00000020: ea9a 6737 4369 0b3e e8d9 3d39 a7b7 a33d
00000030: 513d 833d 127a 843e 523b b9bd 6a5a b13c
00000040: 8361 a23e 1ad4 d5bc 27fd 88bc 3c5a acbd
00000050: 9bb7 813c 9a09 563e dc07 703f d427 2e3d
00000060: ac35 56be b7b4 fabc 46a3 9cbd e5d2 4dbd
00000070: f83c aabd bedd 993e ccee 6dbd 52ab 383c
00000080: 8c7e d43d effe 43be c6a8 96be 05b4 8ebe
00000090: a0ba 563e 6675 273e 621d 3bbe 1828 233d
000000a0: a64d 5dbe 08b6 20be 713b e63c d0c2 213c
000000b0: 043f ab3e d749 35bd a86b 0c3e e18d c93c
000000c0: 4e26 853a d2a2 76bc ece4 7c36 675a 033e
000000d0: ffeb 24bd c3b0 873e a3f6 23be a5c6 1bbe
000000e0: ae25 4cbb 1b84 d9be 6cf9 a33c 97f7 dbbd
000000f0: 6a6d b53c 0616 1bbe 8057 c9b3 1d04 4f3b
00000100: 6b52 2bbc 3687 9d3f 7e34 28bc 0842 243e
00000110: b072 423c 3ed6 18bd 93db f9bb 0958 403e
00000120: d962 793e ff31 1abe 997c 3bbd c29e c9bc
00000130: 3ed8 8bbe 2d69 a13e 0ed0 193e 0cdf 8cb6
00000140: 0741 503d dadd 093d a213 a83e 2989 4bbd
00000150: b2b2 f3bd 4e1a 583e 4718 8abb 6140 f5be
00000160: c7e9 0237 f220 103b e2e9 73bd 7882 b7bd
00000170: 9d71 fa3d 6a05 d13d 6437 cebd 06ed 77bd
00000180: 4c32 76bd 3230 6ebd bd8a f13c 0b9d 3b37
00000190: 8c2e 0fb6 d004 443d 6e6f 95be aba1 f73c
000001a0: f403 c5bd e434 79bd 92e7 cf3c 324a a93b
000001b0: 8a24 033d 8072 7b3e da2a 34be d68c 113d
000001c0: 2f56 203e ceba 233e 48cf b4be 48ca e036
000001d0: 379c 8cb7 88d5 6337 a34d f5bc ecb4 8f3d
000001e0: 59f0 9bbb 08e8 8cbd 75c3 8a3d 8b39 d93c
000001f0: 78ae 0d3d 73b7 e03e ee15 9e36 a230 d03d
00000200: 038b 133e 2c2b efbd 77bd d03d c682 bf3d
00000210: 92eb 8bbd b7f4 48bd b2f0 993d cb26 093e
00000220: a440 9b3c bb54 80bd fca2 1a3d 77b6 c53d
00000230: 7e93 20be 1f28 f4ba 0e59 97be 8669 4bbd
00000240: 6855 49b7 effb 2537 bd93 8e3d eba1 1a3e
00000250: be72 a5be 6cbe a63d 3624 253c f1f7 343c
00000260: d77b bd37 683d 2837 a791 71bc db2d e0bd
00000270: 8222 f0bd dabe cc36 3c6d 09bd df6e 073d
00000280: d986 113d 0bd5 0abc 2df6 b23d d1ce ebbd
00000290: 0a3a 8d3d 31cc 8dbb 5045 9fbe c404 b3bc
000002a0: 56d5 9f3a bb6f e7be 4cdc 3c3d c671 b6be
000002b0: c7eb 0c3d ad93 c2bb 7e2e 0fbe abf1 5cbe
000002c0: 362a 123d 8f77 753e 5cbd a23d cdaf 983d
000002d0: 7e65 a437 6694 25b7 fc59 9dbd 70e5 01b7
000002e0: be39 df3d f196 6c3c 52b2 113e 142e b73c
000002f0: 9e8b 743c bd6c 6f3e e42a 13bd 1554 8137
00000300: ca02 cdbd 7f86 813c eb61 87bd 7321 51bc
00000310: 5e84 363d f774 1b3e 06e7 fabb dfd9 5bbd
00000320: 2414 e2bd 1fd1 2ebe 0118 cdbd 1b4e 843d
00000330: 16ab 54bd 8a00 3f3c 16b0 563d a0d4 3bbb
00000340: 8508 6fbe 4096 81bc d2cc 6abd 9d2b 933e
00000350: aef3 7abe d169 073e 2443 183e 9530 8a3e
00000360: ef36 3e3e d9df bd3d acde e63b 10bd 883c
00000370: 90f2 413d a59f 2ebd 311d 2f3c 28e7 ddbd
00000380: 21c8 f4bd 5610 acbb d42a 803e ee7f 753d
00000390: 2d01 b73c ec78 17be 5ec9 c7bd 61b2 083d
000003a0: 3646 873e e0a1 893d 6782 05bd 8e65 f0bb
000003b0: 1ded 29bf 6c7b 943e 1468 2cbd e4cc a03d
000003c0: fd88 25be 18ae 33be 7da7 8d3d cde7 6ebb
000003d0: e6dc 41be b269 83bc 11aa 1fbd 3573 5dbe
000003e0: 93b7 a3bd a00a 2c3f e511 703d 87c8 6bbd
000003f0: 81b7 1cbc 5321 863e a40c 92be 2881 33ba
0.13820909 -0.27220133 -0.008290388 0.1106851 -0.07817175 0.10806721 -0.03285043 5.131791e-06
1.3804742e-05 0.13614373 0.00018105621 0.07994013 0.064081796 0.25874382 -0.090445176 0.021649558
0.3171502 -0.026102114 -0.016722275 -0.08415648 0.01583462 0.209021 0.9376199 0.04251845
-0.20918912 -0.03060375 -0.076483294 -0.050249953 -0.0831241 0.30051988 -0.058089063 0.011271315
0.103756994 -0.19140218 -0.2942564 -0.2787172 0.2096963 0.16353378 -0.18272927 0.03983316
-0.21611652 -0.1569444 0.028104516 0.009873107 0.33446515 -0.044259872 0.13712943 0.024603786
0.001015851 -0.015053468 3.7684176e-06 0.12827455 -0.040264126 0.26502046 -0.16012053 -0.15212496
-0.0031150389 -0.424836 0.020016395 -0.107405834 0.0221469 -0.1514512 -9.375708e-08 0.0031588145
-0.010456662 1.2306888 -0.010266421 0.16040814 0.011868164 -0.037313692 -0.0076250522 0.18783583
0.24354114 -0.15058134 -0.045773122 -0.024611834 -0.27313417 0.31525555 0.15020773 -4.198291e-06
0.050843265 0.03365884 0.3282748 -0.049691353 -0.11899318 0.21103784 -0.00421432 -0.4790068
7.803034e-06 0.0021992293 -0.05954922 -0.08960432 0.12228701 0.10206111 -0.10069159 -0.060528778
-0.06010656 -0.05815143 0.0294851 1.1182633e-05 -2.1335754e-06 0.047856152 -0.29186577 0.030228456
-0.096198946 -0.060841456 0.025378976 0.0051663155 0.03201727 0.24555397 -0.17594472 0.035534702
0.15657876 0.15989229 -0.35314393 6.699269e-06 -1.6762044e-05 1.3579971e-05 -0.029944247 0.0701693
-0.0047588763 -0.06880194 0.06775562 0.026516696 0.034590214 0.4388996 4.71132e-06 0.10165526
0.14408498 -0.11678156 0.101923876 0.09351115 -0.06832041 -0.049061503 0.07516612 0.13393705
0.018951721 -0.06266161 0.03775309 0.09653943 -0.15681264 -0.001862768 -0.2956013 -0.049661182
-1.2000419e-05 9.893424e-06 0.069617726 0.1510083 -0.32314104 0.08141789 0.010079434 0.011045442
2.2588223e-05 1.0027878e-05 -0.014744199 -0.10946246 -0.11725332 6.101892e-06 -0.03355144 0.03306472
0.03552899 -0.008473645 0.087383606 -0.115140565 0.06895836 -0.00432732 -0.3110757 -0.021852858
0.0012194316 -0.4520243 0.04610853 -0.35633677 0.034404542 -0.0059380145 -0.13982579 -0.21576564
0.035684787 0.23971389 0.07946274 0.07455406 1.9597584e-05 -9.869318e-06 -0.07683179 -7.742419e-06
0.10899685 0.014440284 0.1422818 0.022360839 0.014925865 0.23381324 -0.035929576 1.5417152e-05
-0.100102976 0.015811203 -0.06610473 -0.012764323 0.04455983 0.15181337 -0.0076569347 -0.053674575
-0.11038998 -0.17071961 -0.10014344 0.0646021 -0.051920973 0.011657843 0.052414022 -0.002866067
-0.23343094 -0.015818715 -0.057324238 0.28744212 -0.24507019 0.1322396 0.14869362 0.2699019
0.18575643 0.09271211 0.0070455875 0.016691715 0.047350466 -0.042632718 0.010688112 -0.10835105
-0.11952234 -0.005250971 0.25032675 0.059936456 0.022339428 -0.14792222 -0.097552046 0.03337324
0.26420754 0.06720328 -0.032595064 -0.007336325 -0.6637743 0.29000413 -0.042091444 0.0785158
-0.16165538 -0.1754688 0.069167115 -0.0036454082 -0.18931922 -0.01604161 -0.038980547 -0.21625979
-0.079939984 0.6720371 0.058610816 -0.057564285 -0.009565235 0.261973 -0.2852527 -0.0006847554

gcn_layer1.linear.bias f4 [16]
00000000: 561d 013e 2df2 ebb9 9146 d63d c504 e73d
00000010: 5c2c cb3d 7c49 c73d 329b 033e dba3 eebc
00000020: ff93 f53d 2019 013e 514a ef3d 034f fe3d
00000030: 1349 bb3d 875d db3d 492a e93d 1663 313e
0.12608847 -0.00045003128 0.10462678 0.112802066 0.0992057 0.09730813 0.12852171 -0.029130867
0.11991119 0.1260724 0.116840966 0.12417414 0.09144797 0.10711198 0.113850184 0.17322955

gcn_layer2.linear.weight f4 [6, 16]
00000000: b075 b8bf c1a2 7ebd 7ae4 b13f af18 a9bf
00000010: 9696 ffbd 9cb2 b93f 0a68 c8bf 9013 65be
00000020: de3f ba3f 229b 983f 0b4a a6bf c31a bdbf
00000030: b518 763f 22de 3bbf 8fef b33f 5814 9fbd
00000040: 3367 bdbf 69b0 0ebe 7f5a b23f 7413 b4bf
00000050: 15d6 a5bf 21be b8be 14e7 b03f 85cb 2dbd
00000060: 55b1 983f c9ed c7bf 49c1 b0bf 71c1 a53f
00000070: 3509 95bf 361e b6bf ea44 843f 4654 b6bf
00000080: 765c a63f 05b4 2abd 13cc bd3f 42b5 a63f
00000090: 0f77 aabf 614e c7bf d956 ae3f 77b6 81be
000000a0: 1029 b93f 59a8 7e3f ba94 ac3f c689 ad3f
000000b0: 5752 383f df6e 9fbf e42a bebf 9737 76bf
000000c0: fcdb a13f f992 f0bd 2ee7 a9bf 024e 9f3f
000000d0: 86a5 ad3f 94f5 9a3f de74 a83f 25a7 c83d
000000e0: ba9d babf 471d 943f 7005 a03f dd0a a43f
000000f0: 04cf 88bf 6ca5 9d3f 56db b13f 9501 a9bf
00000100: 92a4 b43f b684 22be 4a3a 9bbf 6de3 a1bf
00000110: 650a be3f 4142 6abf 7ef9 a3bf 63d7 a63c
00000120: d377 96bf 2442 b7bf 7df1 b7bf 18bd b9bf
00000130: 8ae5 873f d213 b43f 2047 abbf fe0c ba3f
00000140: 1248 a1bf 048f a73d 6cb2 a3bf c0b1 bc3f
00000150: b208 aabf 8a3b b7bf 7442 bcbf d9cc e83d
00000160: 098c c0bf 067d b73f e0d7 b43f 2409 c4bf
00000170: e8e4 9abf f4eb babf 00a8 a8bf 4b68 b23f
-1.4410915 -0.062166933 1.389785 -1.3210658 -0.12479894 1.4507632 -1.565675 -0.22370744
1.4550741 1.1922343 -1.2991346 -1.4773792 0.9613145 -0.7338582 1.4057482 -0.07767552
-1.4797119 -0.13934483 1.3933867 -1.4068437 -1.2955958 -0.36082557 1.382052 -0.04243042
1.1929117 -1.5619441 -1.3808986 1.2949659 -1.1643435 -1.422797 1.0333531 -1.4244468
1.2996967 -0.041675586 1.4827904 1.3024065 -1.3317584 -1.5570794 1.3620254 -0.25334522
1.4465656 0.9947563 1.3482888 1.355767 0.7200064 -1.245571 -1.4856839 -0.96178573
1.2645259 -0.11746783 -1.3273675 1.2445681 1.3566139 1.2106194 1.3160665 0.09797505
-1.4579384 1.1571435 1.2501659 1.2815815 -1.0688176 1.2316108 1.3895061 -1.3203608
1.4112723 -0.15870938 -1.2127163 -1.264753 1.4846922 -0.91507345 -1.2810514 0.020366376
-1.1755317 -1.431706 -1.4370571 -1.4510832 1.0616925 1.4068549 -1.3381081 1.4535215
-1.2600119 0.08181575 -1.2788825 1.4741745 -1.3283904 -1.4315045 -1.470778 0.113671966
-1.5042735 1.4335029 1.412838 -1.531529 -1.2101107 -1.4603257 -1.317627 1.3938078

gcn_layer2.linear.bias f4 [6]
00000000: 8e7f 293d f490 153f 9fc0 43bf e586 81bf
00000010: 8cb6 c53e 1f8f 2a3f
0.04138141 0.58424306 -0.7646579 -1.0119292 0.38615835 0.66624635
