checkpoints/citeseer/gcn_140.pth (torch, 239071 bytes, 4 tensors)

gcn_layer1.linear.weight f4 [16, 3703]
00000000: 2493 323e ada7 8cbe fa48 2bbc 931e 7c3d
00000010: 338a 23bc 3114 7c3d dd1d febc e587 c7b6
00000020: 7eb4 9536 3540 d03d 8035 ad3b 316f 8d3d
00000030: a4fd af3d 216e 883e 679f a3bd 2357 c2bb
00000040: d3c3 a23e 39b1 7ebd fc04 a03d ef29 71bd
00000050: 4f2e 943c bfb7 833e 4811 7d3f 807e 7f3c
00000060: 263e 26be 45ef 26bd c983 46bd e588 0cbc
00000070: 4f3c b9bd c186 933e 94c5 94bc be1e 5f3c
00000080: 6866 cb3d 143c 4fbe 6435 b1be 28ac 85be
00000090: f5fe 373e a880 c23d 21e0 2ebe d3a5 763d
000000a0: b2d0 66be b068 50be 1642 3ebd 78ef 183c
000000b0: 5ef4 b03e 8da5 21bd 95a5 1d3e 5625 6f3d
000000c0: 5703 fc3c 500e 733a 59c0 52b6 1453 7f3d
000000d0: 0e1e 91bc 914b 6c3e a32c ebbd 2e3b 2ebe
000000e0: 2bcd bf3c 98d9 b6be 2bd3 f03c a829 02be
000000f0: 5663 4d3c 0ea6 1cbe bd30 8a36 d321 b33c
00000100: 73ad 08bb 00aa ae3f 955e 0c3d d2b8 033e
00000110: 8a89 2b3c ea1b 8bbd e2ec e0bb 63b2 063e
00000120: 75ba 463e 7f09 efbd 1dbd a33a 7dfa b8bb
00000130: 8e11 67be 4e83 923e ec95 203e 1fc3 dc36
00000140: 4ebc aabb ef1b 853c 538c cc3e 3283 2ebd
00000150: 8127 84bd c923 223e 4dcd 6cbd 243a fdbe
00000160: fa85 d536 aad7 bc3c 3439 97bc e9b2 cabd
00000170: b4cf 183e 4a72 453d 8b96 5dbd 3fe3 c0bd
00000180: 6b03 a2bd fd14 2fbd c39d 503d 1152 0936
00000190: 120f a5b6 b8c4 b83c 6e09 a6be 4fdf 98bc
000001a0: 9096 9dbd 14ff 80bd d197 ba3c 104d c8ba
000001b0: 8e26 ca3c 9a09 863e 8776 5dbe b079 a23c
000001c0: a2a9 f23d 23b1 a43d f4ca d2be f6ec 4236
000001d0: 243d eb35 161a 9b36 3cbe 37bc db0e 543d
000001e0: 5ea0 623c 4050 06bd 0928 fa3d eb0d 943c
000001f0: b1d9 663d 9a95 fa3e f0c2 a336 ad21 9b3d
00000200: 2028 0f3e 39fa 7fbd 11bc 9d3d d977 253d
00000210: 890e 95bd 69d4 c4bd 6fe5 4d3d 8e1d 3c3e
00000220: 4085 283c 8b9a 93bd fbcb 2e3d 1a21 113e
00000230: ba8a 97be bec2 f43c a854 95be 9eb5 bfbd
00000240: d017 78b6 1411 6235 4439 a13d 1cde 063e
00000250: 4acf 81be 22e2 823d ac14 04bc 64ad c43b
00000260: 30a2 4d36 a8ac 9836 4cda 443a a7fe d6bd
00000270: 2254 13be 98a1 cab6 f4f2 4cbd 6acc 533d
00000280: 7dd8 c23c 6d41 bdbc db34 9e3d cfe0 e1bd
00000290: 2569 643d aecd 813c c2ae a0be cb86 40bd
000002a0: 3af5 fc3c c052 f8be 21ae d73b 853e 86be
000002b0: 8782 3c3d 51fb 87bd 4fdc 19be 7113 68be
000002c0: df04 e73b 2efa 903e 6ae1 d03d a3e7 e03d
000002d0: 7af5 e136 100e efb4 8d9d fcbd 45fd acb6
000002e0: 065b 8b3d aa0a bc3b 86b6 f73d da7d 513c
000002f0: 680c 17bd 1e92 6f3e 722e 82bd 3862 3eb6
00000300: 15bf 12bd 0243 b1bd 6458 47bd 7c27 efba
00000310: 1f68 b83d 623a 153e 08db 20bb 8c51 bcbd
00000320: cbc4 89bd 3e5f 10be 4ae7 8cbd 30e0 533d
00000330: 2679 82bc 6934 cc3b b93d 773d 4047 4ebc
00000340: bb2f 3abe 7993 46bd a7bc 63bc 1565 953e
00000350: f8c5 71be 4aa0 203e bfb4 a63d ac16 683e
00000360: ae00 d93d 5168 a83d 5c00 203c 873f 8d3d
00000370: 8dc5 1f3d 4464 f3bc 8530 fcbd f675 18bd
00000380: 6f1c 41be 7437 9a3c 75f2 453e 4c90 4c3d
00000390: a707 ac3c 7b05 2dbe 8390 d1bd c0fa 94b9
000003a0: 4228 8c3e 4705 483d 0bfc e4bc 8263 a2bc
000003b0: 985c 1dbf 848a 7e3e 7013 abbc 7cab 0c3d
000003c0: c444 48be e585 4abe c780 ab3d 9e81 d4bb
000003d0: c21e 3fbe af27 c6bd 77c4 0ebc 4b89 52be
000003e0: 62fa f7bc c591 3d3f 11b9 913c 2be3 cabd
000003f0: 6f1a 9a3b bc0a 8a3e 2f8f 93be 20b0 7a3c
0.17438942 -0.27471676 -0.010454411 0.061552595 -0.00998168 0.061542694 -0.0310201 -5.9464824e-06
4.461558e-06 0.101684965 0.0052859187 0.06905974 0.085933 0.26646522 -0.07989388 -0.0059307977
0.31790027 -0.06218073 0.07813451 -0.05887788 0.018088488 0.25726125 0.98854494 0.015594125
-0.16234645 -0.04075553 -0.048465524 -0.00857756 -0.09044706 0.28813747 -0.018160619 0.013618169
0.09931642 -0.20237762 -0.34611046 -0.26107907 0.17968352 0.094971955 -0.17077686 0.060216736
-0.22540548 -0.20352435 -0.046449743 0.009334438 0.34561437 -0.039464522 0.15395196 0.058385216
0.030763311 0.0009271847 -3.14044e-06 0.06233509 -0.017714527 0.23075701 -0.11483123 -0.17014763
0.023413261 -0.35712886 0.029397568 -0.12711203 0.012535891 -0.1529772 4.1183944e-06 0.021866715
-0.0020855337 1.364563 0.034269888 0.12863472 0.010469804 -0.067924336 -0.006864176 0.13153987
0.19407065 -0.11671733 0.0012492273 -0.005645095 -0.2256529 0.28615803 0.1568219 6.579226e-06
-0.005210436 0.016248671 0.3995081 -0.042605586 -0.06452847 0.15833963 -0.057812978 -0.4945842
6.3634916e-06 0.023052055 -0.018459894 -0.09897406 0.14922982 0.048204698 -0.054098647 -0.09418344
-0.07910808 -0.042744625 0.050931703 2.046236e-06 -4.9191376e-06 0.02255474 -0.3242907 -0.01866117
-0.07694733 -0.06298652 0.02277747 -0.0015281755 0.024676587 0.261792 -0.21627246 0.019833416
0.11848761 0.08041599 -0.41170466 2.9046182e-06 1.7526659e-06 4.622397e-06 -0.011214789 0.05177198
0.01383218 -0.032791376 0.12214667 0.018073043 0.05635995 0.48942262 4.8804723e-06 0.075747825
0.1398015 -0.06249449 0.077018864 0.0403975 -0.07278163 -0.096108265 0.050267633 0.18370649
0.0102856755 -0.07207211 0.042675 0.14172783 -0.29598027 0.029878017 -0.2916615 -0.093608126
-3.696874e-06 8.421641e-07 0.07872251 0.13170666 -0.25353462 0.06390788 -0.008061569 0.006002115
3.0641786e-06 4.550053e-06 0.00075093354 -0.1049779 -0.14387563 -6.038881e-06 -0.050036386 0.051708616
0.02378487 -0.023102487 0.07724925 -0.11029207 0.055764336 0.015845146 -0.3138333 -0.04700355
0.030878652 -0.48500633 0.006582037 -0.26219574 0.046022918 -0.06639732 -0.15025447 -0.22663666
0.007050141 0.28315872 0.10199244 0.10981681 6.7340998e-06 -4.452745e-07 -0.12334738 -5.155484e-06
0.06804471 0.005738576 0.120953605 0.012786353 -0.036877066 0.23395583 -0.06356515 -2.8369377e-06
-0.03582676 -0.08655359 -0.04866828 -0.001824602 0.090042345 0.14573053 -0.0024544615 -0.09195241
-0.067269884 -0.14098832 -0.068800524 0.051727474 -0.015926909 0.0062318337 0.060361598 -0.0125902295
-0.1818227 -0.048480485 -0.013899959 0.29178682 -0.23610675 0.15686145 0.08139943 0.22664899
0.10595833 0.08223022 0.009765711 0.068968825 0.03900676 -0.029710896 -0.12313942 -0.03722187
-0.18858503 0.01882527 0.19330771 0.0499423 0.020999743 -0.16896622 -0.102326415 -0.00028415583
0.27374464 0.048833158 -0.027952215 -0.01982284 -0.6146941 0.24857527 -0.020883292 0.034343228
-0.19557482 -0.19777639 0.08374172 -0.006485178 -0.18664077 -0.09675538 -0.008713833 -0.20560186
-0.030270759 0.7405055 0.017788442 -0.0990661 0.004702858 0.26961315 -0.28820178 0.015300781

gcn_layer1.linear.bias f4 [16]
00000000: 4699 ed3d 398e 83bd aefb e03d a19f d53d
00000010: add3 003e d398 af3d ee88 f53d f8bc b1bc
00000020: 0820 cb3d e6e5 ef3d 6e54 e43d 612e f73d
00000030: d5e2 c03d 0608 d83d 763c d93d 4c71 223e
0.116015 -0.06423611 0.10985504 0.104308374 0.12580748 0.08574071 0.11989008 -0.021696553
0.09918219 0.117137715 0.11148916 0.12069393 0.09418265 0.10548405 0.10607235 0.15863532

gcn_layer2.linear.weight f4 [6, 16]
00000000: c3a5 ccbf 362c e3bd 244c c33f ff1a bbbf
00000010: b995 b0bd aaf5 cd3f 7383 debf d014 65be
00000020: 0729 c93f ae96 b23f 2aa4 babf 5cf7 d5bf
00000030: 649b 9e3f 973c 56bf 7308 c73f 6639 7d3d
00000040: 2457 d1bf 2240 0abe 87b6 c13f 5af2 c8bf
00000050: 5fb2 bbbf 36e4 f3be f814 c83f 67c6 2dbd
00000060: d790 a73f 1a7f e0bf 1842 c9bf ac44 c23f
00000070: e116 bdbf 83ce c7bf fff8 9c3f f739 c8bf
00000080: 78c3 be3f a2de 83bd a80d d13f 661d be3f
00000090: 3ffa bbbf d4ea dbbf a757 bd3f 6ab7 81be
000000a0: 6840 d33f 8219 8d3f 6594 c23f 7b0c b93f
000000b0: 6777 813f 24ae b3bf feff d7bf 1595 92bf
000000c0: 257a b63f 0cac e9bd 007e bdbf d487 b03f
000000d0: 4e66 c33f cd73 b13f f2b7 b93f 9ea8 c83d
000000e0: 9bb4 cdbf 8f64 9e3f 91fb ad3f a24f b43f
000000f0: 5162 aebf ce1f b13f 2b62 c73f 829e babf
00000100: 98dc c63f e1ba f3bd 25dd aabf f6e8 b5bf
00000110: a451 ce3f f960 8ebf aaa5 b5bf 04c8 a63c
00000120: 9fa5 adbf 75cd cabf e158 cabf c107 c9bf
00000130: 2d4f ab3f b225 c63f 704e c1bf 6f8d c73f
00000140: 1197 bbbf ad02 913d ae0a b8bf 4606 cc3f
00000150: a617 bebf b851 c7bf 8c0b d0bf b4d0 e83d
00000160: 57db d4bf bdff cb3f 6139 ca3f c561 d7bf
00000170: 0a82 c0bf 5188 cdbf 744f bdbf 014d c63f
-1.5988086 -0.11092417 1.5257611 -1.4617614 -0.08622307 1.6090596 -1.7383865 -0.2237122
1.5715646 1.3952234 -1.4581349 -1.6716113 1.2391171 -0.836862 1.5549453 0.061822318
-1.6354718 -0.13501027 1.5133828 -1.569896 -1.466381 -0.4763505 1.5631399 -0.04242554
1.3091077 -1.7538788 -1.5723295 1.5177207 -1.4772607 -1.5609897 1.2263488 -1.564269
1.4903402 -0.06438948 1.6332293 1.4852722 -1.4685744 -1.7181039 1.4792374 -0.25335246
1.650403 1.1023409 1.5201536 1.4456934 1.0114564 -1.4037519 -1.6874998 -1.1451746
1.4256026 -0.114097685 -1.4804077 1.3791451 1.5265596 1.3863465 1.4509261 0.09797786
-1.6070741 1.2374438 1.3592397 1.4086802 -1.3623754 1.3837831 1.5576833 -1.4579623
1.553607 -0.11900879 -1.3348738 -1.4211719 1.6118665 -1.1123344 -1.4191182 0.020359047
-1.3566169 -1.584395 -1.5808374 -1.5705491 1.3383538 1.5480254 -1.5102062 1.5590037
-1.4655477 0.070805885 -1.4378259 1.5939415 -1.4850967 -1.5571814 -1.6253524 0.11367932
-1.6629437 1.593742 1.5798761 -1.6826712 -1.5039685 -1.6057225 -1.4789872 1.549225

gcn_layer2.linear.bias f4 [6]
00000000: 8416 95bc a94c 2a3f fe10 48bf db36 8cbf
00000010: 89ee c43e 5553 443f
-0.018199213 0.66523224 -0.7815093 -1.095424 0.38463238 0.76689655
