checkpoints/citeseer/gcn_200.pth (torch, 239071 bytes, 4 tensors)

gcn_layer1.linear.weight f4 [16, 3703]
0	0x3e40990a	0.1880838
1	0xbe596d8d	-0.21233197
2	0xbc007044	-0.007839266
3	0x3d893316	0.06699197
4	0xbd517fc7	-0.05114725
5	0x3ded79c2	0.11595489
6	0xbd4edbcc	-0.050502583
7	0xb44d13c6	-1.9099306e-07
8	0xb4755022	-2.2846555e-07
9	0x3e42f591	0.19038989
10	0xb8a88200	-8.035079e-05
11	0x3de8ae37	0.11361354
12	0x3d8b1ab2	0.06792201
13	0x3ebb06c5	0.36528602
14	0xbd08ded1	-0.03341562
15	0x3c5c8cc0	0.013461292
16	0x3e866967	0.2625229
17	0xbd52eeac	-0.051497146
18	0x3b9a0414	0.004700193
19	0xbd1e574f	-0.038657483
20	0x3cb4898c	0.022038244
21	0x3e5bf672	0.2148073
22	0x3f81a48f	1.0128344
23	0x3bba8724	0.0056923795
24	0xbe28ae58	-0.16472757
25	0xbbed2bb5	-0.0072378763
26	0xbd926406	-0.07147984
27	0xbd2743b0	-0.040836036
28	0xbde11150	-0.1098963
29	0x3ea092ca	0.3136199
30	0x3c7f970d	0.015599978
31	0x39aa41f4	0.00032474066
32	0x3e3150a1	0.17315914
33	0xbe604ee7	-0.21905099
34	0xbe6c20b6	-0.23059353
35	0xbea629ff	-0.32453915
36	0x3e7889cb	0.24271314
37	0x3ddc2691	0.107495435
38	0xbe25c1d6	-0.16187224
39	0x3da43ff1	0.08020008
40	0xbe80e7f1	-0.25176957
41	0xbe397524	-0.18111092
42	0x3cd269b3	0.025685167
43	0x3c9beae5	0.019032905
44	0x3edc7402	0.43057257
45	0xbd367e8f	-0.04455429
46	0x3e51561a	0.20443001
47	0x3caf8ae3	0.021428531
48	0xbbc9c01f	-0.006156936
49	0xbcdfae2f	-0.027304737
50	0xb47b16e1	-2.338452e-07
51	0x3dcc4692	0.09974398
52	0xbc9f91aa	-0.019478638
53	0x3e3cf3a0	0.1845231
54	0xbd63f7fc	-0.05565642
55	0xbe367a79	-0.17820157
56	0x3ceef85b	0.02917116
57	0xbed35c24	-0.41281235
58	0x3cb5aaea	0.022176225
59	0xbe0caea0	-0.13738489
60	0x3b07c577	0.0020717063
61	0xbe7a987a	-0.24472228
62	0xb44641b3	-1.8464088e-07
63	0x3d00be19	0.03143129
64	0x3ab2456a	0.0013601009
65	0x3fd9ada1	1.7006112
66	0x3ce3f6bd	0.027827615
67	0x3db9d217	0.090732746
68	0xbb08acae	-0.0020854878
69	0xbd9fcb1c	-0.07802412
70	0xbb9fab8b	-0.0048727444
71	0x3dce167e	0.10062884
72	0x3e5992b2	0.21247366
73	0xbe749e3b	-0.23888485
74	0xbc35ae4c	-0.011088919
75	0xbcd2915c	-0.025704078
76	0xbea277c7	-0.31732008
77	0x3e76a044	0.24084574
78	0x3e1da71f	0.15395783
79	0xb40fdf5f	-1.3399175e-07
80	0x3b8aa9e3	0.004231678
81	0x3cff48c3	0.031162625
82	0x3ebadb3d	0.3649539
83	0xbc35e24a	-0.011101315
84	0xbe0fc127	-0.14038526
85	0x3e73cc9c	0.23808521
86	0xbd5e8447	-0.05432537
87	0xbead652f	-0.3386626
88	0xb4cf2010	-3.8580083e-07
89	0x3bbc2f0a	0.005742912
90	0xbd0b7086	-0.034042858
91	0xbdaf04dd	-0.085458495
92	0x3e0e232d	0.13880606
93	0x3d1327b2	0.03592653
94	0xbd8ae794	-0.06782451
95	0xbd62a267	-0.05533066
96	0xbd9772a6	-0.07394914
97	0xbdb088d1	-0.08619846
98	0x3d65a271	0.05606312
99	0x33850daa	6.1957806e-08
100	0xb3581808	-5.0313275e-08
101	0x3d6e16b7	0.05812713
102	0xbe5aed54	-0.21379596
103	0xbd4e2ae3	-0.05033387
104	0xbd1c9dc5	-0.0382364
105	0xbdbdda94	-0.09270206
106	0x3c9a5965	0.018841455
107	0x38b7ff32	8.773654e-05
108	0x3ca60872	0.020267699
109	0x3e6af211	0.22943904
110	0xbe973c62	-0.29538256
111	0xbd245bab	-0.040126484
112	0x3d91ffce	0.07128869
113	0x3e0bbe71	0.13646866
114	0xbec81d92	-0.3908506
115	0xb4657826	-2.1370997e-07
116	0x336ef3c8	5.563541e-08
117	0xb43f39e5	-1.7809323e-07
118	0xbcf01782	-0.029308084
119	0x3e1e2b71	0.15446259
120	0x3b657c7a	0.003501682
121	0xbd46fe5f	-0.04858243
122	0x3ded2263	0.11578824
123	0x3c64ceba	0.013965303
124	0x3d6be3b0	0.057590187
125	0x3eeccb1f	0.4624872
126	0xb35f09b4	-5.193006e-08
127	0x3d9b717e	0.07590006
128	0x3e12b79c	0.14327854
129	0xbd78e05e	-0.06076085
130	0x3da580f6	0.08081238
131	0x3d220ef2	0.039565034
132	0xbd13cd02	-0.036084183
133	0xbdf8341b	-0.12119313
134	0x3d8c7b74	0.06859484
135	0x3e62ae12	0.22136715
136	0x3af8fe1e	0.0018996631
137	0xbd991a7d	-0.07475755
138	0x3e305220	0.17218828
139	0x3e121951	0.1426747
140	0xbe5ca43a	-0.21547022
141	0x3d56c218	0.052431196
142	0xbec2a624	-0.3801738
143	0xbd3cb23a	-0.046068408
144	0xb3bf3d94	-8.9053316e-08
145	0x34127892	1.3641173e-07
146	0x3d90c47a	0.07068725
147	0x3d90e606	0.070751235
148	0xbe4e1fc6	-0.20129308
149	0xbad9514c	-0.0016580014
150	0x3c0229b9	0.007944518
151	0x3cfb40e0	0.030670583
152	0x34c6337a	3.6917828e-07
153	0xb4530fff	-1.9656726e-07
154	0xbc377ab1	-0.0111986855
155	0xbdc2e259	-0.09515829
156	0xbe38273e	-0.1798372
157	0xb3495f0c	-4.6885404e-08
158	0xbce55412	-0.02799419
159	0x3cc44369	0.023957925
160	0x3c0eabe2	0.008707972
161	0xbd17b08a	-0.037033595
162	0x3db9e79b	0.09077378
163	0xbe163c81	-0.14671518
164	0x3d5a7ea1	0.05334342
165	0x3d03c2da	0.032168247
166	0xbe7231d7	-0.23651825
167	0xbd3ec935	-0.046578605
168	0xbdd1a9ad	-0.10237441
169	0xbee815c2	-0.453291
170	0x3c3f06af	0.011659308
171	0xbeabefa5	-0.33581272
172	0x3c8c06a9	0.01709302
173	0x3d4cb8d5	0.049980957
174	0xbdff363a	-0.12461515
175	0xbe2137a6	-0.15743884
176	0x3cdb9bdc	0.026807718
177	0x3e8009e1	0.25007537
178	0x3d38bcd8	0.04510197
179	0x3e150b05	0.14554985
180	0x341c504e	1.4557847e-07
181	0x34287e6c	1.5692211e-07
182	0xbe01cd42	-0.12675956
183	0xb34c6a58	-4.759417e-08
184	0x3dd6d3b0	0.10489595
185	0xb9f66617	-0.0004699684
186	0x3e3c9889	0.18417563
187	0x3cc0f781	0.023555519
188	0xbd1fabe6	-0.038982294
189	0x3e4b8e3c	0.19878477
190	0xbd4204e1	-0.047367934
191	0xb46d474e	-2.2098286e-07
192	0xbd46b604	-0.048513427
193	0x3d764106	0.060120605
194	0xbcfce018	-0.030868575
195	0xbd024c24	-0.031810895
196	0xbb482293	-0.0030538186
197	0x3e5788ea	0.21048322
198	0xbc4a1ff3	-0.012336719
199	0xbdee4b27	-0.11635428
200	0xbce47e92	-0.027892385
201	0xbe0a7c42	-0.13523963
202	0xbe4f49b3	-0.20242958
203	0x3cc354ac	0.023844086
204	0xbc108029	-0.008819618
205	0x3c505831	0.012716339
206	0x3b3d5ae0	0.0028893277
207	0x3b29da69	0.0025917536
208	0xbe72812f	-0.23682092
209	0xbda15596	-0.07877652
210	0xbda3b161	-0.07992817
211	0x3e8197a5	0.25311008
212	0xbe644745	-0.22292812
213	0x3e163a9c	0.14670795
214	0x3dbee196	0.09320371
215	0x3e851ec8	0.26000047
216	0x3d7f16d5	0.062277634
217	0x3dc2032b	0.094732605
218	0xbb1dda35	-0.002408636
219	0x3dd89dc9	0.1057697
220	0x3dcd4a40	0.10023928
221	0xbd4a0e62	-0.049330123
222	0xbc5ab317	-0.013348362
223	0xbd7d9e81	-0.06191874
224	0xbe2166a8	-0.15761817
225	0xbc5acc99	-0.013354444
226	0x3e651f11	0.22375132
227	0x3dab4497	0.08362692
228	0x3ccdfe72	0.025145743
229	0xbdea9cfd	-0.114557244
230	0xbdb71233	-0.08939018
231	0x3bc522b4	0.0060161
232	0x3e460f08	0.19341671
233	0x3d11aaaa	0.03556315
234	0xbd492c15	-0.049114306
235	0xbd328dee	-0.043592386
236	0xbf0c53a6	-0.5481514
237	0x3e8d6a9b	0.27620396
238	0xbd4aff2c	-0.049559757
239	0x3d8e7233	0.069553755
240	0xbdde0ed7	-0.10842674
241	0xbdf67bf1	-0.12035359
242	0x3d4ebfd4	0.05047591
243	0x3c57b02f	0.013164564
244	0xbe631c84	-0.22178847
245	0xbe07b48f	-0.13252471
246	0xbd9c6a29	-0.07637436
247	0xbe155ee8	-0.14586985
248	0xbd819df9	-0.06328959
249	0x3f33bbe3	0.7020857
250	0x3d918012	0.071045056
251	0xbda44a75	-0.08022014
252	0x3c87a002	0.01655579
253	0x3e9f8f0f	0.31163833
254	0xbe9075ff	-0.28215024
255	0x3c17335a	0.009228552

gcn_layer1.linear.bias f4 [16]
0	0x3dbf2df7	0.09334939
1	0xbd46b1ef	-0.048509534
2	0x3dbd1d2d	0.092340805
3	0x3de9ee6b	0.11422428
4	0x3dc94e00	0.098293304
5	0x3d911ce4	0.070855886
6	0x3dd2b486	0.10288338
7	0xbbf74a4f	-0.0075467
8	0x3d84c7c7	0.06483417
9	0x3dd0ccdd	0.101953246
10	0x3d959619	0.073040195
11	0x3dc709b4	0.097186476
12	0x3d9e4656	0.07728259
13	0x3da872a3	0.0822499
14	0x3dbd5866	0.09245376
15	0x3dff8f8f	0.124785535

gcn_layer2.linear.weight f4 [6, 16]
0	0xbffedf5e	-1.9911916
1	0xbe125ef9	-0.14294042
2	0x3fea9598	1.8326902
3	0xbfe6a795	-1.8019892
4	0x3e366c9b	0.17814867
5	0x3fffeb72	1.9993727
6	0xc0089bb2	-2.134503
7	0xbe6514fd	-0.22371288
8	0x3ff18813	1.8869652
9	0x3ff9031d	1.9454075
10	0xbfea501a	-1.8305695
11	0xc00876f4	-2.1322603
12	0x3ff7ef3b	1.9369882
13	0xbf94f8e8	-1.163846
14	0x3ffa96bf	1.9577254
15	0x3eef275f	0.46709725
16	0xc002adcb	-2.0418575
17	0xbe0750c2	-0.132144
18	0x3ff13cf6	1.8846729
19	0xc00348d2	-2.0513196
20	0xbff10cb4	-1.8832002
21	0xbf54df12	-0.8315288
22	0x3ffbc34a	1.9668972
23	0xbd2dc5a7	-0.042424824
24	0x3fcaee1f	1.5853919
25	0xc00f1736	-2.2357917
26	0xc00418a3	-2.0640037
27	0x3ffc7650	1.9723606
28	0xc00d5eb1	-2.2089045
29	0xbff0a703	-1.8800968
30	0x3fda8d85	1.7074438
31	0xbff237a4	-1.892323
32	0x3ffb0342	1.9610369
33	0xbda2925f	-0.07938074
34	0x3ff98d45	1.9496237
35	0x3ff74c6f	1.9320201
36	0xbfe82e44	-1.8139119
37	0xc006c9cb	-2.1060665
38	0x3fe7ffa6	1.8124893
39	0xbe81b78c	-0.25335348
40	0x4003e99d	2.0611336
41	0x3fa149da	1.2600663
42	0x3feff737	1.8747319
43	0x3fdaf334	1.710547
44	0x3fd8d93e	1.6941297
45	0xbfe823aa	-1.8135884
46	0xc00d96e1	-2.212334
47	0xbfd685e6	-1.6759613
48	0x3fe47449	1.7847987
49	0xbde51579	-0.11185736
50	0xbfec9e52	-1.8485816
51	0x3fe6791b	1.8005708
52	0x3ff9027c	1.9453883
53	0x3feff8f0	1.8747845
54	0x3fddb2a9	1.7320148
55	0x3dc8a8d3	0.09797826
56	0xbff95c8c	-1.9481368
57	0x3fbb4fd2	1.4633734
58	0x3fdd5b0a	1.7293408
59	0x3fdf34f8	1.743804
60	0xc0024572	-2.0354886
61	0x3fe7b28a	1.8101361
62	0x3ff9e43f	1.952278
63	0xbfe2f7a6	-1.7731826
64	0x3ff70e19	1.9301177
65	0xbdbdfa96	-0.09276311
66	0xbfd47c2f	-1.6600398
67	0xbfe7b568	-1.8102236
68	0x3ff701f7	1.9297475
69	0xbfd30a7b	-1.6487573
70	0xbfde27db	-1.7355913
71	0x3ca6c5b9	0.020357953
72	0xbfe99709	-1.8249217
73	0xbff97011	-1.9487325
74	0xbff562d7	-1.9170789
75	0xbfee3ae5	-1.8611723
76	0x3ff857e9	1.9401828
77	0x3ff18ae5	1.8870512
78	0xbff5c460	-1.9200554
79	0x3fe8af9c	1.8178592
80	0xbff9289a	-1.9465516
81	0x3d82265f	0.06354975
82	0xbfeb8349	-1.839944
83	0x3ff0dbee	1.8817117
84	0xbff660f9	-1.9248344
85	0xbff2331e	-1.892185
86	0xc0009a75	-2.0094273
87	0x3de8d146	0.11368041
88	0xc00207b2	-2.0317197
89	0x3ffbff5b	1.9687303
90	0x3ff8fa0f	1.9451312
91	0xc004a54f	-2.0725896
92	0xc00d33b9	-2.206282
93	0xbffded1e	-1.9837987
94	0xbff2b8e8	-1.8962679
95	0x3ff581fc	1.9180293

gcn_layer2.linear.bias f4 [6]
0	0xbdeec353	-0.11658349
1	0x3f5404ca	0.8281981
2	0xbf5c7805	-0.86120635
3	0xbf9e8fa6	-1.2387588
4	0x3ed25ee1	0.41088012
5	0x3f6da2e9	0.92826706
