checkpoints/citeseer/gcn_160.pth (torch, 239071 bytes, 4 tensors)

gcn_layer1.linear.weight f4 [16, 3703]
000000 b1 0c 06 3e 9f 3f 63 be b9 59 43 bc 26 39 97 3d
       0.13090779 -0.22192238 -0.011923247 0.07383947
000010 d4 28 1c bd 96 23 f7 3d 55 eb 0a bd 55 62 1c b6
       -0.038124874 0.12067334 -0.033915836 -2.3303048e-06
000020 10 87 f2 35 9f 39 08 3e 82 3f 1d 3b 9c 0b f3 3c
       1.8069713e-06 0.1330323 0.0023994152 0.029668622
000030 d8 7b 9c 3d 98 c6 a7 3e 73 5d 87 bd 9e ad 6d bd
       0.07640809 0.32768703 -0.06609621 -0.058026902
000040 ad c1 9c 3e 62 12 66 bd 4a ad de 3d 4c 66 4b 3b
       0.30616513 -0.056169875 0.10872896 0.0031036315
000050 22 b4 1d 3d 29 d5 87 3e 64 b6 83 3f 98 24 27 3c
       0.038501866 0.26529816 1.0290036 0.010201596
000060 99 bf ff bd e7 a3 af bc 53 b4 02 bd 1d 18 e3 bc
       -0.12487716 -0.02144046 -0.03191025 -0.027721459
000070 29 f6 b9 bd 69 71 85 3e e8 06 15 3d 40 3d a2 3c
       -0.090801544 0.26063088 0.03638354 0.019804597
000080 21 c8 3a 3e 46 1e 68 be f0 68 90 be 5e ed a3 be
       0.18240406 -0.22667798 -0.2820506 -0.32017034
000090 db 88 3e 3e 8c 93 c8 3d 5d f9 4b be 7c 1a 63 3d
       0.18606894 0.09793767 -0.19919343 0.05544518
0000a0 d1 31 40 be 0a 0b 72 be 17 a2 87 3b 76 16 0b 3c
       -0.18769003 -0.23637024 0.0041391957 0.008489242
0000b0 39 97 ba 3e 5d 21 85 bd fa 4b 2f 3e fc ab 10 3d
       0.364435 -0.06500504 0.17118827 0.035320267
0000c0 52 03 27 3d c7 04 cc bc e8 03 ad 34 1d 3f a0 3d
       0.04077465 -0.024904622 3.2226603e-07 0.07824538
0000d0 6f 13 f2 bc 73 b5 42 3e 24 aa e2 bd c7 eb 2c be
       -0.029550282 0.1901453 -0.11067608 -0.16886817
0000e0 e0 de cc 3c 65 a5 c1 be ce 74 03 3d fe bf c2 bd
       0.025008619 -0.378215 0.032093816 -0.09509276
0000f0 8f 75 c7 3b c4 15 16 be f1 f4 8f b5 ab 1b 57 3c
       0.006087012 -0.1465674 -1.0725618e-06 0.013129155
000100 58 35 60 bb ac bd bc 3f a8 09 8c 3c de 2e c0 3d
       -0.0034211483 1.4745383 0.017094448 0.09383939
000110 be 45 b7 3c cc 1a 26 bd 1d 8e 05 3c 5e 8a e0 3d
       0.022372123 -0.0405529 0.008151558 0.109638914
000120 a0 b0 28 3e 0f ea eb bd d4 75 6e bd 4c 12 10 bd
       0.16473627 -0.115192525 -0.05821784 -0.0351737
000130 5d 69 65 be 41 41 8b 3e 94 09 cd 3d ab f3 2c b6
       -0.22403474 0.27198222 0.100115925 -2.577183e-06
000140 23 12 17 3d 1c 54 ff b9 80 7c d4 3e a5 9c 11 bd
       0.03688253 -0.00048700057 0.41501236 -0.03554978
000150 2f 2e 02 be 3a 9f 49 3e 8b 65 50 bd 51 91 df be
       -0.1271293 0.19689646 -0.05087809 -0.43665555
000160 3a 31 5b 36 c4 68 36 3a 03 ec 41 3b fd 57 52 bd
       3.2662197e-06 0.00069583603 0.0029590137 -0.051353443
000170 27 69 1b 3e 71 ac 80 bb dc ae d0 bd 66 b8 8e bd
       0.15176831 -0.0039268066 -0.10189602 -0.06968765
000180 dd 71 f1 bc 30 d2 85 bd ff eb a8 3d dd 05 b3 b5
       -0.02947324 -0.06534231 0.08248138 -1.3338246e-06
000190 82 d9 10 36 b0 77 42 3d a1 a9 b7 be e8 86 95 bb
       2.1584278e-06 0.047477424 -0.35871604 -0.004563201
0001a0 d9 94 c3 bc aa 73 c0 bd b6 60 2c 3d d5 fc 1b 3a
       -0.023874687 -0.09397061 0.04208442 0.00059504557
0001b0 6e 66 e5 3c 94 47 6c 3e 3d f4 52 be 64 29 ef bc
       0.028002944 0.2307418 -0.20600982 -0.029194541
0001c0 52 cb d9 3d ff 5c d2 3d 80 08 c8 be 4c 20 ee b5
       0.106344834 0.10271644 -0.39068985 -1.7741781e-06
0001d0 b2 6a 14 36 e0 55 ea 35 7e b9 1f bd dc c1 5c 3d
       2.2115823e-06 1.7459352e-06 -0.03899526 0.053895816
0001e0 da c1 70 3b f6 a0 43 bd 99 03 10 3e fe 08 66 3b
       0.0036736638 -0.047760926 0.14063872 0.0035100575
0001f0 d7 90 8a 3d 14 da 00 3f 5f 44 f3 35 43 f1 9e 3d
       0.06765907 0.5033276 1.812481e-06 0.07760861
000200 a0 90 e1 3d c1 3f 35 bc 01 1c 21 3d fb f1 81 3c
       0.11013913 -0.011062563 0.039333347 0.015862456
000210 43 aa f0 bd 18 0e 06 be 13 55 63 3d 49 0d 34 3e
       -0.11751225 -0.13091314 0.055501055 0.17583193
000220 2d 09 88 3c e6 67 42 bd cb 13 9c 3d ec 2f 20 3e
       0.016605938 -0.047462367 0.07620963 0.1564328
000230 ea a5 74 be ee a6 b2 3c fa 93 9b be cf db 25 bd
       -0.23891416 0.021808114 -0.30386335 -0.04049283
000240 dc b9 4d 35 23 86 66 b5 0c 9a 64 3d d1 5a e5 3d
       7.663891e-07 -8.587687e-07 0.055810973 0.111989625
000250 61 96 52 be 8f 3c 54 3d 09 d2 95 3c 96 7c 41 3c
       -0.20565178 0.051815566 0.01828863 0.011809489
000260 b3 24 2f b6 1b 49 ab 35 34 d9 76 bc ae 4a 03 be
       -2.6098394e-06 1.2761769e-06 -0.015066434 -0.12821457
000270 1c 87 56 be b0 8a 95 b5 a1 18 00 bc e9 94 95 3d
       -0.20949978 -1.1141728e-06 -0.007818372 0.07303793
000280 31 68 20 3d f0 03 b1 bc 84 9c a8 3d f2 33 39 be
       0.039161865 -0.021608323 0.08232978 -0.18086222
000290 1c 0c fb 3c 59 42 7b bc 00 2a 98 be 3b 86 0a bd
       0.030645423 -0.015335643 -0.29719543 -0.03381942
0002a0 7e 0b 23 bd c8 00 eb be 9a b9 10 3b 2d fb 88 be
       -0.03980588 -0.45899034 0.0022083283 -0.26754132
0002b0 e3 2c d5 3c 33 4d db bc e3 32 00 be 0a 38 62 be
       0.02602238 -0.02677021 -0.12519412 -0.2209169
0002c0 94 79 fc 3b 1b f2 a5 3e 42 2d fb 3d 16 92 16 3e
       0.007704923 0.32411274 0.122644916 0.14704165
0002d0 8e e1 13 b6 a9 13 cd 35 c2 f1 f1 bd 8f 5c f2 b5
       -2.2035997e-06 1.5279412e-06 -0.1181369 -1.8057343e-06
0002e0 89 ff 91 3d f7 14 6b ba 48 6e 1a 3e 83 0f 07 3d
       0.071288176 -0.00089676626 0.15081131 0.032973778
0002f0 b0 de 10 3a c7 94 82 3e 1c bf e3 bc fe c4 06 b6
       0.0005526347 0.25504133 -0.027801089 -2.008222e-06
000300 ee a9 aa bd cd 47 c9 bd d4 fa cd bd f5 1f 65 bd
       -0.08333193 -0.09828148 -0.10057607 -0.05593868
000310 ae 34 02 3d 56 76 61 3e f2 a0 a4 3b 10 bf fc bd
       0.03178852 0.22017798 0.005024069 -0.1234113
000320 71 12 21 bd 96 fb f0 bd f7 13 d1 bd 47 47 13 3d
       -0.039324228 -0.11766736 -0.10208886 0.035956647
000330 fc 7a 14 bd ca 8a df 3b 31 52 a3 3d 5f e1 8b 3c
       -0.0362501 0.006821965 0.07974661 0.017075239
000340 58 f2 45 be 1d db bc bd e6 f9 7c bd ef 12 97 3e
       -0.19330728 -0.0922148 -0.06176176 0.29506633
000350 77 fa 8e be 1a ea db 3d d0 69 1c 3d cb cb 7a 3e
       -0.27925465 0.10738011 0.03818685 0.24491803
000360 bd 0b ab 3d f2 75 b8 3d e9 ec 33 3b 44 68 be 3d
       0.08351848 0.09006871 0.0027454442 0.09297231
000370 49 1d d5 3c 8c c0 a2 bb d4 22 2e bd 0b 7e db bc
       0.02601494 -0.004966801 -0.042513683 -0.0267935
000380 49 ef da bd 13 cc bb 3c 28 6d 69 3e 17 0b 94 3d
       -0.10690171 0.022924459 0.22795546 0.07228678
000390 dd 5e 9a 3c d8 60 20 be c9 49 c8 bd 57 19 19 3d
       0.018844062 -0.15661943 -0.097796984 0.03737768
0003a0 25 a0 53 3e ae d2 2b 3d ee e2 00 bd 08 86 0c 3c
       0.20666559 0.041948967 -0.031466417 0.008576877
0003b0 51 db 1d bf 09 dd 82 3e ad 81 02 bd 88 de be 3d
       -0.61662775 0.2555926 -0.03186195 0.09319788
0003c0 78 99 2e be 09 bf 28 be 97 1b a1 3d 64 62 89 bc
       -0.17050731 -0.16479124 0.078665905 -0.01677055
0003d0 4b fe 7f be 2e ad f1 bd 05 92 ae bc 06 46 72 be
       -0.24999349 -0.118006095 -0.021309862 -0.23659524
0003e0 76 f6 b1 bc d9 27 42 3f 38 41 7a 3d d0 06 53 bd
       -0.021723967 0.7584205 0.061097354 -0.05152017
0003f0 15 e4 9a bc 4a 84 85 3e 0e 74 8a be 95 1e 99 3c
       -0.018907586 0.2607749 -0.27041668 0.01869134

gcn_layer1.linear.bias f4 [16]
000000 f8 03 e5 3d c4 1e b1 bd 18 50 e2 3d 7a f8 bf 3d
       0.111823976 -0.08648446 0.11050433 0.09373565
000010 bf 74 d9 3d 62 aa a2 3d 39 13 f2 3d a7 92 80 bc
       0.10617971 0.07942654 0.11820073 -0.01569493
000020 c6 60 ca 3d 02 02 d6 3d a1 8c d4 3d 1e 9d 01 3e
       0.09881739 0.10449602 0.10378385 0.12657592
000030 b1 a9 aa 3d ce 7f c5 3d 15 51 b8 3d ec ff 2b 3e
       0.08333147 0.096435174 0.0899984 0.16796845

gcn_layer2.linear.weight f4 [6, 16]
000000 d1 aa dd bf 13 3f 0e be 39 8f cf 3f b5 a1 ca bf
       -1.7317754 -0.13891248 1.6215583 -1.5830599
000010 49 b0 4f bc 6c 23 e0 3f 94 52 f1 bf fb 14 65 be
       -0.012676307 1.751081 -1.8853326 -0.22371285
000020 07 d2 d7 3f 6d 7a c9 3f a1 06 cd bf f3 53 ec bf
       1.686097 1.5740486 -1.6017648 -1.8463119
000030 c0 8c bf 3f 68 a7 71 bf e2 92 da 3f 2e 79 4c 3e
       1.4964828 -0.94396067 1.7076075 0.19968101
000040 26 96 e4 bf 1b b0 07 be 5b 64 d3 3f d2 94 de bf
       -1.7858322 -0.13250773 1.6515001 -1.7389166
000050 4c 58 ce bf b7 8b 16 bf 4c 5b dc 3f bc c5 2d bd
       -1.6120696 -0.5880694 1.7215362 -0.042424902
000060 c4 81 b3 3f 31 fd f6 bf dd 91 df bf ad 8c d8 3f
       1.4023976 -1.9296018 -1.7466389 1.6917931
000070 dc 19 e0 bf d8 09 d7 bf 72 32 b0 3f 8e 14 d8 bf
       -1.7507892 -1.6799879 1.3765395 -1.6881273
000080 27 db d6 3f 43 af 9e bd cd a7 e0 3f b4 0d d2 3f
       1.678563 -0.07748272 1.7551209 1.6410432
000090 5b 09 cb bf e5 7f ee bf 9a 19 ca 3f 8c b7 81 be
       -1.586223 -1.863278 1.5789063 -0.25335348
0000a0 c7 92 e7 3f ca 36 94 3f 56 0b d4 3f c2 2d c5 3f
       1.8091668 1.157922 1.656596 1.5404589
0000b0 ea e3 a2 3f 1a 1f c6 bf a1 bb f0 bf 02 4a aa bf
       1.2725804 -1.5478241 -1.880726 -1.3303835
0000c0 d5 59 c6 3f 8b ab e5 bd 04 22 cf bf 67 8b c3 3f
       1.5496165 -0.1121436 -1.6182256 1.5276917
0000d0 c0 35 d4 3f 09 1b c8 3f 01 71 c8 3f cf a8 c8 3d
       1.6578903 1.563325 1.5659486 0.09797823
0000e0 2c e6 dd bf 1e 93 aa 3f 48 73 be 3f fb 73 c3 3f
       -1.7335868 1.3326147 1.4878931 1.526977
0000f0 92 2b cf bf 08 a4 c4 3f 1c 77 da 3f bf f5 c9 bf
       -1.6185172 1.5362558 1.7067599 -1.5778121
000100 6b 0f d7 3f 4b cc c4 bd 50 1c b9 bf ee 78 c7 bf
       1.680158 -0.09609278 -1.4461765 -1.558378
000110 75 ba dd 3f f7 b5 a6 bf 00 e3 c4 bf 02 c6 a6 3c
       1.7322527 -1.3024281 -1.5381775 0.02035809
000120 fb 96 c2 bf d3 60 dc bf 6c 16 da bf f6 5e d6 bf
       -1.5202326 -1.7217048 -1.7038093 -1.674773
000130 94 04 c9 3f b7 a1 d5 3f 89 ba d4 bf 2d 07 d4 3f
       1.5704522 1.6689976 -1.6619426 1.656469
000140 07 6d d2 bf 2d 07 84 3d ed ec c9 bf 40 4f d9 3f
       -1.6439523 0.06446681 -1.5775429 1.697731
000150 a1 43 d1 bf eb 31 d7 bf 9d 9d e1 bf 36 d1 e8 3d
       -1.6348764 -1.6812109 -1.7626225 0.11368029
000160 33 2d e6 bf 13 41 df 3f ea 96 db 3f b7 de e8 bf
       -1.7982544 1.7441734 1.715543 -1.8192967
000170 9e e6 e1 bf af f5 de bf 3d 55 cf bf 4a f5 d7 3f
       -1.7648504 -1.7418727 -1.6197888 1.6871731

gcn_layer2.linear.bias f4 [6]
000000 51 a9 5b bd 96 3a 38 3f 8d e1 4f bf 60 62 93 bf
       -0.05362827 0.71964395 -0.8120354 -1.1514397
000010 db 34 c9 3e b3 0b 56 3f
       0.39298138 0.836116
