checkpoints/citeseer/gcn_80.pth (torch, 239065 bytes, 4 tensors)

gcn_layer1.linear.weight f4 [16, 3703]
00000000: dd76 db3d bae5 aebe a4ba a8bc 05ac 4d3d
00000010: 13fb 92bc 0a81 813d e0f4 4abd 8e28 4f38
00000020: 10ed e1b8 a59f 373e 3ce5 2aba d315 cc3d
00000030: a6d8 cb3c 129c 533e 2a30 70bd 3048 85bb
00000040: e4e9 a93e 9211 7bbd 1d1c e0bd bea5 f6ba
00000050: 9c6c 873c bb99 353e fe3f 413f d814 aaba
00000060: 2057 a23a 28f2 a8bd 6177 a4bd ed2a fcbd
00000070: d00b 8ebd e0e5 893e a6c4 bd3c cd62 18bd
00000080: 3d7b 3c3e 1af7 05be 7488 6bbe 6ee5 a7be
00000090: 1ec6 883e e7e5 283e 0ac0 a5be 53ab 5d3d
000000a0: 982f 0bbe 2fee 2ebd 4ac0 d53c 07ae 35bb
000000b0: 4f20 8b3e 860b 87bd f8c4 223e c37d a73c
000000c0: 1396 383d 36ad 05bd 51fa aeb8 d0d7 0f3e
000000d0: afe8 15bd bd96 443e 7641 32be 36e3 10be
000000e0: ce44 fd3c 15b6 afbe dcd3 5f3c c6a3 e0bd
000000f0: d657 523c 7180 60be 4003 69b7 ad77 d43c
00000100: 6f1f fdbb 57e5 5f3f 8af1 403d bfe9 af3d
00000110: 072d 053c 297b 863c 9b8e 23bc 6c3d 273e
00000120: 3b83 313e bc0a 4abe 0689 cbbc a0a0 11be
00000130: 9a06 70be 9fbd 3b3e ec50 ff3d b9c3 afb8
00000140: 9495 f5ba d8a7 fd3c 79fc a03e 74bc 22bd
00000150: 2b6e 14be f6a6 1c3e f8ec 27bd 0789 b8be
00000160: ca90 4739 f3ca 7c3c 6a43 843b d228 3fbd
00000170: 9be7 bb3d 1450 233e 7586 90bd 4947 b0bb
00000180: ae59 2bbd 0612 4abd c121 423d 181c 5cb8
00000190: b0cd e138 a0cc c03c 119b d8be 6d90 67bc
000001a0: 2269 b6bd 2d2f 3fbe 1229 003d 4088 5d39
000001b0: 8348 b83c 565d 6a3e c6b2 bcbb a809 0b3d
000001c0: 2375 ef3d 66ee e53d a961 98be e8cc 1ab7
000001d0: 409b c8b8 2e3c b2b8 6d7a 2abd 5cb6 143e
000001e0: af48 2ebb 2c9c 4bbd 6355 f93d fb76 103c
000001f0: 7ff8 7b3d a46c 993e 9dd5 b938 0a3f cd3d
00000200: d4a6 fe3d 3528 d5bd ef36 b23d cb5f 753d
00000210: 8b82 30bd e0d0 54bb 588b 993d 1f86 6b3e
00000220: 0dfe 063d b175 81bd 5899 f63d adfd d23d
00000230: 4d56 20be 9a95 66bc 4fe5 33be 7b0f b4bd
00000240: 7bd7 00b8 cf9a 1938 917b ca3d 8c93 353e
00000250: 691f 8abe 9c8e 4b3d f216 cc3b 26e6 623c
00000260: 1609 1839 9ba6 6ab8 5540 6fbc 460f d1bd
00000270: 65e3 20be 24ce b937 a6fb f4bc 7633 ad3d
00000280: 089c cb3c 587d 61bb 29d7 a23d 8c6d e7bd
00000290: c305 623d 5c83 e2bd 7a26 aebe 0b04 2bbd
000002a0: 63f7 fd3c 7b2b cdbe 2d2b 033e dbdf b5be
000002b0: 5690 833d 8279 a23d 01ee 4abe fe5e 56be
000002c0: 4242 9d3c 37ac 5a3e 6555 ed3d c907 ae3d
000002d0: b184 b438 50cc 5b37 e0a5 bbbd d36a a4b8
000002e0: eeee 0c3e 7a06 013c 16a9 3f3e a849 613c
000002f0: a78e 3fbd 5618 673e c039 23bd ac41 ed38
00000300: ec13 66bd fde8 bb3c 0f28 86bd 77e4 31bd
00000310: 94d6 03bc 353c 103e 1d5e 56bb dca6 79be
00000320: ca0b 6dbe d273 babd 66eb 30bd 4a61 aa3c
00000330: 8a4b 24bd 3465 953c 4eb5 743d ee87 263c
00000340: bca9 4fbe 8bf7 c83c ac9a 3fba df8c d73d
00000350: 031f fbbd dbf7 413e 8ffc 153e c451 8c3e
00000360: a408 b63d f308 f63d a311 59bc 7863 093e
00000370: 4337 a13d 7233 4cbd 4bdf 51bd c4bd 20bd
00000380: d528 60be d155 62bd d92a 433e 1d89 923d
00000390: 037d 153d 6658 0ebe 714a e9bd e6a6 733c
000003a0: d9c1 ac3e 1dfc 763d f89f 84bc e53f e13c
000003b0: d145 20bf 4ee7 8f3e bc15 f2bc 9c35 563d
000003c0: 6d34 0bbe e521 ffbd 979f 0d3d b519 c6bc
000003d0: 1f1d 33be b9de dbbd cda5 8dbd 39dc 8dbe
000003e0: 6d05 88bd 5bb0 173f 7dfb ef3d af79 f1ba
000003f0: 50da 2a3b 5890 863e ea68 49be 497c af3c
0.10716031 -0.34159642 -0.02059681 0.05021288 -0.017941987 0.063234404 -0.049549937 4.9390415e-05
-0.000107729924 0.17931993 -0.0006519144 0.099651 0.02488358 0.20665005 -0.058639683 -0.0040674433
0.33186257 -0.061296053 -0.10942862 -0.0018817706 0.016531281 0.17734425 0.7548827 -0.0012976183
0.0012385584 -0.08249313 -0.08030582 -0.12312875 -0.06935847 0.26933193 0.023165058 -0.0372036
0.18406387 -0.13082543 -0.23001271 -0.32792228 0.2671365 0.16493951 -0.32373077 0.054118466
-0.13592374 -0.04270762 0.026092667 -0.0027722137 0.27173087 -0.06593995 0.1589545 0.02044571
0.045064997 -0.03263589 -8.3435916e-05 0.1404717 -0.036598857 0.19198127 -0.17407784 -0.14149174
0.030916598 -0.34318605 0.013661351 -0.10968737 0.0128383245 -0.21923997 -1.3888639e-05 0.025935972
-0.0077246944 0.8745932 0.04710535 0.085895054 0.008128411 0.01641615 -0.00998273 0.16332024
0.17335217 -0.19730657 -0.024845611 -0.1422143 -0.23440018 0.18334053 0.124666065 -8.3811065e-05
-0.0018736594 0.030963823 0.3144262 -0.039730504 -0.1449515 0.15298066 -0.040997475 -0.36042044
0.00019032057 0.015429246 0.0040363567 -0.04666979 0.091750346 0.15948516 -0.07056896 -0.0053795916
-0.041833572 -0.049333595 0.04739547 -5.247825e-05 0.00010767148 0.023535073 -0.42305806 -0.014133555
-0.08906771 -0.1867034 0.031289168 0.0002112696 0.022495514 0.22887167 -0.005758616 0.033944756
0.11692264 0.112271115 -0.2976201 -9.226824e-06 -9.565661e-05 -8.498911e-05 -0.04162066 0.1452269
-0.0026593616 -0.049709484 0.12174489 0.00881743 0.06151628 0.299657 8.861276e-05 0.10021789
0.12434164 -0.104080595 0.08701884 0.05990581 -0.043093245 -0.0032473132 0.07497281 0.23000382
0.032957125 -0.06321276 0.12040967 0.10302291 -0.15657921 -0.014073754 -0.17567943 -0.08792015
-3.071826e-05 3.662222e-05 0.0988685 0.17732066 -0.2697709 0.04969655 0.006228321 0.013848817
0.00014499234 -5.594511e-05 -0.01460274 -0.10207991 -0.15711744 2.214971e-05 -0.029905152 0.08457081
0.024854675 -0.0034406986 0.07951195 -0.11300191 0.055181276 -0.11060211 -0.3401373 -0.041751903
0.031001752 -0.40072235 0.12809439 -0.3552235 0.06424014 0.07933332 -0.19817354 -0.20934674
0.019196633 0.21354757 0.11588553 0.08497579 8.6077845e-05 1.3100987e-05 -0.091624975 -7.840027e-05
0.1376302 0.007875079 0.18716845 0.013750471 -0.046766903 0.22567877 -0.039849997 0.00011313273
-0.056171343 0.022938246 -0.06550609 -0.04343077 -0.008046765 0.14085467 -0.0032709904 -0.24380058
-0.23149028 -0.09104122 -0.043193243 0.020798344 -0.040111102 0.018236734 0.059743218 0.010164244
-0.20279592 0.0245321 -0.00073091197 0.10524916 -0.122617744 0.18942206 0.14647125 0.27406132
0.08888367 0.12013426 -0.013248834 0.1341685 0.078718685 -0.04985375 -0.05123834 -0.039243475
-0.21890576 -0.055257622 0.19059314 0.071550585 0.036496174 -0.13900909 -0.11391152 0.014871335
0.33741644 0.060299028 -0.01618956 0.027496288 -0.6260653 0.2810616 -0.02955138 0.05229722
-0.13594218 -0.12457637 0.034576025 -0.02418218 -0.17491578 -0.1073584 -0.069163896 -0.2770708
-0.0664166 0.5925347 0.117178895 -0.0018423105 0.0026070066 0.26282 -0.19668928 0.021421568

gcn_layer1.linear.bias f4 [16]
00000000: 5c79 f43d 63f7 1bbc 0575 0c3e 1a8c d33d
00000010: 936b e83d 89fb d73d 7e8f f33d 6e40 41bd
00000020: dba5 093e 5139 e53d d9db ec3d a416 df3d
00000030: 68b7 993d 0ffc d93d 5b82 d73d a8a4 503e
0.1193721 -0.009519431 0.13716514 0.103294566 0.11348643 0.105460234 0.11892603 -0.047180586
0.13442175 0.11192573 0.1156537 0.1089299 0.07505685 0.106437795 0.1052291 0.20375311

gcn_layer2.linear.weight f4 [6, 16]
00000000: 5206 8bbf ba98 7ebd 0951 803f f7a2 78bf
00000010: aaa4 7dbe 4d06 893f 5327 92bf 57c4 64be
00000020: bdab 903f 9480 423f 5817 66bf d5a4 79bf
00000030: 7907 963e 8fab 14bf 41de 813f 1df3 aebe
00000040: 04e3 8dbf 9dab 0ebe 1f38 8a3f 57d6 81bf
00000050: 6d27 64bf 9f70 59be e7ae 6b3f fd10 2fbd
00000060: 8493 5f3f d0d8 8dbf 03a5 6fbf 9301 413f
00000070: a247 e3be 308a 87bf 50a5 123f 69fd 87bf
00000080: 66eb 5b3f b6a1 2abd f647 8d3f 6505 753f
00000090: 5a5d 7abf 81a8 94bf d025 813f 2d7a 81be
000000a0: 6358 813f e895 473f c8db 773f 3d77 863f
000000b0: c220 263e 0b9d 5dbf 8015 80bf e6eb 08bf
000000c0: 0dfe 713f 6e9d f0bd 05ea 69bf 31c8 663f
000000d0: 7b49 7c3f dec9 533f eeb5 7f3f 5948 c83d
000000e0: 989e 88bf 9473 6f3f ca76 703f e0b0 723f
000000f0: 385a b7be e698 673f dba4 853f 375e 73bf
00000100: 4735 823f 2580 22be 4ef6 60bf 06c1 5abf
00000110: b7eb 913f 329a 0ebf 74e4 63bf 9ea3 aa3c
00000120: 1314 49bf 7320 87bf 0ac6 89bf dc17 8ebf
00000130: 3adf cd3e 38a3 843f 2524 73bf d583 923f
00000140: 2204 44bf 0498 a73d acaa 62bf a324 8e3f
00000150: 83e0 6ebf 3087 8bbf 48e9 8abf c4d9 e73d
00000160: 29cc 8fbf 0c4e 7d3f 1505 803f eebf 92bf
00000170: f5d3 02bf 51f9 8bbf 6dac 70bf aa48 813f
-1.0861304 -0.06215737 1.002473 -0.97123665 -0.24769846 1.0705048 -1.1418251 -0.22340523
1.130241 0.75977445 -0.8987937 -0.9751714 0.29302576 -0.5807428 1.0145952 -0.34169856
-1.1084905 -0.13932653 1.0798377 -1.0143536 -0.8912266 -0.21234368 0.92063755 -0.04274081
0.87334466 -1.1081791 -0.9361116 0.7539303 -0.4439059 -1.0589046 0.57283497 -1.062421
0.85906065 -0.041658126 1.1037586 0.95711356 -0.97798693 -1.1613923 1.0089664 -0.25288525
1.0105098 0.77963114 0.96819735 1.0505139 0.16223434 -0.86567754 -1.0006561 -0.5348495
0.94528276 -0.11748777 -0.9137271 0.9014922 0.9854962 0.827299 0.9988698 0.09779424
-1.0673399 0.93535733 0.9393126 0.9480114 -0.3581102 0.9046768 1.0440935 -0.95065635
1.0172509 -0.15869196 -0.8787583 -0.8545078 1.140006 -0.55704033 -0.89020467 0.020829972
-0.78546256 -1.0556778 -1.0763562 -1.1101031 0.4020937 1.036231 -0.9497703 1.1446482
-0.76568806 0.081832916 -0.88541675 1.1104931 -0.9331133 -1.0900631 -1.0852442 0.11320832
-1.123418 0.98947215 1.0001551 -1.1464822 -0.5110467 -1.093546 -0.940131 1.01003

gcn_layer2.linear.bias f4 [6]
00000000: 5c46 003d 6c08 ba3e ea35 0fbf d6df 35bf
00000010: 99f7 8f3e 7497 c93e
0.0313171 0.3633455 -0.5594164 -0.7104467 0.2811859 0.39373362
