checkpoints/citeseer/gcn_40.pth (torch, 239065 bytes, 4 tensors)

gcn_layer1.linear.weight f4 [16, 3703]
0.116063446 -0.28273886 0.0024202154 0.043389708 -0.04657641 0.03384195 -0.012722876 -0.00036964216
-0.00030939246 0.08641346 0.0012179125 0.16741739 0.030498328 0.16785452 -0.014541194 -0.0091427285
0.205476 -0.0056444947 -0.060785353 0.019318357 0.0063847653 0.10200854 0.39260358 -0.009528121
-0.0044342717 -0.011310235 -0.019127224 -0.08777225 -0.11173623 0.13682832 -0.006025674 0.0320238
0.22775668 -0.1224291 -0.22200547 -0.30775058 0.2129215 0.108469315 -0.106555484 0.07505742
-0.10756635 -0.027296515 0.009278309 0.0023023917 0.16807488 -0.043287117 0.04705175 0.05255739
0.0026107251 -0.013112066 -0.00051992293 0.063300885 -0.0014011234 0.10030435 -0.08088705 -0.11056367
0.0019699424 -0.22477838 0.0031568694 -0.022988295 0.006337574 -0.14307773 -0.00065806764 0.0178115
0.010009297 0.41739935 0.030246235 0.0591774 0.011321055 0.029639358 -0.015352913 0.06375823
0.11120018 -0.18234709 -0.026227025 -0.213866 -0.18767169 0.1667122 0.109034285 -0.0011869349
0.0114929285 0.03614663 0.16882636 -0.06071428 -0.102882884 0.04089847 -0.06587601 -0.27133703
-0.0013401166 0.0056057386 -0.0012551636 -0.054374717 0.071145244 0.12850712 -0.027048074 0.049434938
-0.048517972 -0.016052233 0.0067831273 -0.00039354182 0.0011598719 -0.01066 -0.28822973 0.03404808
-0.03539383 0.002171718 0.021708107 -0.00982259 0.006748787 0.10733477 0.028779086 0.06773982
0.09968902 0.12818305 -0.20866981 0.0009398415 -0.00050645473 0.0005757542 -0.029286753 0.08752775
0.009808554 -0.008787301 0.03452084 -0.001654411 0.018983968 0.24153595 -0.00015381837 0.046509013
0.05957636 -0.04992502 0.15972461 -0.007106296 -0.07464668 -0.010136709 0.0040166476 0.091791816
0.005585176 -0.016252846 0.033709187 0.10825194 -0.07295635 0.015227968 -0.10776828 -0.0067279926
-0.00034471307 -0.00063537754 0.047896843 0.17655937 -0.21060461 0.013709871 0.0032931012 0.019980432
-0.0007595548 0.0006546754 -0.01393977 -0.023052905 -0.098067224 -0.0007599964 -0.004360976 0.07086608
0.033439886 -0.0047105993 0.030850396 -0.11681318 0.08415351 -0.04168202 -0.26794407 -0.010998855
0.055781964 -0.17819671 0.060516212 -0.2948371 0.025237115 -0.030446472 -0.088676974 -0.14699112
0.017238837 0.048187703 0.046716955 0.14574626 -0.00014642207 -0.00019122692 -0.0239582 9.65026e-05
0.074690185 -0.00032636768 0.0814596 0.043373447 -0.022791237 0.13989186 -0.02256563 -0.00086414727
-0.05460211 -0.049765106 -0.03366801 -0.013825991 -0.02604751 -0.015984349 -0.016302455 -0.03090026
-0.21049285 -0.08615085 -0.03454321 0.0011165026 -0.0043305717 0.005970911 0.08389951 0.010852397
-0.123434596 -0.034982167 -0.059010554 0.10419965 -0.15043344 0.118830115 0.12519297 0.1830294
0.07093243 0.10880637 0.004194535 0.14028203 0.06553457 -0.0316584 -0.010566244 -0.04653181
-0.1739848 -0.03931231 0.11129593 0.048845753 -0.00066484977 -0.06019655 -0.0684279 0.048619255
0.21075828 0.0052682837 -0.016290084 0.029576171 -0.24299039 0.15698242 -0.02133237 0.03796334
-0.06891436 -0.12105564 0.09640892 0.0014601904 -0.11957809 -0.09550596 -0.04129133 -0.17264089
-0.106359325 0.32268265 0.09311507 -0.07066898 -0.01142123 0.20498727 -0.069184184 0.029788967
00000000: acb2 ed3d 26c3 90be 7a9c 1e3b 68b9 313d
00000010: e8c6 3ebd db9d 0a3d 9c73 50bc 88cc c1b9
00000020: f435 a2b9 8af9 b03d 5da2 9f3a 776f 2b3e
00000030: a1d7 f93c 0ee2 2b3e 303e 6ebc 62cb 15bc
00000040: 4d68 523e 74f5 b8bb 10fa 78bd 8841 9e3c
00000050: 4b37 d13b dae9 d03d 5603 c93e d61b 1cbc
00000060: 5e4d 91bb 904e 39bc b2b0 9cbc f0c1 b3bd
00000070: f7d5 e4bd b91c 0c3e 0473 c5bb 632b 033d
00000080: 0c39 693e 1cbc fabd 6755 63be 7c91 9dbe
00000090: 1808 5a3e 2925 de3d c339 dabd b4b7 993d
000000a0: bf4b dcbd f19c dfbc 0c04 183c b9e3 163b
000000b0: d21b 2c3e d54d 31bd 56b9 403d 6b46 573d
000000c0: b318 2b3b fed3 56bc 704b 08ba e5a3 813d
000000d0: e6a5 b7ba 5e6c cd3d 1ca8 a5bd 356f e2bd
000000e0: 261a 013b 4e2c 66be 7be3 4e3b f351 bcbc
000000f0: 6dab cf3b f882 12be 2c82 2cba 6ce9 913c
00000100: 09fe 233c 5eb5 d53e f4c6 f73c 0064 723d
00000110: f27b 393c 3dce f23c c98a 7bbc ad93 823d
00000120: ecbc e33d 32b9 3abe 0fda d6bc b0ff 5abe
00000130: 022d 40be 9ab6 2a3e 5e4d df3d ed92 9bba
00000140: d64c 3c3c 7d0e 143d d1e0 2c3e 89af 78bd
00000150: 43b4 d2bd 2785 273d 00ea 86bd b0ec 8abe
00000160: daa6 afba 58b0 b73b 4d84 a4ba 06b8 5ebd
00000170: 99b4 913d 5f97 033e ec93 ddbc 4a7c 4a3d
00000180: c8ba 46bd f97f 83bc ff44 de3b 4a54 ceb9
00000190: d806 983a 48a7 2ebc d992 93be 0076 0b3d
000001a0: 1ff9 10bd 6253 0e3b 33d5 b13c eeee 20bc
000001b0: ee24 dd3b 55d2 db3d 1ec2 eb3c 2dbb 8a3d
000001c0: c229 cc3d 6b42 033e 8aad 55be b25f 763a
000001d0: 9ac3 04ba 36ee 163a c6ea efbc c041 b33d
000001e0: 0fb4 203c 9df8 0fbc b965 0d3d d2d8 d8ba
000001f0: 4484 9b3c 3355 773e 4e4a 21b9 3c80 3e3d
00000200: 5706 743d 2e7e 4cbd d98e 233e eedb e8bb
00000210: 5ce0 98bd 7014 26bc 159e 833b 59fd bb3d
00000220: da03 b73b b024 85bc a512 0a3d 31b3 dd3d
00000230: 246a 95bd ba7e 793c 9eb5 dcbd 7e76 dcbb
00000240: 9bba b4b9 778f 26ba 7b2f 443d fbcb 343e
00000250: bca8 57be 5e9f 603c 12d1 573b 01ae a33c
00000260: dc1c 47ba 869e 2b3a a263 64bc 72d9 bcbc
00000270: 78d7 c8bd 7f3a 47ba 85e6 8ebb 3c22 913d
00000280: 43f8 083d 5f5b 9abb f8b9 fc3c c03b efbd
00000290: ad58 ac3d c4ba 2abd f72f 89be 8b34 34bc
000002a0: a17b 643d 3379 36be d9df 773d e3f4 96be
000002b0: 11be ce3c e16a f9bc 469c b5bd d784 16be
000002c0: 7638 8d3c 7860 453d 475a 3f3d 823e 153e
000002d0: e088 19b9 1684 48b9 fd43 c4bc 7061 ca38
000002e0: 2bf7 983d 541c abb9 4ad4 a63d 5ba8 313d
000002f0: b0b4 babc d03f 0f3e 8edb b8bc f187 62ba
00000300: 76a6 5fbd 7fd6 4bbd 78e7 09bd 6986 62bc
00000310: 9661 d5bc 9cf1 82bc ba8c 85bc 8b22 fdbc
00000320: 708b 57be db6f b0bd 2e7d 0dbd 9c57 923a
00000330: 78e7 8dbb a2a7 c33b 82d3 ab3d 41ce 313c
00000340: 47cb fcbd 7649 0fbd 0db5 71bd a066 d53d
00000350: 390b 1abe 345d f33d 9632 003e 0f6c 3b3e
00000360: 0645 913d e0d5 de3d 4f72 893b 18a6 0f3e
00000370: fd36 863d 3dac 01bd 0a1e 2dbc 2498 3ebd
00000380: 1229 32be f205 21bd 1fef e33d 7c12 483d
00000390: 5049 2eba a890 76bd ed23 8cbd fc24 473d
000003a0: 05d1 573e 91a1 ac3b c872 85bc ba49 f23c
000003b0: 79d2 78be 00c0 203e 39c1 aebc 727f 1b3d
000003c0: f922 8dbd 05ec f7bd 0a72 c53d dc63 bf3a
000003d0: 5ce5 f4bd a198 c3bd 1921 29bd c6c8 30be
000003e0: ebd2 d9bd a936 a53e 1db3 be3d e6ba 90bd
000003f0: 1c20 3bbc 2fe8 513e 70b0 8dbd fe07 f43c

gcn_layer1.linear.bias f4 [16]
0.10237776 -0.0383549 0.103760086 0.09458585 0.12087488 0.10173342 0.089230105 -0.03812339
0.10074611 0.093998656 0.08546847 0.081028 -0.015099707 0.11534804 0.08834579 0.15630935
00000000: 6eab d13d 071a 1dbd 2b80 d43d 3ab6 c13d
00000010: 408d f73d 9c59 d03d 46be b63d 4627 1cbd
00000020: fa53 ce3d 5e82 c03d 180a af3d 02f2 a53d
00000030: c364 77bc 983b ec3d a3ee b43d 8f0f 203e

gcn_layer2.linear.weight f4 [6, 16]
-0.6259418 -0.061599605 0.54311436 -0.5111719 -0.13874422 0.5983306 -0.6491712 -0.20814629
0.61183894 0.38724208 -0.38669434 -0.43591386 0.00439684 -0.27736896 0.51299715 -0.3012
-0.6424691 -0.1383823 0.59896046 -0.5425785 -0.41818407 -0.1507216 0.3957617 -0.058469404
0.4416585 -0.59063 -0.4165202 0.23895925 -0.13006772 -0.6174729 0.110842735 -0.58631426
0.38765925 -0.04074635 0.65183616 0.5436457 -0.5400235 -0.67481524 0.5207082 -0.22972424
0.5027115 0.4176292 0.54718703 0.5936598 -0.0013411473 -0.41772354 -0.46455723 -0.044375174
0.47961298 -0.11849598 -0.39218995 0.49710372 0.5660625 0.40774825 0.5853978 0.08853076
-0.5280845 0.57743937 0.5009106 0.49863327 -0.04643979 0.448435 0.59485984 -0.45877966
0.5428163 -0.15778087 -0.42603776 -0.34653288 0.6761208 -0.2924933 -0.3683275 0.044161044
-0.33561975 -0.57303977 -0.6061788 -0.64708054 0.07570495 0.5812001 -0.46185377 0.65801036
-0.21867262 0.08273332 -0.38521764 0.63117373 -0.4350566 -0.6180462 -0.6074119 0.08994321
-0.60114026 0.44295442 0.46463108 -0.6681613 -0.21081556 -0.62007356 -0.43464503 0.54900146
00000000: b93d 20bf de4f 7cbd 8b09 0b3f 29dc 02bf
00000010: f712 0ebe 322c 193f 1530 26bf 4d24 55be
00000020: 7aa1 1c3f 9844 c63e cdfc c5be 1a30 dfbe
00000030: 5e13 903b 4e03 8ebe c853 033f e336 9abe
00000040: db78 24bf 17b4 0dbe 7955 193f 6de6 0abf
00000050: 391c d6be c356 1abe 47a1 ca3e 9d7d 6fbd
00000060: 1021 e23e 8733 17bf 2342 d5be bcb1 743e
00000070: 7930 05be b412 1ebf 8401 e33d b118 16bf
00000080: 467b c63e a5e5 26bd bcde 263f 5d2c 0b3f
00000090: fb3e 0abf b1c0 2cbf 224d 053f d53c 6bbe
000000a0: b3b1 003f 7fd3 d53e 7314 0c3f 17fa 173f
000000b0: 70c9 afba dcdf d5be 72da edbe bec2 35bd
000000c0: d58f f53e 05ae f2bd 1fcd c8be 6184 fe3e
000000d0: 79e9 103f 61c4 d03e a1dc 153f 9d4f b53d
000000e0: 8c30 07bf 11d3 133f ad3b 003f dc4c ff3e
000000f0: a637 3ebd 4699 e53e bc48 183f 2be5 eabe
00000100: 02f6 0a3f 4f91 21be 9f21 dabe c26c b1be
00000110: 4116 2d3f afc1 95be 6c95 bcbe 36e2 343d
00000120: 5ad6 abbe bcb2 12bf 892e 1bbf 12a7 25bf
00000130: 320b 9b3d 88c9 143f 1978 ecbe 5e73 283f
00000140: b7eb 5fbe 1670 a93d 3f3b c5be 9a94 213f
00000150: bdbf debe 4738 1ebf 597f 1bbf 2534 b83d
00000160: 54e4 19bf ecca e23e 20e4 ed3e 9e0c 2bbf
00000170: 09e0 57be 24bd 1ebf cb89 debe 5c8b 0c3f

gcn_layer2.linear.bias f4 [6]
-0.034312896 0.13820319 -0.20243587 -0.30433547 -0.024212137 0.109583005
00000000: ae8b 0cbd 2385 0d3e 594b 4fbe dcd1 9bbe
00000010: 8858 c6bc 0e6d e03d
